model.pth (torch, 10203 bytes, 4 tensors)

embedding.weight f4 [38, 30]
0.70498925 -1.55186 -0.28816777 -0.89826864 0.19315054 1.3075901 -2.010697 -1.7322187
1.3648973 0.759378 -0.099882 0.17520103 0.5412749 0.34706074 0.44403622 -0.2251585
-0.08018343 0.56848514 -0.47894344 0.6487774 -0.12728724 -1.4868951 1.2292 -0.4919033
-0.30172428 -1.090311 0.98336214 1.6777332 1.1201098 -0.1253094 0.48244485 -0.7818282
0.33453494 -0.5069406 -2.3766267 -1.6202132 -0.09334072 0.22186895 0.67754984 -0.32980585
1.5831062 1.1674694 -0.02393754 0.5346632 0.793444 -0.41606462 0.7743098 -1.0163617
-0.21040455 -0.0995423 0.23392591 -0.85772675 -1.1070573 -0.33146912 0.49096128 -0.07873435
-0.55302304 0.6649895 0.91505945 -0.479696 0.057553057 -0.38924775 1.6153524 1.1640118
-0.5806542 -0.46509168 0.8207752 -0.04202674 -0.16746902 0.83208084 0.023987992 -0.9728462
1.2697963 -1.3662932 1.4006076 -0.07962869 0.6673299 -1.428703 -1.0413903 -0.8399173
-0.37561288 -0.9311101 -1.1946682 0.2588897 0.48838446 0.8649707 -0.3322209 1.6931098
0.4112409 -0.5006425 1.0657094 -0.29741406 -0.43937245 0.9544392 1.853827 -0.84550077
0.19478641 -0.531096 -0.05992388 1.6279275 -1.989706 -0.37061837 -0.021959487 0.057163753
-1.1291546 1.7243689 1.0262495 0.07992148 0.19516617 -0.31589645 -0.23271467 -0.11126377
-0.5988665 -0.86420715 1.7858524 0.14529137 0.38779333 -0.11808525 0.3730777 -1.6676407
0.43476132 -1.5914662 0.16390295 0.9491026 -0.26102847 -0.098212846 1.3861084 -1.2995135
-0.8014506 1.0534713 -1.3935759 -0.40861452 -0.9102233 1.0400379 -0.46042156 -0.64497644
-0.6773384 -0.0871148 -0.22911008 -1.3425461 -0.19411787 0.41677466 -0.9576691 0.42754722
1.3279414 -1.7674831 0.21428497 -0.2575614 0.25580084 0.6791001 0.1429481 1.9724473
0.6607938 -0.049858913 -1.0746197 0.43125865 -0.30322528 -1.621842 0.4365085 1.094517
-1.4134455 -1.3249793 1.2806234 1.7585262 0.26386133 0.40707725 0.87988824 -0.35835254
-0.66093534 -0.029704256 0.47882855 -0.7093569 -0.18682607 1.1039994 0.2840054 2.890536
1.1768087 1.3931396 1.6626507 -0.84512544 1.3748052 -0.8198648 -1.3942157 0.5170045
-2.3560073 0.47738612 -0.6617611 0.32481772 0.7499543 -0.74889094 0.28321025 0.8886159
0.46591064 -0.84189916 -1.6176126 -0.47304308 -0.08249098 -1.7006228 1.9884051 -1.4678714
1.7305273 0.8380241 -1.708591 0.8635404 1.1449935 -0.56653637 0.34067395 1.2144624
-1.0534387 -0.20118177 -1.2768722 1.3232266 0.78938144 -0.84956974 -0.45590943 0.5027758
-0.8315308 -0.65219283 -0.56325805 -0.8165592 0.03678148 0.24259531 -0.38301054 -0.3120683
-1.7856034 -0.5191753 -0.44033346 -0.77069837 0.21829922 -1.0914571 -0.31635028 -0.54893446
-0.80939555 0.15457276 -0.8577002 0.12090658 0.5703329 1.918929 -0.12470607 -0.99674726
-0.19080278 -1.0432395 0.8397815 -2.0553095 0.21694195 0.8998347 1.2919421 -0.33176276
1.0280441 -0.16644683 0.57114947 -0.7671992 -1.5593853 -1.1629105 -0.99473083 -0.2750413
00000000: 2d7a 343f 59a3 c6bf ba8a 93be eff4 65bf
00000010: 41c9 453e 1d5f a73f 42af 00c0 58b9 ddbf
00000020: f4b4 ae3f 9966 423f ef8e ccbd e667 333e
00000030: fe90 0a3f f2b1 b13e b758 e33e f38f 66be
00000040: 3637 a4bd 3e88 113f 1338 f5be 4716 263f
00000050: 9657 02be 9452 bebf 6d56 9d3f c0da fbbe
00000060: 9b7b 9abe 508f 8bbf 9fbd 7b3f f6bf d63f
00000070: c25f 8f3f 1b51 00be 0303 f73e e525 48bf
00000080: 2a48 ab3e dcc6 01bf a71a 18c0 2563 cfbf
00000090: 6b29 bfbd 9d31 633e e873 2d3f 50dc a8be
000000a0: 39a3 ca3f a36f 953f a918 c4bc b0df 083f
000000b0: 251f 4b3f 6c06 d5be 2b39 463f 2418 82bf
000000c0: 4a74 57be d5dc cbbd 468a 6f3e fb93 5bbf
000000d0: 0eb4 8dbf 52b6 a9be 475f fb3e 7a3f a1bd
000000e0: eb92 0dbf c03c 2a3f 5641 6a3f b79a f5be
000000f0: c1bc 6b3d 7b4b c7be dec3 ce3f 57fe 943f
00000100: c1a5 14bf 7f20 eebe 531e 523f 3b24 2cbd
00000110: 007d 2bbe 4003 553f 7782 c43c 730c 79bf
00000120: af88 a23f b2e2 aebf 1c47 b33f 5e14 a3bd
00000130: 22d6 2a3f bddf b6bf 474c 85bf d204 57bf
00000140: 5550 c0be 3b5d 6ebf e3ea 98bf 318d 843e
00000150: 870d fa3e b86e 5d3f dc18 aabe d2b7 d83f
00000160: 2b8e d23e 1b2a 00bf 2a69 883f a846 98be
00000170: 6df5 e0be 2156 743f 344a ed3f bd72 58bf
00000180: 1776 473e e8f5 07bf be72 75bd ee5f d03f
00000190: b0ae febf b1c1 bdbe 62e4 b3bc 8a24 6a3d
000001a0: 2388 90bf 1fb8 dc3f 255c 833f dfad a33d
000001b0: a4d9 473e 2ebd a1be c14c 6ebe 42de e3bd
000001c0: 514f 19bf ae3c 5dbf d096 e43f 43c7 143e
000001d0: d98c c63e aed6 f1bd 0a04 bf3e 4075 d5bf
000001e0: 0999 de3e 2ab5 cbbf 2dd6 273e 63f8 723f
000001f0: 86a5 85be d123 c9bd 006c b13f 7556 a6bf
00000200: de2b 4dbf 26d8 863f b260 b2bf ec35 d1be
00000210: 6504 69bf f61f 853f 60bc ebbe 2d1d 25bf
00000220: 0d66 2dbf 3f69 b2bd d59b 6abe 8dd8 abbf
00000230: d6c6 46be 7d63 d53e cd29 75bf 78e7 da3e
00000240: fcf9 a93f e33c e2bf 856d 5b3e 16df 83be
00000250: 54f8 823e 81d9 2d3f fd60 123e 2779 fc3f
00000260: c829 293f dc38 4cbd 238d 89bf efcd dc3e
00000270: 5840 9bbe 8598 cfbf 0b7e df3e 2219 8c3f
00000280: c8eb b4bf ec98 a9bf 78eb a33f 6317 e13f
00000290: d518 873e 6e6c d03e 5b40 613f fc79 b7be
000002a0: 0f33 29bf 5756 f3bc 0429 f53e 6a98 35bf
000002b0: 554f 3fbe da4f 8d3f 2869 913e 8bfe 3840
000002c0: aba1 963f 6652 b23f bdd1 d43f 245a 58bf
000002d0: 9ef9 af3f a9e2 51bf a975 b2bf 685a 043f
000002e0: d3c8 16c0 f46b f43e 2d69 29bf 824e a63e
000002f0: 01fd 3f3f 51b7 3fbf ef00 913e 557c 633f
00000300: d78b ee3e b486 57bf ee0d cfbf b432 f2be
00000310: 08f1 a8bd 02ae d9bf 0f84 fe3f 36e3 bbbf
00000320: eb81 dd3f bf88 563f 1cb3 dabf fc10 5d3f
00000330: 268f 923f 8708 11bf d16c ae3e 8173 9b3f
00000340: 14d7 86bf 9802 4ebe 8c70 a3bf 7d5f a93f
00000350: e714 4a3f 677d 59bf f66c e9be eab5 003f
00000360: 34df 54bf 1cf6 26bf ae31 10bf 060a 51bf
00000370: 2da8 163d e86a 783e f519 c4be 6bc7 9fbe
00000380: a78e e4bf ace8 04bf 6373 e1be 7d4c 45bf
00000390: d589 5f3e deb4 8bbf aaf8 a1be f886 0cbf
000003a0: 8c34 4fbf 5248 1e3e 3e92 5bbf de9d f73d
000003b0: 5601 123f 779f f53f e565 ffbd d42a 7fbf
000003c0: ce61 43be df88 85bf ecfb 563f 318a 03c0
000003d0: 0826 5e3e 915b 663f 5c5e a53f cfdc a9be
000003e0: f396 833f 0a71 2abe da36 123f 2b67 44bf
000003f0: f099 c7bf 40da 94bf aea6 7ebf 37d2 8cbe

layer.weight f4 [30, 30]
-0.09609676 -0.0061948705 0.04936566 0.13269098 0.3239023 -0.032396644 0.045182675 0.1122898
0.05829147 -0.3389451 0.46686426 -0.016511139 0.16048463 -0.17499392 0.07296246 0.055131715
-0.51709086 0.4702761 0.21944748 0.21645184 -0.1210591 0.18205786 0.35544768 -0.25449336
-0.02205555 0.030993486 -0.19549705 -0.27959397 -0.29875168 0.0460168 -0.16489983 -0.21443146
0.10866073 -0.06631425 0.10203914 0.208221 -0.11794796 0.14989175 -0.046015777 -0.10910628
0.31078532 0.018240858 0.23539706 -0.2045065 0.104853615 -0.07678525 -0.18224503 0.46699056
0.15960442 0.32103825 0.06515605 -0.016548375 0.21645303 -0.28867808 0.020129018 -0.09247727
-0.13034236 -0.3985535 -0.25705615 -0.1178028 0.5653091 -0.17550793 0.11865882 0.5925799
0.2543841 -0.08111176 0.07124824 -0.050485123 -0.42378622 0.39012095 -0.27721304 0.02803495
0.009382245 -0.38331488 0.1784578 0.082816176 0.07865682 -0.35710964 0.2836397 -0.2997153
0.03559733 -0.092861935 -0.30918026 0.13554935 0.05407466 -0.09836875 0.0010629408 -0.16487686
-0.26664343 -0.08662334 -0.22295575 0.40740025 -0.07251969 -0.13897793 -0.06517308 0.124470174
0.0041403873 0.084820196 -0.10180061 0.4939318 -0.5545287 -0.1092822 0.09901923 -0.033976033
-0.57263047 -0.03211456 0.17365146 -0.28678647 0.105810285 -0.5099219 0.036616683 -0.16115333
-0.26507312 0.29632786 0.3121684 -0.112110205 0.15189055 0.08315563 0.011711892 -0.06423693
0.12361135 0.05428178 -0.1802942 -0.25601432 -0.3169621 -0.14524797 0.15433605 -0.14293942
-0.085686125 0.37780258 -0.38189906 -0.27893957 0.087120876 0.071273826 -0.23240186 -0.06593799
0.02000776 -0.6068121 -0.20538253 0.056753807 0.029432597 0.04972875 -0.5468027 0.031230876
0.095822245 -0.24850632 0.11961272 0.41263175 0.34067956 -0.24265139 -0.060687225 -0.08874731
-0.010237177 -0.034072924 0.30703545 0.0639029 0.0025451595 0.11806831 0.019213855 -0.27075052
0.40194637 -0.10148061 0.4023714 0.0005217816 0.072267056 0.08352578 -0.34336212 0.27121472
0.25633025 0.17058949 0.15881418 -0.004022216 0.3967074 -0.1614634 -0.08517152 0.056175966
-0.21094772 -0.2226251 -0.101146854 0.093242094 0.1991853 0.038655087 0.10606355 0.4061907
-0.07844758 0.26411954 0.030201597 -0.44539037 0.010402358 0.4407172 -0.43626267 0.18322428
-0.203 0.10297061 0.077190794 0.08279608 0.6396583 0.06832539 -0.3747801 0.09954029
-0.3246819 -0.1871732 0.3742164 0.19013146 -0.059657767 0.31903172 0.036523912 -0.09991989
0.0735464 -0.08213445 -0.25135517 -0.11020063 0.030244462 -0.15412737 0.2152988 0.007282785
-0.04983068 0.29282898 0.11564787 -0.3460921 0.3397235 -0.24251512 0.26452622 0.06957293
0.15118144 -0.09030228 -0.24860096 0.40789488 0.13810362 0.16040397 0.024023948 0.11959114
0.55664504 -0.14700569 -0.1736785 -0.09203226 -0.15535243 -0.36297396 -0.46717978 -0.040373098
-0.057306815 0.5050306 -0.1646842 0.13484047 -0.09230684 -0.23474823 -0.008405684 0.50909024
-0.5408543 -0.10140655 -0.15616019 0.1423867 0.08159498 0.07669394 -0.21461087 -0.039685085
00000000: 61ce c4bd 57fe cabb a533 4a3d 25e0 073e
00000010: 86d6 a53e 58b2 04bd 7811 393d 32f8 e53d
00000020: 09c3 6e3d 368a adbe d508 ef3e 5e42 87bc
00000030: 1556 243e 9b31 33be 586d 953d cbd1 613d
00000040: 1160 04bf 07c8 f03e d7b6 603e 8da5 5d3e
00000050: d5ed f7bd 606d 3a3e 3dfd b53e f44c 82be
00000060: d7ad b4bc 0de6 fd3c 6130 48be f126 8fbe
00000070: fbf5 98be 1d7c 3c3d 80db 28be ec93 5bbe
00000080: 8489 de3d c4cf 87bd e6f9 d03d e337 553e
00000090: b38e f1bd 397d 193e 0a7b 3cbd 1d73 dfbd
000000a0: 411f 9f3e da6d 953c ed0b 713e 276a 51be
000000b0: 7ebd d63d 9641 9dbd 719e 3abe 6319 ef3e
000000c0: 576f 233e 205f a43e 8970 853d 7590 87bc
000000d0: dda5 5d3e 9dcd 93be 9ce5 a43c b964 bdbd
000000e0: 7878 05be 340f ccbe dd9c 83be 9842 f1bd
000000f0: 19b8 103f 5ab8 33be 6503 f33d 51b3 173f
00000100: a23e 823e ec1d a6bd 99ea 913d 7dc9 4ebd
00000110: 82fa d8be efbd c73e deee 8dbe 8da9 e53c
00000120: fdb7 193c d941 c4be a4bd 363e 879b a93d
00000130: d416 a13d 13d7 b6be 3939 913e 4974 99be
00000140: 82ce 113d 662e bebd e04c 9ebe 73cd 0a3e
00000150: 647d 5d3d 8e75 c9bd 6052 8b3a 7bd5 28be
00000160: 7d85 88be 9467 b1bd 834e 64be c496 d03e
00000170: 3485 94bd 3b50 0ebe 7779 85bd 38ea fe3d
00000180: 16ac 873b 36b6 ad3d d77c d0bd a1e4 fc3e
00000190: 98f5 0dbf 59cf dfbd 98ca ca3d 742a 0bbd
000001a0: e997 12bf 8f8a 03bd b0d1 313e add5 92be
000001b0: 10b3 d83d 3e8a 02bf 60fb 153d 6105 25be
000001c0: aab7 87be 49b8 973e 89d4 9f3e 099a e5bd
000001d0: 3289 1b3e 804d aa3d 3ce3 3f3c a78e 83bd
000001e0: f327 fd3d 9256 5e3d 0b9f 38be 4f14 83be
000001f0: db48 a2be e2bb 14be 450a 1e3e b65e 12be
00000200: 357c afbd 576f c13e 4688 c3be 2bd1 8ebe
00000210: 6e6c b23d 03f8 913d c1fa 6dbe 7f0a 87bd
00000220: 50e7 a33c 0a58 1bbf cc4f 52be ae76 683d
00000230: a11c f13c 60b0 4b3d 43fb 0bbf e5d7 ff3c
00000240: 743e c43d 7178 7ebe 84f7 f43d 7844 d33e
00000250: 8d6d ae3e 9b79 78be 2b93 78bd 26c1 b5bd
00000260: d5b9 27bc 0d90 0bbd c033 9d3e 86df 823d
00000270: b1cc 263b cccd f13d 6066 9d3c d09f 8abe
00000280: eacb cd3e 11d5 cfbd a003 ce3e 2cc8 083a
00000290: c000 943d 900f ab3d 29cd afbe a8dc 8a3e
000002a0: b83d 833e 03af 2e3e 2fa0 223e cbcc 83bb
000002b0: 3b1d cb3e a956 25be 686e aebd c518 663d
000002c0: ae02 58be d6f7 63be 1526 cfbd b6f5 be3d
000002d0: 3bf7 4b3e cc54 1e3d d937 d93d 3af8 cf3e
000002e0: 20a9 a0bd ad3a 873e 5769 f73c 350a e4be
000002f0: a76e 2a3c afa5 e13e d25d dfbe 259f 3b3e
00000300: 3bdf 4fbe 41e2 d23d 3516 9e3d fe90 a93d
00000310: a5c0 233f 2fee 8b3d 2de3 bfbe c8db cb3d
00000320: b53c a6be 55aa 3fbe 4b99 bf3e d2b1 423e
00000330: b45b 74bd 2058 a33e 199a 153d cda2 ccbd
00000340: 7f9f 963d 1b36 a8bd a0b1 80be deb0 e1bd
00000350: 3cc3 f73c 91d3 1dbe 4a77 5c3e 6ea4 ee3b
00000360: 411b 4cbd aeed 953e cad8 ec3d fc32 b1be
00000370: 3df0 ad3e e255 78be fb6f 873e 417c 8e3d
00000380: 4fcf 1a3e 67f0 b8bd 4091 7ebe 99d7 d03e
00000390: 096b 0d3e f040 243e dfcd c43c 33ec f43d
000003a0: 4a80 0e3f a988 16be c7d8 31be 697b bcbd
000003b0: b514 1fbe b9d7 b9be 3032 efbe 435e 25bd
000003c0: 8dba 6abd af49 013f faa2 28be 9f13 0a3e
000003d0: 5e0b bdbd d761 70be feb7 09bc bd53 023f
000003e0: 6d75 0abf 3dae cfbd 75e8 1fbe d2cd 113e
000003f0: 451b a73d b611 9d3d f4c2 5bbe d48c 22bd

layer.bias f4 [30]
-0.14237429 -0.16165581 -0.18168032 0.50367767 0.49188802 -0.19835046 0.24826078 -0.27773902
-0.08792085 0.24436538 -0.26945716 -0.20946842 -0.13916561 -0.1969606 -0.20148899 -0.167911
-0.2816549 -0.08852372 -0.17210281 -0.2470521 -0.132614 -0.32782328 -0.1648732 -0.03583294
-0.044727243 -0.17592095 -0.2547869 -0.25985005 -0.20521227 -0.18276466
00000000: 91ca 11be 1a89 25be 680a 3abe 05f1 003f
00000010: bfd8 fb3e 621c 4bbe 1338 7e3e cf33 8ebe
00000020: d90f b4bd eb3a 7a3e 4af6 89be e47e 56be
00000030: 6e81 0ebe 0ab0 49be 2153 4ebe dcf0 2bbe
00000040: 1235 90be ed4b b5bd b83b 30be 3afb 7cbe
00000050: f7cb 07be 74d8 a7be 85d4 28be 90c5 12bd
00000060: ea33 37bd 9f24 34be 6e73 82be 110b 85be
00000070: 2a23 52be a926 3bbe

classify.weight f4 [1, 30]
-0.9151081 -0.9839982 1.2977256 1.3552026 1.4371524 -0.89491653 1.3122692 -1.0160033
1.2554839 1.0252364 -0.91453433 -1.0599016 -0.95485884 -1.0163046 -0.9110915 -0.92120624
-0.89818054 1.2116088 1.1975105 -0.95286775 -0.9298931 -0.7777078 -1.0016818 -1.0106509
1.3508698 -0.7513049 -0.8946135 -0.86475056 -0.71826696 -1.0682379
00000000: 8644 6abf 4ee7 7bbf df1b a63f 4777 ad3f
00000010: 9cf4 b73f 4019 65bf 70f8 a73f 650c 82bf
00000020: b2b3 a03f f23a 833f ec1e 6abf dbaa 87bf
00000030: a171 74bf 4516 82bf 4b3d 69bf 2cd4 6bbf
00000040: 29ef 65bf ff15 9b3f 0648 993f 24ef 73bf
00000050: 790d 6ebf dc17 47bf 1c37 80bf 025d 81bf
00000060: 4de9 ac3f 8555 40bf 6405 65bf 4b60 5dbf
00000070: 58e0 37bf 05bc 88bf
