model.pth (torch, 10203 bytes, 4 tensors)

embedding.weight f4 [38, 30]
0	0xbe97cb1b	-0.29647145
1	0x3ef07ebe	0.46971697
2	0x3ff23975	1.8923784
3	0x4005f241	2.092911
4	0x3f346dd9	0.70480114
5	0xbf5f723d	-0.8728369
6	0xbe4f654d	-0.20253487
7	0x3deec1bd	0.116580464
8	0x3f2d34a6	0.6765846
9	0xbf280974	-0.65639424
10	0xbff3f049	-1.9057704
11	0xbe99374b	-0.29924998
12	0x40147f0d	2.3202546
13	0xbfe9ccdd	-1.8265644
14	0x3f9f3bc1	1.244011
15	0x3f1cbf10	0.6122904
16	0x3f36ec1b	0.7145402
17	0x3e840d76	0.2579152
18	0x3f7ad61e	0.97982967
19	0x3eaf6cc5	0.34262672
20	0x3f1220bd	0.57081205
21	0x3ec5435a	0.38527948
22	0xc026325f	-2.5968244
23	0xbecfadb3	-0.4056221
24	0x3cac5167	0.02103491
25	0xbe7886cd	-0.24270172
26	0x3f2f628c	0.68509746
27	0xbf4bce34	-0.79611516
28	0x3eb1401d	0.34619227
29	0x3e5fe014	0.21862823
30	0x3f9d26ed	1.2277504
31	0x3fb84636	1.4396427
32	0x3eb0937b	0.3448752
33	0xc02c4eb4	-2.6923037
34	0xbfad1456	-1.3521831
35	0x3f929366	1.1451232
36	0xbf702a17	-0.93814224
37	0xbf3186c2	-0.6934625
38	0x3ec74463	0.38919362
39	0xbf2e79e4	-0.6815474
40	0xbed01085	-0.40637603
41	0xbf121856	-0.57068384
42	0x3fc3586b	1.5261358
43	0x4017c99d	2.3716805
44	0xbe0d284c	-0.13784903
45	0xbfd0d8d5	-1.6316172
46	0x3fe5af8e	1.79442
47	0xbe35bf9f	-0.17748879
48	0xbfae7511	-1.3629476
49	0xbfbc7446	-1.4722984
50	0x3fe6d299	1.8033019
51	0x3f180637	0.59384483
52	0x3f8a106e	1.0786264
53	0xbfecda95	-1.8504206
54	0x3f18a777	0.5963053
55	0xbf1c2981	-0.6100083
56	0x3f91cdb5	1.1390902
57	0xbfdd14e0	-1.7271996
58	0x3fa30d09	1.2738353
59	0x3de1414d	0.10998783
60	0xbeab33f4	-0.33438075
61	0xbf996c54	-1.1986184
62	0xbec7eb39	-0.39046648
63	0xc0228b4a	-2.5397515
64	0xbfbd8c46	-1.4808433
65	0xc017fb84	-2.3747263
66	0xbd3cfbd3	-0.046138596
67	0xbedd3462	-0.43204027
68	0xbf0089e5	-0.5021041
69	0x3e15ac86	0.14616594
70	0xc0036c93	-2.0535018
71	0xbf6b8f3c	-0.92015433
72	0xbf996c37	-1.198615
73	0x3e242ca6	0.16032657
74	0x3dffa275	0.12482158
75	0xbfed3fba	-1.8535073
76	0xbeb13dab	-0.3461736
77	0x3fd03e58	1.6269026
78	0xc044fc75	-3.0779088
79	0xbff5e51c	-1.9210544
80	0xbfab669d	-1.339069
81	0xbf9f441c	-1.244266
82	0x3f964257	1.1738995
83	0xbed98058	-0.4248073
84	0x3f63c493	0.88971823
85	0xbf9790e6	-1.1841094
86	0x40572445	3.3615887
87	0xbe6556ac	-0.22396344
88	0x3eb9429e	0.36183637
89	0x3f1994a2	0.5999242
90	0xbf95e199	-1.1709472
91	0x3f7a131b	0.976854
92	0xbfb793fb	-1.4342035
93	0xbf1f6c0d	-0.6227425
94	0xbe16c495	-0.14723428
95	0x3eb465d5	0.35233942
96	0xbe156515	-0.14589341
97	0xbec978fc	-0.39350116
98	0x3fde56d5	1.7370249
99	0xbfd5b1ae	-1.6694849
100	0x3f7cd96c	0.9876926
101	0xbee1443e	-0.43997377
102	0x3dcfb33e	0.101416096
103	0x3f839a2a	1.0281422
104	0xc0542c69	-3.3152106
105	0x3d268f76	0.04066416
106	0xbe22788c	-0.15866297
107	0x3fefabb2	1.8724272
108	0xc0170843	-2.3598793
109	0xbe7a18cd	-0.24423523
110	0x3fa0c53e	1.2560194
111	0xbfc949df	-1.5725669
112	0x4009ee78	2.15518
113	0xbf057f3c	-0.5214727
114	0x3f39eadf	0.7262401
115	0x3dec263a	0.11530729
116	0x3ff04eff	1.8774108
117	0xc0188582	-2.3831487
118	0x3fc61b91	1.5477163
119	0x3f97449e	1.1817815
120	0x3f1ae32e	0.605029
121	0xbf1ba99b	-0.6080567
122	0xbff0bc4e	-1.8807466
123	0x3e7a8c4f	0.24467586
124	0xbeca5a1a	-0.39521867
125	0xbea1c8fd	-0.31598654
126	0x3f000811	0.5001231
127	0xbdc08588	-0.09400469
128	0x400c5052	2.1924024
129	0xbf2b2a55	-0.6686147
130	0xbe57745f	-0.21040486
131	0x3f4d646b	0.8023135
132	0xbe46a223	-0.19397788
133	0x3fff873d	1.9963146
134	0xc029c4b2	-2.6526303
135	0xbf55ff26	-0.8359245
136	0x3f3341b8	0.70022154
137	0x3fe022ae	1.7510583
138	0xbf9833b6	-1.1890781
139	0x3f2cbfed	0.67480356
140	0x3f68af1b	0.9089219
141	0xbf944db2	-1.1586211
142	0xbe5ba384	-0.21449095
143	0xbfc081be	-1.5039594
144	0x3f06a1f1	0.5259085
145	0xbf1459d1	-0.5794955
146	0x3feaf1ad	1.8355004
147	0xbf89c28a	-1.0762494
148	0x3f005198	0.501245
149	0x3f0dc692	0.5538112
150	0xbfa7b2e4	-1.3101468
151	0xbf91e259	-1.1397201
152	0x3e898afd	0.26863852
153	0x3fa4387c	1.2829738
154	0x3fcdd6a1	1.6081125
155	0xbfb6ff8a	-1.4296734
156	0xbfef1b46	-1.8680198
157	0xbfdce657	-1.7257794
158	0x3ed102e6	0.40822524
159	0x3feb0dd0	1.836359
160	0x40067f79	2.1015303
161	0x3e841607	0.25798056
162	0xbfa0b055	-1.2553812
163	0xbf1ba371	-0.60796267
164	0x3ed407db	0.41412243
165	0xbdcfbeb4	-0.101437956
166	0xbf988b9e	-1.1917608
167	0xbf19971b	-0.59996194
168	0x3da17eb1	0.078854926
169	0xbfb33ff8	-1.4003897
170	0x3ecd1788	0.40057015
171	0xbfb6de4f	-1.4286593
172	0xbfa1773e	-1.2614515
173	0x3d075333	0.03303833
174	0xbd53768f	-0.05162674
175	0xbec6237e	-0.38698953
176	0x3f149722	0.5804311
177	0x3ead0248	0.33790803
178	0xbfd7013a	-1.6797249
179	0x3f84f015	1.0385767
180	0x3f5fc2d2	0.8740665
181	0x403af7cf	2.921375
182	0x3f56c4c1	0.8389397
183	0xbf61a755	-0.88145953
184	0x3f83fc11	1.03113
185	0x3f00391c	0.5008714
186	0xbb940eee	-0.0045183813
187	0x3ebda40e	0.37039226
188	0x3e5aca9a	0.21366349
189	0xbeca7fae	-0.39550537
190	0xbfffffd7	-1.9999951
191	0x3d01d6f1	0.031699125
192	0xbe97f580	-0.2967949
193	0x3fe9fdfc	1.8280635
194	0x3eb6684a	0.3562644
195	0x3f677acc	0.9042175
196	0xbffb773a	-1.964576
197	0xbf4edd08	-0.80806017
198	0xbfc0e82e	-1.5070856
199	0x3f40bc6b	0.75287503
200	0xc0074bad	-2.113994
201	0x3f1307e7	0.57433933
202	0xbffddf8c	-1.9833846
203	0x3e42ee73	0.19036274
204	0x3c242b3f	0.010020076
205	0x3f62de82	0.8862077
206	0xbfa0a84c	-1.255136
207	0xbf5ec1b8	-0.8701434
208	0xbefe1910	-0.49628496
209	0xbfdac53c	-1.7091441
210	0xbf515a0d	-0.8177803
211	0xbf12d7b4	-0.57360387
212	0x3ef4bbe7	0.47799608
213	0x3eb40067	0.35156557
214	0x3e35de1b	0.17760508
215	0x3faa87ed	1.3322731
216	0x3ef02ae7	0.46907732
217	0x3f06db37	0.52678245
218	0x4041ee84	3.0301828
219	0xbfa58fd6	-1.293452
220	0x3ce94a6a	0.028477866
221	0x3fffd2de	1.9986227
222	0x3f9a88dd	1.2073017
223	0xc013cd96	-2.309423
224	0x3f52c8b9	0.8233753
225	0xbfba954a	-1.457681
226	0xbf24bd6f	-0.6435155
227	0xbf8e1792	-1.1100943
228	0x3fbb0f8b	1.4614118
229	0x3fcfd106	1.6235664
230	0x3e908718	0.28228068
231	0x3ebf51e7	0.37367174
232	0x3f0a21b6	0.5395769
233	0xbf91c732	-1.1388915
234	0x3eb6a3a9	0.35671738
235	0xbf9d9cdf	-1.2313498
236	0xbf90fff8	-1.1328115
237	0x4007b4ad	2.1204026
238	0xbfbb0906	-1.4612129
239	0x3f8e4917	1.1116055
240	0x3f7e43fe	0.993225
241	0x3f9c90df	1.2231711
242	0xbe32c2c1	-0.17457105
243	0x3f9ef40f	1.2418231
244	0xc00643d1	-2.0978892
245	0x3ecc2709	0.3987353
246	0xbe378e57	-0.17925392
247	0xbfb0dc0e	-1.3817155
248	0xc088d440	-4.2759094
249	0xbe9b6bcc	-0.3035568
250	0xbeb3149f	-0.3497667
251	0xbf8d44fc	-1.1036677
252	0x402e48ca	2.7231927
253	0x3e87596c	0.2643541
254	0xbe9bb77f	-0.30413434
255	0xbf58eebb	-0.84739274

layer.weight f4 [30, 30]
0	0xbe2d311d	-0.16913266
1	0x3e810567	0.25199434
2	0x3ea09438	0.31363082
3	0xbdb61790	-0.08891213
4	0x3cd24bc4	0.025670893
5	0x3cd8ca6b	0.026463708
6	0xbd902948	-0.07039124
7	0x3e9cb027	0.30603144
8	0xbed5eb78	-0.4178121
9	0x3da424e2	0.08014847
10	0xbf3fdd0e	-0.7494668
11	0xbe8a9d90	-0.27073336
12	0xbe4f6a1b	-0.2025532
13	0x3ec48d85	0.3838922
14	0xbe74ba78	-0.23899257
15	0x3d634e52	0.055494614
16	0xbc9972a6	-0.018731426
17	0xbe1e6624	-0.15468651
18	0x3ebec358	0.3725841
19	0x3bbb84c7	0.0057226154
20	0xbe817bcb	-0.2528976
21	0x3f874188	1.0566874
22	0xbec074f0	-0.37589216
23	0xbd898cf6	-0.06716339
24	0x3dc3fffe	0.09570311
25	0x3ea65dcf	0.32493445
26	0x3f02b6ae	0.5106
27	0x3e67e810	0.22647119
28	0xbef102e8	-0.4707253
29	0xbdf22c9a	-0.11824913
30	0x3cb3b653	0.021937525
31	0x3d7de5eb	0.061986845
32	0x3e4b36a8	0.19845068
33	0xbe8cfd36	-0.27536935
34	0x3e9d038c	0.3066677
35	0x3d5d5464	0.05403556
36	0xbc5979f1	-0.013273702
37	0xbe3ddc83	-0.1854115
38	0x3de4a986	0.111651465
39	0x3e607e45	0.21923168
40	0x3e8684ea	0.2627328
41	0x3f1a728f	0.6033105
42	0xbda08ff9	-0.078399606
43	0xbe31ef5f	-0.17376469
44	0x3d99e18f	0.07513725
45	0x3d88eeff	0.0668621
46	0xbe9e09ba	-0.30866796
47	0xbe7dca00	-0.24784088
48	0xbec374ab	-0.38174948
49	0xbe05aa3c	-0.1305322
50	0xbe17683f	-0.1478586
51	0x3e67793a	0.22604838
52	0x3e21bfb4	0.15795785
53	0x3db75779	0.08952231
54	0xbd05c272	-0.03265614
55	0xbea09d8e	-0.31370205
56	0xbef05e65	-0.46947017
57	0x3e0d3f6b	0.13793723
58	0x3e10688d	0.14102383
59	0x3da2cbc6	0.07949023
60	0xbec24fee	-0.37951607
61	0xbec83237	-0.3910081
62	0x3e96c885	0.2944986
63	0x3e408a7a	0.18802825
64	0xbe2f2fb1	-0.17108037
65	0x3d1a2bb2	0.037639327
66	0xbe09298b	-0.13394754
67	0xbe189764	-0.14901501
68	0x3e9fba3b	0.3119677
69	0x3e9de07e	0.30835336
70	0x3d9954db	0.07486888
71	0x3e27a281	0.16370584
72	0x3db44791	0.08802713
73	0xbe16be42	-0.14721015
74	0x3ca35c91	0.0199416
75	0x3dbbec04	0.09175876
76	0x3e25fc87	0.16209613
77	0xbc24aa46	-0.010050362
78	0x3e8089f9	0.25105265
79	0x3ebfc975	0.37458387
80	0x3d9f984c	0.0779272
81	0xbda625de	-0.08112691
82	0x3d2a5fb5	0.04159518
83	0x3e8ab4d4	0.27091086
84	0x3e6357d2	0.2220147
85	0xbe1168ff	-0.14200209
86	0xbe270d9f	-0.1631379
87	0x3ecf37d1	0.40472272
88	0xbe0f132f	-0.13972162
89	0x3dfc28d5	0.123124756
90	0xbdb0175f	-0.08598208
91	0xbd32b337	-0.043627944
92	0x3da62538	0.08112568
93	0x3e0d99ac	0.13828152
94	0x3ee7d4b2	0.4527946
95	0x3e0b8b34	0.1362732
96	0xbe451cbe	-0.19249246
97	0x3df85c88	0.12127024
98	0xbe02bebf	-0.12768076
99	0xbe493f09	-0.19652952
100	0x3edc1532	0.4298492
101	0xbed00e8c	-0.40636098
102	0xbe22050a	-0.15822235
103	0x3e3bed68	0.18352282
104	0xbe44dadb	-0.19224112
105	0x3e26e05a	0.16296521
106	0x3c2139d1	0.009840445
107	0x3d425990	0.047448695
108	0x3eb36420	0.35037327
109	0xbe9a3d2f	-0.30124804
110	0xbf2caf58	-0.67455053
111	0xbe4b9272	-0.19880083
112	0xbeeaec72	-0.45883518
113	0xbc90e6e7	-0.017688228
114	0x3dbd3b92	0.09239878
115	0x3d90b50d	0.07065783
116	0xbe4b1182	-0.19830897
117	0xbe5446ca	-0.20730129
118	0xbe8908cb	-0.2676452
119	0xbd6c0729	-0.057624016
120	0x3d8a04b0	0.06739175
121	0xbde290c6	-0.110627696
122	0xbe64c4af	-0.22340654
123	0xbe5cc81f	-0.21560715
124	0xbe957dbd	-0.29197493
125	0xbc71ecbd	-0.014765915
126	0x3db84ba6	0.08998804
127	0xbc8adbf8	-0.016950592
128	0x3e80e366	0.2517349
129	0xbe163c49	-0.14671434
130	0xbe454b13	-0.1926692
131	0xbd847f2d	-0.06469569
132	0xba20aa38	-0.000612888
133	0x3ea70625	0.32621875
134	0xbe83cef0	-0.25743818
135	0xbde5dfbc	-0.112243146
136	0x3cdc319e	0.026879128
137	0x3ec5d5c4	0.38639653
138	0xbe9b6a1c	-0.30354393
139	0xbecd1db1	-0.40061715
140	0x3e976b99	0.29574278
141	0xbe388c8d	-0.18022366
142	0x3e070318	0.13184774
143	0xbe86f455	-0.26358286
144	0x3d3045a8	0.04303518
145	0xbe8d6a8a	-0.27620345
146	0x3e300d2d	0.17192526
147	0xbe3aaab6	-0.18229184
148	0xbd37e8c5	-0.04489972
149	0x3e50a105	0.20373924
150	0x3d92fd60	0.07177234
151	0xbed362f1	-0.41286424
152	0xbe1dd0e7	-0.15411721
153	0x3c5d5b98	0.013510607
154	0x3e6920fb	0.22766487
155	0x3d6acb92	0.057323046
156	0xbed0a1ef	-0.40748546
157	0xbde07cc1	-0.10961295
158	0x3e511dbe	0.20421502
159	0x3e5a307b	0.21307556
160	0x3cec6722	0.028857771
161	0x3ef4ba03	0.47798166
162	0x3e5a9ee7	0.21349679
163	0xbe27f9c0	-0.16403866
164	0x3df9cfce	0.12197839
165	0xbeacdbd3	-0.33761463
166	0xbebdb0ef	-0.37049052
167	0x3e48b919	0.19601859
168	0x3e6e4901	0.23270036
169	0x3de4588e	0.11149703
170	0xbd36c3ff	-0.04462051
171	0xbe455331	-0.19270016
172	0x3e3c00ac	0.18359631
173	0x3f0115fb	0.50424165
174	0xbde1707a	-0.11007781
175	0x3dac1d33	0.08404007
176	0xbe1ad63d	-0.15120788
177	0x3e026d98	0.12737119
178	0xbe090240	-0.13379765
179	0xbe3e71dc	-0.18598121
180	0x3dce5e48	0.100765765
181	0x3b6ca0e3	0.0036106638
182	0xbe3c237d	-0.18372913
183	0xbe3fbc35	-0.18724139
184	0xbdb33d36	-0.087519094
185	0x39c3ea2d	0.00037367773
186	0x3ddbf1a9	0.107394524
187	0xbd1eae64	-0.03874053
188	0x3e2feb3d	0.1717958
189	0xbe28087b	-0.16409485
190	0xbcc952bf	-0.02457559
191	0x3c72f63e	0.0148292165
192	0x3deabf46	0.11462264
193	0x3e9d0b64	0.30672753
194	0xbe32fde6	-0.17479667
195	0xbdf7ac50	-0.12093413
196	0x3e247053	0.16058473
197	0x3eae2a22	0.3401652
198	0xbec5b556	-0.3861491
199	0xbe584706	-0.21120843
200	0x3e183fec	0.14868134
201	0xbc66cfa7	-0.014087594
202	0x3ea1fc53	0.3163782
203	0xbe981d8a	-0.29710037
204	0x3b3203e1	0.0027162957
205	0xbe7d64ce	-0.24745485
206	0x3ecd51f3	0.40101585
207	0xbe650986	-0.22366914
208	0x3d451dbc	0.04812406
209	0x3e2a24f4	0.16615659
210	0xbee91faf	-0.45531985
211	0xbdfc1d99	-0.12310333
212	0x3e891b35	0.2677857
213	0x3eaa7e08	0.3329928
214	0x3e004c70	0.12529159
215	0x3e3af3ed	0.18257113
216	0x3f0ff992	0.5624019
217	0x3d6a084e	0.057136826
218	0xbddc5a53	-0.107594155
219	0xbe8a079b	-0.26958928
220	0xbe21c96f	-0.15799497
221	0xbecd484d	-0.40094224
222	0x3ea786b1	0.3271995
223	0x3d3d0bef	0.04615396
224	0x3d5df19c	0.054185495
225	0x3e2a8d38	0.16655433
226	0xbeafbadf	-0.3432226
227	0xbd8c72a0	-0.068578005
228	0x3e85f9d1	0.26167157
229	0x3f0a6e57	0.54074615
230	0xbe114649	-0.14186968
231	0xbc97945c	-0.01850336
232	0xbe0bccd4	-0.13652354
233	0xbec1b953	-0.37836704
234	0xbc309406	-0.010777479
235	0xbe7bdddd	-0.24596353
236	0xbddb647b	-0.107125245
237	0xbebab5ad	-0.36466733
238	0xbdbde9be	-0.092730984
239	0xbe982ac8	-0.2972014
240	0x3de1f621	0.110332735
241	0x3ef1a9b8	0.47199798
242	0xbe687fed	-0.2270505
243	0x3d65416e	0.0559706
244	0xbac46597	-0.0014983889
245	0x3d9c4b7c	0.07631585
246	0xbe140e0b	-0.14458482
247	0xbe8eb721	-0.2787409
248	0xbe8f80c3	-0.28027925
249	0x3e201040	0.15631199
250	0xbf05d689	-0.5228048
251	0xbbbca9e9	-0.0057575596
252	0x3d0a9701	0.033835415
253	0xbd4de350	-0.05026561
254	0x3e044dd6	0.12920317
255	0x3e3fed24	0.18742806

layer.bias f4 [30]
0	0xbec16128	-0.37769437
1	0x3ec41835	0.38299718
2	0x3e00a9cc	0.12564772
3	0x3da1d9cb	0.07902869
4	0xbed7e7e2	-0.421691
5	0x3e9a1f8e	0.301022
6	0xbee44857	-0.4458644
7	0x3e55292b	0.20816486
8	0x3dfe916c	0.12430081
9	0x3ea8e330	0.3298583
10	0xbe8dea55	-0.27717844
11	0xbeac303b	-0.33630547
12	0xbec6f0e7	-0.3885567
13	0xbef8350f	-0.4847798
14	0xbef74312	-0.48293358
15	0xbeeb0f6d	-0.45910206
16	0x3ed847a0	0.42242146
17	0x3e03f329	0.12885727
18	0xbebc929f	-0.36830613
19	0xbecc97b2	-0.39959484
20	0x3e5f4611	0.21804072
21	0xbcdb80c1	-0.026794793
22	0x3ea245fc	0.3169402
23	0xbf06889c	-0.525522
24	0x3e4ebb74	0.20188695
25	0x3e90d003	0.282837
26	0xbec7b5fc	-0.3900603
27	0x3e1e4635	0.1545647
28	0x3e445145	0.19171627
29	0xbefc8a77	-0.4932439

classify.weight f4 [1, 30]
0	0x3f44784d	0.76746064
1	0x3f56c5a1	0.8389531
2	0x3f55155e	0.8323573
3	0x3f4ae539	0.79256016
4	0xbfd3b738	-1.6540289
5	0x3f455e80	0.7709732
6	0xbfd03f24	-1.6269269
7	0x3f3de998	0.7418456
8	0x3f3a485b	0.72766656
9	0x3f550972	0.8321754
10	0xbfbde7c6	-1.4836357
11	0xbfc67502	-1.5504458
12	0xbfbd650d	-1.4796463
13	0xbfcdc402	-1.6075442
14	0xbfbdf746	-1.4841087
15	0xbfb9f50b	-1.4527906
16	0x3f5e64b7	0.8687243
17	0x3f5fb890	0.87390995
18	0xbfd717ba	-1.6804116
19	0xbfd6109a	-1.6723816
20	0x3f53bb20	0.82707405
21	0x3f2e5e2a	0.6811243
22	0x3f5a1795	0.85192233
23	0xbfc09386	-1.504502
24	0x3f4e2817	0.8052992
25	0x3f35b80c	0.7098396
26	0xbfbdb7d4	-1.4821725
27	0x3f371c20	0.7152729
28	0x3f54e288	0.8315816
29	0xbfcdbf23	-1.6073955
