41-陈亮-上海/model.pth (torch, 5979 bytes, 5 tensors)

embedding.weight f4 [28, 20]
000000 f8 0a 3f 3f c6 e9 29 40 cb ce 7a 3f 5a 13 2b be
       0.7462611 2.6548934 0.9797179 -0.16706601
000010 2d b0 0d 3f fd 3d 0a bd 05 e8 40 bf a7 b3 03 bf
       0.5534695 -0.033750523 -0.75354034 -0.51446
000020 98 91 b1 bf 25 0a c2 be 6c 71 ce 3e 2e db 97 3e
       -1.3872557 -0.37898365 0.4032091 0.29659408
000030 ae 41 a2 3f 32 78 7e 3e 18 6a a8 bf 3b 65 39 bf
       1.2676294 0.24850538 -1.3157377 -0.7242009
000040 94 72 bd 3f e5 e3 13 3d ce 80 c2 be cb 87 b7 3e
       1.4800591 0.03610601 -0.37988895 0.3584579
000050 ac 4b 42 40 a3 4f 07 3f f7 ea 64 c0 d5 1f 0e c0
       3.0358686 0.5285589 -3.576841 -2.2206929
000060 58 2c 89 bf 74 bc 95 3e 50 f7 7c 40 22 c7 dc 3f
       -1.0716658 0.2924534 3.9525948 1.724827
000070 b9 65 34 c0 7a 4f a6 bf 1b 88 71 bf 09 de e6 3e
       -2.8187087 -1.2993004 -0.94348305 0.45091274
000080 93 01 db 3f cf ab 02 40 3a 82 3a c0 f3 1f 98 bf
       1.7109855 2.0417364 -2.9141984 -1.188475
000090 29 c5 57 bf bf 53 84 3f 1d f7 d4 bf df e1 aa 3f
       -0.8428522 1.0338057 -1.6637913 1.335018
0000a0 8b e6 8c 3e c9 88 07 40 b1 f7 5f c0 21 19 dc be
       0.2751964 2.1177237 -3.499493 -0.42987922
0000b0 e0 8d f6 be 9d e9 1c 3f 44 2d d2 3f b6 27 c4 3f
       -0.48155117 0.61293966 1.6420064 1.5324619
0000c0 ce 6a 32 c0 2a bc f2 bf 06 f7 6e c0 b9 65 d1 3f
       -2.7877688 -1.8963673 -3.733827 1.6359168
0000d0 59 d8 d8 3d 6c aa ad 3f 6e 2a 0f 3f 9e bb 48 bf
       0.1058814 1.3567634 0.5592412 -0.7841128
0000e0 6d 8c 3a c0 07 dd 6d 3f f1 2b 8a bf c9 d7 89 bf
       -2.914821 0.92915386 -1.079466 -1.0768977
0000f0 d5 37 d8 3f a9 8b 2b 40 29 ef 4d c0 30 f6 36 c0
       1.6892039 2.6803992 -3.2177222 -2.858776
000100 d6 da 04 3f 0d e7 9a 3f 0a 60 71 3f c1 19 88 3f
       0.5189642 1.2101761 0.9428717 1.063286
000110 46 b7 ca bf 6d 05 07 bf 93 f4 19 c0 1c 13 48 40
       -1.5837181 -0.52742654 -2.4055526 3.1261663
000120 e1 6b 58 3f 4b 67 47 40 2e 37 5c 3e 7d d5 38 bf
       0.8453961 3.1156795 0.21505424 -0.7220076
000130 3f 8a 0a c0 c8 21 c0 3e 2f d5 8e bf 76 60 dc 3f
       -2.1646879 0.37525773 -1.1158808 1.7216938
000140 ff b1 19 c0 bd 39 12 bf 55 93 9e be 5c fd c6 3f
       -2.401489 -0.5711935 -0.3097178 1.5546069
000150 38 2a 31 3f 9f 53 b1 bf 9f 16 2a 3e 09 dc a7 3e
       0.69205046 -1.3853644 0.16610192 0.3278506
000160 f2 ac 0e 40 81 5d 2f be 6f c5 7b 3f 00 91 33 40
       2.2293057 -0.17125513 0.98348135 2.805725
000170 d9 77 e1 3e 2d 48 87 3f f5 e5 c9 3e d5 75 00 bf
       0.4403675 1.0568901 0.39433256 -0.501798
000180 af b0 db 3f 42 62 a5 3f 7b 5a 42 3f 3f df 19 bf
       1.7163295 1.2920611 0.7591931 -0.6010627
000190 b9 27 91 be bc 14 1b 3f 6e 1d 07 bf ac 53 e3 3e
       -0.28350618 0.60578513 -0.5277928 0.44399774
0001a0 d8 7e d0 3e e9 5b a6 bf c2 ce b8 bf 99 fd 22 40
       0.40721774 -1.2996799 -1.4438097 2.5467284
0001b0 fa 55 e5 3f d8 62 ad 3e cc e8 d5 be 0a fe 91 3f
       1.7916863 0.33864474 -0.41779172 1.1405652
0001c0 9c 4a 54 bf a7 28 1a 3f 13 cc e6 bf 45 c5 0a 3e
       -0.82926345 0.6021828 -1.8031029 0.13551815
0001d0 9c ed 3c 40 08 66 39 bf 70 08 8a bf 34 03 1d be
       2.9520025 -0.7242131 -1.0783825 -0.15333253
0001e0 7b 72 c1 bf a0 ae 0a 3f 59 0c 40 be c8 62 a1 bf
       -1.5113062 0.54172707 -0.1875471 -1.2608271
0001f0 ec 59 92 3f fa 74 82 bf db 94 12 c0 f3 85 d1 3f
       1.1433692 -1.0191948 -2.2903354 1.6369003
000200 be 99 08 3e bd b1 da bb c7 b2 1c bd 0c 0f 08 3d
       0.13339898 -0.00667402 -0.038256433 0.033217475
000210 95 e6 2b 3f 41 0b 96 bf a9 90 32 be d7 6f 3f 40
       0.67148715 -1.1722184 -0.17437996 2.9912012
000220 3b 3a 0f bf 8a 0e e2 3f 70 10 aa 3e 9c 1b ac 3f
       -0.5594823 1.7660687 0.33215666 1.3445926
000230 32 b9 85 be d6 67 92 3f 28 9c ac 3f 45 17 2b be
       -0.26117855 1.1437938 1.3485155 -0.16708095
000240 7b 19 9c 3b 1a 90 48 3e ad d8 a1 be 22 06 b1 3e
       0.0047637797 0.1958622 -0.31610623 0.3457499
000250 c6 8d 9c bd 5b 78 29 3e 1c aa 9d be d9 15 29 bf
       -0.07644229 0.16549818 -0.30793846 -0.6604896
000260 6d 06 b6 be 24 37 0e bf 14 ae 74 3f 59 6b b0 be
       -0.35551777 -0.5555289 0.9557812 -0.344569
000270 68 2e 14 bf 58 1e 00 3f 80 34 87 3e 13 0b 0a 40
       -0.5788331 0.500463 0.26407242 2.156926
000280 10 a3 1b 3f 62 e3 d5 bf 5c b5 14 bf 51 bc e4 3f
       0.6079569 -1.6710017 -0.5808923 1.786997
000290 c3 03 17 3e be 16 6d bf ec b0 19 be 27 ef aa 3f
       0.14747529 -0.92612827 -0.15008897 1.3354234
0002a0 e8 5d a8 bf 6d 92 7b 3f 4b 27 34 3f 1b 8b ab bf
       -1.3153658 0.98270303 0.70372456 -1.3401827
0002b0 d5 56 a0 3e 2d 8a 02 3e 86 06 98 3f 69 d1 06 3e
       0.31316248 0.12748022 1.1876991 0.13165821
0002c0 6d 3c 25 3e a0 fd 7f 3f 89 52 7c be cc 83 f0 3e
       0.16136332 0.99996376 -0.2464086 0.46975553
0002d0 5e 65 40 3d 84 d5 92 bf 74 53 bf be ec eb da 3f
       0.04697167 -1.147141 -0.37368357 1.7103248
0002e0 ae c0 50 be c7 9f 2c 3f c6 c5 b5 3f 60 48 54 3d
       -0.20386001 0.674313 1.4200981 0.051826835
0002f0 78 1b b8 be ea 4e b0 bf 87 3e a9 be 53 e6 2f 3e
       -0.35958457 -1.3774083 -0.33055517 0.17177705
000300 16 42 aa 3e 75 ac f2 bf e2 d0 4d be 41 8b 8a bf
       0.33253545 -1.895888 -0.20099214 -1.0823747
000310 c4 41 7c 3f 15 ef a3 bf de 40 12 3f 53 a5 92 3f
       0.9853785 -1.2807337 0.5713023 1.1456703
000320 0d 42 ff be 41 71 e9 3f f9 77 06 bf 1b 6b 9b 3f
       -0.4985508 1.8237687 -0.52526814 1.2142061
000330 89 9b 67 bf a3 04 8d bf 05 f8 9e 3e 09 00 b9 bf
       -0.904717 -1.101704 0.310486 -1.4453136
000340 3a c6 d4 be 07 22 30 be ac da ab 3f a2 7a c0 bf
       -0.41557485 -0.1720048 1.3426108 -1.5037425
000350 16 db 86 3d d7 06 08 3d c4 52 9f be c9 f3 ef 3d
       0.06584756 0.033209648 -0.31117833 0.1171642
000360 2c 17 84 3f 81 b2 36 3d f9 8e 59 bf 05 cf b5 3f
       1.0319571 0.04460383 -0.84983784 1.4203802
000370 d7 18 7b bf 4e ce c4 bf cf 43 25 be b5 2f 9f 3f
       -0.9808478 -1.5375459 -0.16139148 1.2436434
000380 33 37 03 bf 3b cc a6 be e6 21 97 3e a5 c5 8d be
       -0.512561 -0.3257769 0.2951805 -0.27689853
000390 07 cf 2f bf a7 a6 85 be f6 ab 41 3f 5a 39 7b be
       -0.68675274 -0.26103708 0.75653017 -0.24533597
0003a0 3b 66 6b bf 81 7c 5c 3f c9 c3 e1 3f ef f4 7c 3e
       -0.91952866 0.8612748 1.7637874 0.2470281
0003b0 31 d0 41 3e 4b 17 17 3f f6 53 c0 bf e5 ed 48 bf
       0.18927075 0.5901992 -1.5025623 -0.78488
0003c0 a8 0d 11 c0 b5 ae 27 bc b8 72 4b 3f da 6f 4e bf
       -2.2664585 -0.0102345245 0.7947192 -0.8063942
0003d0 fb f4 f3 3e aa 8b c4 3e 71 fe 86 3e cb 28 88 be
       0.47647843 0.38387805 0.26365998 -0.26593623
0003e0 b6 3e 94 bf 48 07 8c bf c5 7e f4 3e fd 6a 60 bd
       -1.1581638 -1.0939722 0.47752967 -0.054789532
0003f0 b7 20 a2 3e 03 74 f5 bf dd bf 0a bf c3 4d b2 be
       0.31665584 -1.9176029 -0.5419901 -0.34824952

layer.weight f4 [20, 20]
000000 9f f4 af 3e 6d e1 a3 3e cf a9 51 bf 33 46 e9 be
       0.3436632 0.32007924 -0.8189973 -0.4556137
000010 65 4e 20 3d d2 18 8b 3d e3 4a 08 3f 10 46 d7 3e
       0.039137263 0.067918435 0.5323927 0.4204564
000020 12 08 18 bf 92 e4 ba be 30 6c 14 bf 70 cb d1 3e
       -0.59387314 -0.3650251 -0.5797758 0.40975523
000030 30 4d 32 3e 01 7e 17 3f 75 17 05 be c3 b9 3a bc
       0.17412257 0.5917664 -0.1299723 -0.011396828
000040 29 81 f6 be 0b 71 c6 3d c4 87 ff be 06 28 a4 bc
       -0.48145416 0.0968953 -0.49908268 -0.020038616
000050 13 63 13 bf 28 c6 08 3c a7 c9 72 bd c4 95 2e 3c
       -0.5757305 0.008348025 -0.059274342 0.010655824
000060 ee 7d dd 3d 6d 48 19 bf 73 43 dd be da 50 e6 3e
       0.10815035 -0.5987614 -0.43215522 0.4498356
000070 3b e3 01 3f e6 55 2e bd e2 01 7b 3d fd f8 00 3f
       0.5073735 -0.042562388 0.061281092 0.50379926
000080 a4 9a fe 3d 53 f1 b3 3d b0 90 50 be 99 61 bf 3e
       0.12431839 0.08786263 -0.20367694 0.3737915
000090 52 2a 97 3e cb 10 94 3e bc 7c c3 bd 2f de 53 3e
       0.29524475 0.28919062 -0.095452756 0.20690225
0000a0 9d d7 91 3e d7 e0 16 3f 7d 99 6b bf 43 cd f7 be
       0.28484812 0.5893683 -0.9203108 -0.4839879
0000b0 8b e5 7f be a3 38 8f 3e 86 a6 0e 3f 24 ab cb 3e
       -0.24989907 0.27972898 0.55722845 0.39779007
0000c0 de 21 12 bf 59 fe 9d be b4 81 29 bf 68 8e 44 3e
       -0.5708293 -0.30858114 -0.66213536 0.19194949
0000d0 ce c1 9f 3e f5 e2 43 3f cf 79 48 be 48 63 6e be
       0.3120255 0.76518184 -0.19577716 -0.2328006
0000e0 d8 0c 14 bf ab eb b4 3d 2e ae 1a be 17 74 52 3e
       -0.578321 0.088340126 -0.15105507 0.20552097
0000f0 06 6b 32 3e 8e e9 bf be 21 88 a3 3d 54 28 e9 be
       0.17423639 -0.37482876 0.07984949 -0.4553858
000100 f5 8a 52 bf e2 68 c3 3e ff 5c 16 bf 47 d6 25 bf
       -0.8224328 0.38165957 -0.5873565 -0.64780086
000110 ab d9 4a 3e bd 03 47 3f 83 d5 10 3f 2e 94 0c 3f
       0.19809596 0.7774008 0.56575793 0.54913604
000120 64 c6 6f 3e 97 3e f7 be 82 fb c2 bd e3 07 a4 bd
       0.23415524 -0.4828994 -0.095206276 -0.08009317
000130 09 02 c5 3e dc 5a 97 be 28 20 a7 bd 9f 04 c5 bd
       0.38478115 -0.29561508 -0.0816043 -0.09620022
000140 99 e6 87 3e 75 80 12 3f 1b ca 84 bf d0 09 f5 be
       0.2654312 0.5722726 -1.0374178 -0.4785905
000150 f1 a6 ff bd d2 2b 1b 3d 04 24 1f 3f d3 bb ae 3e
       -0.124830134 0.037883587 0.6216433 0.34127674
000160 c6 99 28 bf c9 3b b1 be fc fc 19 bf 91 65 b1 3e
       -0.6585964 -0.34615925 -0.6015165 0.34647802
000170 5b 80 78 3d c0 69 3a 3f ac f2 71 be 81 fe 91 be
       0.060669284 0.7281761 -0.23627728 -0.28514484
000180 e0 86 0a bf 28 d2 5f 3e 91 aa 8a be ac 85 56 3e
       -0.5411205 0.21857512 -0.27083257 0.2094943
000190 08 13 eb 3e d4 66 7d 3e 9a 4c aa 3e b7 a4 a2 be
       0.45912957 0.24746257 0.33261567 -0.31766292
0001a0 89 40 c8 be ad 9d 0d 3f 2c a1 d8 bd ca 9e 5e bf
       -0.39111736 0.5531872 -0.10577616 -0.8696104
0001b0 9e af 4a 3f bb da ce 3c c3 67 92 bd 88 69 84 3e
       0.7917422 0.025250783 -0.07148697 0.25861764
0001c0 52 82 1e 3f 5c 97 f3 be fc 29 06 3e c1 0a 5b be
       0.61917603 -0.47576416 0.13101953 -0.21390821
0001d0 6b ca 92 3e db 9c 5d be ba da c1 be ab ba 26 bf
       0.28670058 -0.21641867 -0.37862188 -0.6512858
0001e0 97 65 1b bf 11 6f 95 3e 45 fa 3d bd 35 13 4b bd
       -0.6070189 0.291863 -0.046381254 -0.049578864
0001f0 3a 8d 58 3e 38 ac 12 bf ac d8 e7 be 76 e5 17 3f
       0.21147624 -0.57294035 -0.45282495 0.59334505
000200 42 c2 04 3f fb 55 a2 bd 09 39 89 3d 37 e3 c7 3e
       0.51858914 -0.07926556 0.06700332 0.3904054
000210 28 1b 33 3e 4f 5d f7 3c 0a 14 0b be 89 a7 b3 3e
       0.17490828 0.03019586 -0.13581863 0.35088757
000220 da a5 d1 3e 91 b2 ac 3e 8f 09 d9 3d 70 b3 9f bd
       0.40946847 0.33729985 0.10597526 -0.07797897
000230 93 46 fd 3e 1c 1c 04 3d fc ca a0 3e 3a c6 a7 be
       0.49467906 0.03225337 0.31404865 -0.32768422
000240 41 b8 4e bf 39 5d 12 3f f1 93 d0 be d1 82 2a bf
       -0.807499 0.57173496 -0.4073787 -0.6660586
000250 c2 77 5e 3e 34 71 39 3f 43 34 9c 3e 60 91 19 3f
       0.21725371 0.7243836 0.30508623 0.5998745
000260 05 b0 14 3e 55 60 34 bf ed ac 24 3e 2f 37 aa 3b
       0.14520271 -0.7045949 0.16081591 0.0051945667
000270 d1 0b e9 3e 1c 43 e2 bc ce 09 04 be e5 5d a2 be
       0.45516828 -0.02761989 -0.12894365 -0.3171226
000280 b4 4b 06 3f 68 e6 5f 3e 9d 2d c1 3e e3 a6 bd be
       0.52459264 0.21865237 0.37730113 -0.37041387
000290 e8 85 5d bf ae 1c b1 3e b6 25 88 be 39 6b 48 bf
       -0.8653245 0.34592193 -0.2659127 -0.7828861
0002a0 0e 27 0f 3f 53 9e ab 3e 56 dc b8 3c 1d 9f ee 3e
       0.5591897 0.3351923 0.022566002 0.4660577
0002b0 18 c8 34 3f de 8d 20 bf 7e 5c e2 3d 00 e2 d1 bd
       0.7061782 -0.6271647 0.11052798 -0.10248184
0002c0 da 7e b0 3e 5f 8b 89 be c1 57 83 be 77 fc 15 bf
       0.3447178 -0.26864144 -0.25652888 -0.58588356
0002d0 e0 34 50 bd b8 26 2c bd f3 aa 69 bc af 56 8a bd
       -0.050831676 -0.042029113 -0.014261949 -0.06754815
0002e0 38 c4 93 bd 41 34 4d 3d ba 69 ab bd d9 75 8f 3d
       -0.0721516 0.05009866 -0.08369775 0.070048995
0002f0 af dd e9 bb 68 49 2f 3d f0 80 16 3d 9c d8 03 be
       -0.0071370224 0.042794615 0.036744058 -0.12875599
000300 76 4d 39 bd 94 01 1e 3e b9 09 d2 bb 34 a7 d8 bc
       -0.045239888 0.1543029 -0.0064098504 -0.026446916
000310 c9 16 3b bd 85 45 d7 3c 14 8a 2e 3d b3 5b bc 3c
       -0.045676026 0.026278267 0.04261215 0.022992944
000320 ea e5 30 3e 7c 1a 02 3f 5b dd 53 bf f9 f0 da be
       0.17275205 0.5082166 -0.82759637 -0.42761973
000330 81 a9 04 bd d4 1c d7 3d c8 6c 07 3f 1c 0c 91 3e
       -0.032388214 0.105035454 0.5290036 0.2832955
000340 c8 85 3c bf 49 a9 8f be 0a f8 f1 be 47 96 77 3e
       -0.73641634 -0.28058842 -0.4725955 0.2417842
000350 ca 9d 9b 3e 31 ae 12 3f 10 b2 60 be c4 d2 7d be
       0.3039382 0.57297045 -0.21942925 -0.24787432
000360 6a 22 1a bf 4a b6 50 3d 19 c6 21 be b3 b2 60 3c
       -0.6020876 0.050955094 -0.15798225 0.01371448
000370 25 7f b3 3e df 32 8c be 28 bd b2 3d 0b 4e 17 bf
       0.3505794 -0.27382562 0.08727485 -0.5910346
000380 95 f0 5e bf 9d fd 10 3f 1f 4d 03 bf ac cc 35 bf
       -0.8708585 0.56636983 -0.5128955 -0.7101543
000390 5b 3d 52 3d e8 89 3f 3f 06 d6 28 3f db 94 08 3f
       0.051328044 0.74819803 0.65951574 0.53352135
0003a0 2b a7 95 3e cc 53 0a bf 99 09 f9 bd af f4 86 be
       0.29229102 -0.54034114 -0.12160034 -0.26358554
0003b0 bc 37 0d 3f 36 84 3a be 86 65 0f be 1f cc af be
       0.5516317 -0.18214497 -0.14003572 -0.3433542
0003c0 20 ff eb 3e 58 35 33 3e 05 c5 ab 3e cd d6 db be
       0.46093082 0.17500818 0.3354875 -0.42937317
0003d0 56 23 32 bf b3 fd cc 3e 19 fd ba bd c2 1e 6e bf
       -0.6958517 0.40037307 -0.09130306 -0.9301568
0003e0 b1 69 54 3f 42 ee 58 3e 19 dd 06 be 78 43 ae 3e
       0.8297377 0.21184638 -0.1317028 0.3403585
0003f0 0b 8f c3 3e 8b 8f 31 bf 31 a1 3e 3e c1 9a 6b be
       0.3819507 -0.69359654 0.18616177 -0.23008253

layer.bias f4 [20]
000000 16 6c 9a 3c fe 4c 28 be c7 3c 8c bd 23 d0 b9 be
       0.018850368 -0.1643562 -0.0684753 -0.36291608
000010 09 7e f1 3d ba bc 5b be aa 2b 44 3d d5 73 2a 3e
       0.117916174 -0.21458712 0.047893204 0.16645749
000020 50 d8 94 3c 70 58 c2 be 0a 5a 2c 3e cd ab 01 be
       0.018169552 -0.37958097 0.16831222 -0.12663193
000030 60 12 09 be 83 52 7a 3c 71 83 39 bd a9 e3 cc bd
       -0.13385916 0.015278461 -0.045291368 -0.1000436
000040 31 7f 3b be 68 5c 8d bc d1 94 8b 3d 5b 24 11 3e
       -0.18310238 -0.017255977 0.06815494 0.14174025

classify.weight f4 [4, 20]
000000 c0 f4 0f 3f d9 17 42 3e 30 7b 09 3f f3 11 5a bf
       0.56232834 0.1895441 0.53703594 -0.8518364
000010 b1 cc 0a 3f 18 fb 28 bf 38 cf 5c 3e bc dc 16 bf
       0.54218584 -0.6600814 0.21563423 -0.58930564
000020 e1 c5 26 bf 4e 31 e5 bd 20 bc 0f 3f 2a 40 0b bf
       -0.6514569 -0.11191045 0.5614643 -0.5439478
000030 e8 d6 2e bf 80 92 16 3f 31 94 1b bf 46 9a db 3e
       -0.6829667 0.5881729 -0.60773 0.4289114
000040 00 24 16 bf 61 3d 17 3f 28 39 07 3f f4 47 c3 be
       -0.5864868 0.5907803 0.5282159 -0.38140833
000050 27 40 53 bf 91 dd 79 3e 68 0f 27 bf af 49 f2 3e
       -0.82519764 0.24400927 -0.65257883 0.4732184
000060 16 9b 54 bf 40 92 01 3f 6d 1b e5 3d 63 b1 19 3f
       -0.8304914 0.50613785 0.11186872 0.60036296
000070 ef c4 06 3f 96 d5 43 3d e3 44 2b bf 52 98 12 3f
       0.52644247 0.047811113 -0.6690199 0.5726367
000080 24 34 22 3f b2 31 35 bf c7 e8 1d 3f ea 4e 75 bf
       0.6336081 -0.70778954 0.61683315 -0.9582354
000090 31 36 06 3f 9e 96 50 bf 9e a2 4b bf 88 f0 1c 3f
       0.5242644 -0.81479824 -0.7954501 0.6130452
0000a0 21 f0 54 be e8 67 27 3f 10 78 0c bf 44 c2 fd be
       -0.20794727 0.65392923 -0.548707 -0.49562275
0000b0 6c 26 dc be 78 1f d4 be c9 17 30 3f fa f6 86 be
       -0.42998064 -0.4143026 0.68786293 -0.26360303
0000c0 8c fc a9 be 36 e0 71 bd 76 e5 dd be 01 a7 89 be
       -0.3320049 -0.059051715 -0.43339127 -0.26885226
0000d0 97 86 84 be d5 37 4d be 46 9c 5e be 84 89 15 bf
       -0.25883934 -0.2004083 -0.21739301 -0.5841296
0000e0 1f 72 75 be 0f a3 ca be 1e a3 cb be b9 6e 94 be
       -0.23969315 -0.3957753 -0.39772886 -0.28990725
0000f0 1f c6 a5 3e 97 eb 5a be 6b 57 cd 3e 6e 16 b6 3e
       0.32377717 -0.21378933 0.40105757 0.35563987
000100 7c ee be 3e 72 3e cb 3e 48 c3 6e be 59 1a f3 3e
       0.37291324 0.3969608 -0.23316681 0.4748104
000110 1d a4 c1 3e 88 08 bb bd 5d e2 c1 3e a4 90 d2 3e
       0.3782052 -0.091324866 0.37868014 0.41125977
000120 5f 95 eb 3e aa f2 e1 3e eb 2d f1 3e 75 8e 91 3e
       0.460124 0.4413045 0.47105345 0.28429
000130 2f 4b e3 3e 1d 2e be 3e 9e 0f bd 3e 2d 08 00 3f
       0.44393298 0.37144557 0.36925977 0.50012475

classify.bias f4 [4]
000000 c7 fd 5a 3d 9c 74 2e 3d 41 20 66 3f fb 39 0f 3f
       0.053464677 0.042591676 0.89892966 0.55947846
