57-小关-杭州/week2/model.pth (torch, 14875 bytes, 5 tensors)

embedding.weight f4 [11, 50]
00000000: 36a9 72bf dccb 45bf c837 5d3d fac4 a7bf
00000010: b765 5abd 9354 a3bd 1771 283f d21f 9fbe
00000020: bd88 d5bf bfc2 55bf cbff 1840 f1cf c73e
00000030: 378f 67be 588b 6c3f ebd5 18bf 1218 c1be
00000040: 3b61 39bf ff0d 25bf f38b debe cb58 973d
00000050: 3261 0bbf e045 8c3f 913b 8b3f f988 bcbf
00000060: ec8f b13f 0a1f 61bf 08b9 ce3f 407d 15bf
00000070: 16e4 963e c930 a2be 459f 60bf 6b0b a6be
00000080: 86ec 873f 9b7b 91bf d82d ac3f 5a43 6dbf
00000090: 0aef 663f 82d9 bebf df74 fabe fb9f df3f
000000a0: 3cb3 753f f1eb 1b3f 976c 9ebf 9472 c4be
000000b0: 113e ccbf 50ad ed3e 2893 ca3f 0b3c 673f
000000c0: 68ad 0a3f 1a39 27bf 633a 633f ffd2 8b3d
000000d0: 3de9 fc3c e27b d2bf 5593 e33d 245a 073f
000000e0: ea3c 62bf eeea 2c3f c25f f3bf 3e42 82be
000000f0: b139 7fbf ad95 bb3b a9a3 873e 9690 4abf
00000100: cab6 a93e 372f f23e beab a1bf fea5 09bf
00000110: bbea be3e 1263 83bf 32e0 2740 26d0 dd3e
00000120: 3ad9 e2be dcad 56c0 908c bd3d 4030 edbb
00000130: f50f 35bf b6bb 683f 8751 8ebe ee7a c03f
00000140: 4c27 a63f d604 9fbf ca93 ba3e b742 3740
00000150: 21bb 2e3f 4624 8ebf 3e6d 853d 159f d13f
00000160: f8d6 a93f 3a3c a73e 3266 20c0 bb55 3dbf
00000170: ffba 5cc0 4adc 6cbf 17e0 883f 7a71 cfbf
00000180: 5412 01bf 303e 0d40 30ea 99bd 614a 97bf
00000190: c3e5 0dbf c93f b1be 3431 33c0 3a34 1040
000001a0: 67d2 0e40 81c9 c2be 9a42 fe3f 24ce c33d
000001b0: 7fbb e4be 6d0b 2a3f 4b5f aabe 3722 67bf
000001c0: 9113 ef3f 7746 f23f ca5d 80be c1b3 113f
000001d0: f1fa 723f d0a4 9c3f f942 bf3e 7cd1 46bf
000001e0: e0df a2bf 1927 fdbe 110c 0d3f b6dc b83f
000001f0: 1367 28bf 4540 92bf 6d4f bb3d 704b 0b40
00000200: e3f4 afbf 46f1 0d3f 92fb a23e 7b3d 413f
00000210: 433b 07bf 3f9d 153f 5aac 013f 9d18 683e
00000220: 2174 bb3f 86c2 9ebd c5a4 293f 384c a53f
00000230: 7667 0ebf 9d97 e6bd 466e d0bf f7b6 203f
00000240: 39e4 bb3f afdf efbf 3aee 8ebf 5ad2 1840
00000250: e9bf 243e dedf 203e 877f 203e ac18 a03f
00000260: 1b68 e13d c5ce b0bf 4a82 423f e64e f2be
00000270: 7015 17bf b6e5 b23e b29b a43f feb1 afbf
00000280: 8ce8 36bf b94e ccbf 46c8 dc3e dacb 2b3f
00000290: 9f43 3fbf 537f 6cbf 7975 31c0 5b00 6dbf
000002a0: 02bc b93f 960c c3bf 1044 f1be f278 11bf
000002b0: 8424 90bf 7dda 3ac0 c5b9 1dc0 44db 1f3f
000002c0: e3dc 55bf 91b7 b7be 762b 353e 8b59 063e
000002d0: 6c20 18be 198e 1b3d f6ba 813f 736d 713f
000002e0: dcb2 8dbe df45 94bf 6158 55bf 7b6e bb3e
000002f0: 4db5 353d 4e4b 953f 7792 76bf fd74 68bf
00000300: 6765 f8bf a83f 643f 4106 1940 e5f0 6d3e
00000310: dc17 90bf 2dda 57bf 6550 803f 6a66 d9bf
00000320: bbe6 a5be bfd5 d1bf c9de 06be 0345 5cbf
00000330: a4de 80bf c0f6 7a3f 9ae0 cc3e 783c 75bd
00000340: 00a0 513e 81f6 10bf 3276 e4be bd9e 3cc0
00000350: ab0b abbf 102d b83e 9ad9 933f 03e9 fb3d
00000360: d4f0 5b3e 1670 e8be 7188 0d3f ac64 ebbe
00000370: 1570 abbf 512e cfbf b178 af3f f36e 56bf
00000380: f261 083f 34d5 66bf b257 98bf aafd b73f
00000390: 1d42 163e d440 4f40 99a8 843e b4ec 7ebf
000003a0: 9e34 1bbe 5dfc 493f 2b1c 9bbf c2fb 11be
000003b0: bf0d 43be 4ee5 e5bd 53b4 2ebf 68e2 893f
000003c0: b4dc 7cbf 8f91 42c0 9136 c1be fd40 eabf
000003d0: 5b36 bcbb 19f0 d43f 7f6c d3bc caa2 43bf
000003e0: e163 463f 755f 31c0 c3da 8abf af46 183e
000003f0: 9ced 5fbf cf42 6b3f 9726 9e3f cfc8 c9be
-0.94789445 -0.7726419 0.054008275 -1.3106987 -0.05331966 -0.079751156 0.6579756 -0.31078964
-1.6682354 -0.83500284 2.3906124 0.39025834 -0.22613226 0.9240012 -0.5970141 -0.37713677
-0.72413987 -0.6447448 -0.43466148 0.07389983 -0.54445183 1.0958824 1.0877553 -1.4729301
1.3872046 -0.87937987 1.6150217 -0.5839424 0.2947089 -0.31677845 -0.87743026 -0.32430586
1.0619056 -1.1365846 1.345149 -0.92680895 0.90208495 -1.4910128 -0.4891729 1.7470697
0.95976615 0.60906893 -1.2376889 -0.38368666 -1.5956441 0.4642129 1.5826159 0.90325993
0.54170847 -0.65321505 0.88760966 0.06827354 0.030872935 -1.6444056 0.11112086 0.5287192
-0.883742 0.67545974 -1.9013598 -0.25441164 -0.99697405 0.00572463 0.2649205 -0.7912687
0.3314727 0.47301647 -1.2630537 -0.5376891 0.3728846 -1.0264609 2.6230588 0.43322867
-0.44306356 -3.3543615 0.09255326 -0.007238418 -0.70727473 0.90911424 -0.27796575 1.5037515
1.2980742 -1.2423351 0.3644088 2.863447 0.68254286 -1.110482 0.06514977 1.6376673
1.3268728 0.32663137 -2.5062375 -0.7395894 -3.4489133 -0.92523634 1.0693387 -1.6206505
-0.5041859 2.2069206 -0.07515371 -1.1819574 -0.55428714 -0.34618977 -2.7998781 2.2531877
2.231592 -0.3804436 1.9864075 0.095608026 -0.44674298 0.66423684 -0.33275828 -0.9028658
1.8677846 1.8927754 -0.25071555 0.5691491 0.94914156 1.2237797 0.37355784 -0.776634
-1.2724571 -0.49443892 0.55096537 1.4442356 -0.6578228 -1.1425864 0.09146009 2.1764793
-1.3746608 0.5544628 0.31832558 0.75484437 -0.528248 0.58443063 0.5065361 0.22665639
1.4644815 -0.07751946 0.66267043 1.2913885 -0.5562662 -0.11259387 -1.6283653 0.6277918
1.4679023 -1.8740138 -1.1166451 2.3878388 0.16088833 0.15710399 0.15673648 1.2507529
0.11006185 -1.3813101 0.75980055 -0.4732582 -0.59017086 0.3494088 1.2860014 -1.3726194
-0.7144859 -1.5961524 0.43121547 0.6710793 -0.74712557 -0.9238178 -2.772795 -0.9257867
1.45105 -1.5238216 -0.4712224 -0.5682517 -1.1261144 -2.9195855 -2.4644635 0.6244395
-0.8354017 -0.35882238 0.1769236 0.13120095 -0.14856118 0.03797731 1.0135181 0.9430763
-0.2767552 -1.1583823 -0.8333798 0.36607727 0.044362355 1.1663606 -0.9631724 -0.9080351
-1.9405946 0.8915963 2.3910067 0.23236425 -1.1257281 -0.84317285 1.0024534 -1.6984379
-0.32402596 -1.6393355 -0.13170923 -0.86042804 -1.0067945 0.9803276 0.40015107 -0.05987212
0.20471191 -0.56626135 -0.44621426 -2.9471886 -1.3362936 0.3597188 1.1550782 0.12300303
0.21478587 -0.45398015 0.5528632 -0.45975244 -1.339358 -1.618601 1.3708707 -0.83763045
0.5327445 -0.9016907 -1.1901762 1.4374287 0.14673658 3.2383318 0.2590988 -0.9957993
-0.1515679 0.789007 -1.2117971 -0.14256194 -0.19048212 -0.11225377 -0.682439 1.0772219
-0.98774266 -3.0401342 -0.37736943 -1.8301083 -0.0057437844 1.6635772 -0.02580857 -0.7642027
0.77496153 -2.7714512 -1.0848011 0.14870714 -0.8747194 0.91898817 1.2355527 -0.39411017

layer.weight f4 [50, 50]
00000000: 0e7a 72be e1a1 7d3e 2b04 003e dfaa a2bd
00000010: 030d f93d 7f3f 883e f555 893e e7bf 0d3e
00000020: 1612 673e f602 e9bd cd5e 0ebe c908 8bbd
00000030: 50ea b53e 95e5 bc3d f1e2 6a3c 8c13 933d
00000040: 298b 54be 20ab d8bc db57 ed3d 7867 df3d
00000050: 8ebe c6bc a03e 84be 6566 f93d d891 46bc
00000060: 1773 f0be a1fe 173e af84 893d 4430 133e
00000070: 4303 3f3e 75ed 053f 89bf 52bc f7c1 d7bd
00000080: c96a 66be 6022 1e3f dc85 353d 6b76 de3d
00000090: 9ea9 d33d ae9b c2bd c9aa 943e c295 0d3e
000000a0: 5394 9bbe e5c5 a2bd 23c1 e0be ffea cfbd
000000b0: cdf7 ae3e 31ea 44bd 1a27 0dbf 3ca2 08bd
000000c0: 429f ad3e 7d9a 63be 47b4 df3e 63e2 80bd
000000d0: bed4 0bbc 7833 4a3e 1785 9dbd 605a 19be
000000e0: 4a0f 9f3e 6b7b d03e 93ac e7bd b333 02be
000000f0: cdeb 973d 9546 a7be 2fd7 613d 075c 5abd
00000100: 4cb3 83bc dfff 7abe 9b24 063f 9da5 763d
00000110: f001 f1bd 5690 88bd 5390 fdbe e3ad 49be
00000120: db4c 483e 54be dd3e f707 673e b3ac dbbe
00000130: 020f 75be 58b8 163f 79c3 e0be 2027 2ebe
00000140: 003f b1bd fd8c 5d3e 8fe7 15be f246 2abd
00000150: 9347 d23e 6c49 ac3e 630a 5c3e ffef 92be
00000160: 6f49 3cbe 2fd7 b83e d772 05be 923e b4be
00000170: 5fda b93e 0e22 59be 657c d0bd 198a 12bd
00000180: a9f5 d63c 3f98 773d fcb5 063d 3e5e 2e3e
00000190: 1c8d e1bd 7713 aebc 1e3e 8b3e 291c bb3d
000001a0: 9fd0 d43c 5cca 70bd 441c 24be 63b9 0ebd
000001b0: 165b 493d 02fa 2b3e 4c86 b3ba 810d c1bd
000001c0: 4ad7 05be 9ca9 72be 86cb a2bd 987e 4f3e
000001d0: 409c 343e c05b 063e 6263 a3bd 58e2 15be
000001e0: 3421 30be 123d e2bd 2766 cd3c 1569 88bd
000001f0: 6997 0a3c 2716 e0bd e94a b83e e014 4fbe
00000200: 5138 6ebd 58b7 32be a085 70be d135 833d
00000210: 4c0e 4d3e 7632 8bbe 1631 7c3c 07ce a53c
00000220: da2b 5d3e 1f72 1e3e 521e 0d3d 43e3 94be
00000230: 31a0 bc3d ade1 553d 5741 6b3e 0465 9bbc
00000240: 8d6b cdbd e342 a1bd fb82 36bd ece3 48be
00000250: 712c 4dbe d2f6 113e 0665 aa3c 2478 65be
00000260: 7804 893d c864 c0bd daa8 08be 7fc2 aebe
00000270: 46ce be3d cce0 0b3d 14af f4bd 0765 003f
00000280: 22ec ac3e 2263 2e3e ba18 94be 6608 02be
00000290: 2cf8 143e 9e94 f53d 64b5 2bbe 852d 8b3e
000002a0: 8b99 5e3e f3e1 133e 3f62 643e 48a3 8c3e
000002b0: d3a5 51bd 5ed3 f13d beff 52bd e50e 4d3d
000002c0: 90d0 7ebe 472e 84be 3f20 3e3e f0cf b2be
000002d0: 0d7a c03e 6d80 9e3d 6930 48be f08a d6be
000002e0: 9baa 153e 21da 45bd bc7a 9dbd babd 2cbe
000002f0: cbc8 703d 3084 f0bd 2819 813e 39b6 48bd
00000300: 532e 093f f7cc 5d3e d547 eabe 8698 aa3e
00000310: 3ff6 363f b61b 94bd c815 07bf 2049 113e
00000320: a5e3 383f 8602 0e3c 4b47 77bd 13c2 50be
00000330: 0d08 06bf 5904 813e dfe6 00bf 508a 22be
00000340: 014c 22bf 3bd5 193e 73ac 5cbe 4210 083f
00000350: c58b 0ebe bb08 42bd ada0 6bbd 2c31 52be
00000360: d569 493e 84bb 1039 4be6 0abf 643f a03e
00000370: 3909 4a3f 2ada 773f 71ae 10be 3799 e6bd
00000380: 51d4 e03e bc0a a8bc ec8e 173d 5ddc 93be
00000390: 84a7 333e f4af 19bd 85b5 32be 61bf c0be
000003a0: 73c7 45be 3d89 373e d9d8 483e ab6c efbe
000003b0: f16b 15be e13c df3e 1e1c be3e 804c b13d
000003c0: 71d0 f9bd d650 743e c364 35be c90c 23be
000003d0: ed63 0abe b96b 02bf d6c6 1f3f 07c4 8e3d
000003e0: bc33 f1ba 0826 8c3e 2efd 163e f7ff a1be
000003f0: 38e7 bbbd 84ee 1cbd 02dc bbbe 47fe dd3d
-0.23679373 0.24768783 0.1250159 -0.07942747 0.12160685 0.26610944 0.26823393 0.13842736
0.22565493 -0.11377518 -0.13903351 -0.06788785 0.3553033 0.09223477 0.014336334 0.07181463
-0.2075621 -0.026448786 0.11589023 0.10908407 -0.024260785 -0.2582903 0.12177733 -0.012119733
-0.46962807 0.14843227 0.067147605 0.1437388 0.18653588 0.52315456 -0.012863048 -0.10535043
-0.22501673 0.617712 0.04431711 0.1086243 0.10335086 -0.0950235 0.2903655 0.1382666
-0.303866 -0.07947902 -0.43897352 -0.10152244 0.34173432 -0.048074905 -0.5513779 -0.033357844
0.33910567 -0.22226901 0.43692228 -0.0629318 -0.008534608 0.19746196 -0.076914005 -0.14975882
0.31066352 0.4071916 -0.11312213 -0.12715034 0.07418022 -0.32671037 0.055136856 -0.05331042
-0.016076706 -0.2451167 0.52399606 0.060216535 -0.11767948 -0.06668155 -0.49524173 -0.19695239
0.19560568 0.4330927 0.22561632 -0.42905197 -0.23931506 0.58875036 -0.43899134 -0.17007113
-0.086545944 0.21635814 -0.14639114 -0.041571565 0.41070232 0.33649766 0.21488337 -0.28698727
-0.18387388 0.36101672 -0.13032089 -0.35203987 0.36299416 -0.21204397 -0.101799764 -0.03577623
0.026240187 0.060447928 0.032888398 0.17028138 -0.110132426 -0.021249516 0.2719583 0.091362305
0.025978385 -0.058786735 -0.16026407 -0.034844767 0.049159132 0.16794589 -0.001369664 -0.09426404
-0.13070408 -0.23697513 -0.07948975 0.20263135 0.1763773 0.13120937 -0.0797794 -0.14637125
-0.17200166 -0.110468045 0.025073124 -0.06660668 0.008458951 -0.10941725 0.35994652 -0.20222807
-0.058159176 -0.17452753 -0.23488474 0.06406749 0.20024985 -0.27186936 0.015392562 0.020239843
0.2159876 0.15473221 0.034452744 -0.29079637 0.092102416 0.052217174 0.22974144 -0.018969066
-0.10030279 -0.07874086 -0.044558506 -0.19618195 -0.20036484 0.1425431 0.020800125 -0.22409111
0.066903055 -0.093942225 -0.13345662 -0.34132764 0.09316687 0.03414993 -0.11947456 0.50154155
0.33773905 0.17030004 -0.28925115 -0.12698516 0.14547795 0.11991237 -0.16768414 0.27183166
0.2173826 0.14441662 0.22303103 0.27468324 -0.051183533 0.11807893 -0.051513426 0.050063033
-0.24884248 -0.25816557 0.18566988 -0.3492427 0.37593117 0.07739339 -0.19549717 -0.41902876
0.14615862 -0.048303727 -0.07689425 -0.1686925 0.05878524 -0.11743963 0.25214505 -0.049001906
0.5358631 0.21660219 -0.45757928 0.3331949 0.7146949 -0.07231848 -0.5276761 0.14188051
0.7222236 0.008667594 -0.060370725 -0.20386533 -0.52356035 0.2519863 -0.5035228 -0.15873075
-0.6339722 0.15022747 -0.21550159 0.5314981 -0.13920505 -0.047371607 -0.05752628 -0.2052657
0.19669278 0.00013802765 -0.5425765 0.31298363 0.7892032 0.96817267 -0.14129044 -0.11259692
0.43911985 -0.020512931 0.037001535 -0.2887906 0.17544371 -0.037521318 -0.17452057 -0.3764601
-0.19314365 0.17923446 0.19613971 -0.46762595 -0.14591958 0.43601134 0.37130827 0.08657169
-0.1219796 0.23858961 -0.17714219 -0.15922846 -0.13514681 -0.5094562 0.62412775 0.06970983
-0.0018402259 0.27372766 0.14745018 -0.31640598 -0.09174961 -0.038313404 -0.3669129 0.10839515

layer.bias f4 [50]
00000000: 6915 103f 3fe3 4ebe 906a 6b3c d9fd 44be
00000010: e4e9 cabe d882 c4be 1eb4 b5be 2173 b5be
00000020: 88d1 f6be 6cc1 2bbe 8b00 0cbe 3c5f aa3e
00000030: f8f0 913e 4a35 ac3e 2158 873e cc74 7e3e
00000040: b614 ffbe 7148 89be 7e7b 1ebe 71e7 ef3e
00000050: 9c56 923e 8f80 38be f511 fabd 94af 89bd
00000060: 1025 963e 10a6 47be 49e7 d23d f26b 87be
00000070: 5e67 8e3e 5311 1dbe 7ca9 ebbd 673b fb3e
00000080: bd8d bb3e 142d c73e 73e3 cb3e 5731 a2be
00000090: db34 4bbe c25c 113f 0671 8bbe f2d1 16be
000000a0: 83f2 8d3e 67aa f7bd 96cb 62be 2ebd 973c
000000b0: 608a d6be 7b27 3ebe a891 0dbe c5af 06be
000000c0: 3cbf bc3d 3a7c 55be
0.5628267 -0.20203875 0.014368668 -0.1923746 -0.3963157 -0.38381076 -0.3548898 -0.354394
-0.48206735 -0.16773003 -0.13672082 0.33275783 0.28504157 0.33634406 0.26434425 0.24849242
-0.4982049 -0.2681308 -0.15476796 0.46856263 0.28581703 -0.18017791 -0.12210456 -0.06722942
0.2932515 -0.19496942 0.102980204 -0.26449543 0.27813238 -0.1533864 -0.11506936 0.49068758
0.36631575 0.3890158 0.39821967 -0.31678268 -0.19844382 0.5678216 -0.27234668 -0.14728525
0.27724084 -0.120930485 -0.22147974 0.018522825 -0.41902447 -0.18569748 -0.13825095 -0.13152988
0.092161626 -0.2084817

classify.weight f4 [3, 50]
00000000: 6229 8f3e d6f6 8c3e abb0 863e dc0c 213e
00000010: 07aa 0b3e 3074 4b3e 7a74 eb3d 75bc 2e3d
00000020: b36f 683e 5d5d 933e e6dc cf3d eeec 843e
00000030: 2ed5 983e 3001 833e 27f2 423e 0159 b93c
00000040: a42d da3d cd51 513e c30e 473e a481 483e
00000050: d06c 623e 83af 813e 1298 f43d e612 8a3e
00000060: e0bd 883e 5803 5a3e 937b 563d 7437 e43d
00000070: 7b82 813e d0e7 893e 9e68 9f3e 076e 973e
00000080: f339 8e3e 1831 d23d 45a0 103e 12bd d23d
00000090: 17ad 383e d6c0 d83d 6ef3 e43d 96f3 2c3e
000000a0: 8cfc 833e d918 823e 3261 063e cf3b 443e
000000b0: 99db 903e a54d 803e 558e 403c e2b6 2a3e
000000c0: ed24 b23d a150 a13d bdfc fc3e d49c c7be
000000d0: 6e95 15bd 5bd1 e6be 294e 1cbf a962 2ebf
000000e0: b779 f5be ccb0 b3be 90b2 02bf 30f9 c8bd
000000f0: c5e1 85be 8785 f53e d7d5 fa3e 9c2b 0f3f
00000100: 8793 143f 6275 063f 1767 17bf 1213 f0be
00000110: 1507 aabe 0672 e93e bbd1 0b3f 0a66 d9be
00000120: a33f f1be 71d0 b8be 4665 d33e 436b 0ebf
00000130: 4ab9 b13e ac7b eebe 7263 053e aaf6 22bf
00000140: 3881 9dbe 487e fa3e 0f7d 0f3f e13c 0f3f
00000150: 622c e83e 0713 0abf 296a 96be 56ef bd3e
00000160: 9a42 d1be a626 d1be 29ce 043f c799 fabe
00000170: f9a3 2cbc bd5f f0be ba27 d9be a1da 11bf
00000180: 70a2 b13d 8647 d6be 86e5 7abe 5923 92be
00000190: 4abb 90be 3816 5abe c348 91be 9773 94be
000001a0: e588 1cbe ccc2 11be 5e2b 88be b75f eebd
000001b0: 6d43 c4bc a21e 95bd a997 9ebe 8ccc a6be
000001c0: 17eb a1be 3ba2 9fbe 10c6 9fbe 467b a7be
000001d0: 5c87 74be cd34 9bbe 40cf 27be 2f9c 77be
000001e0: cece a0be be18 8bbe 9f97 08be 20ca bdbd
000001f0: 4f0c 72bd 31d9 bbbc 4328 0abe 6727 a6be
00000200: 87eb 95be 5545 43be 585c 01be a412 f8bd
00000210: 35ca 35be 65e8 b3be ae31 9fbe d241 9abe
00000220: e07a 0bbe f6ae 68be 1685 64bd de7c ddbc
00000230: 9c48 8ebe 43dc 2dbc 6b53 25be 4a4e 5839
00000240: 014d 7e3c b922 04be 14a5 a2bd 04f4 66be
00000250: 3ace 85be 8b20 51bd
0.2796126 0.2753207 0.26306662 0.15727562 0.13639079 0.19868541 0.114968255 0.042660195
0.2269886 0.28782168 0.10149555 0.25962013 0.29850143 0.25586843 0.19037686 0.022625448
0.106532365 0.20441361 0.19439225 0.19580704 0.22111821 0.25329217 0.119430676 0.26967543
0.26707363 0.21290338 0.052363943 0.11143389 0.2529486 0.2693467 0.31134504 0.29576132
0.27778587 0.1026327 0.14123638 0.102899686 0.18034779 0.105836555 0.11179243 0.16889796
0.25778615 0.25409582 0.13123015 0.1916344 0.2829254 0.25059238 0.011752685 0.16671327
0.08698449 0.07876707 0.49411574 -0.38986838 -0.03651946 -0.450816 -0.6105676 -0.68119293
-0.47944424 -0.35095823 -0.51053715 -0.09813154 -0.2614881 0.47953436 0.48991272 0.5592592
0.5803761 0.5252286 -0.5914168 -0.4688955 -0.33208528 0.45594805 0.546169 -0.42460662
-0.47118863 -0.36096528 0.41288203 -0.5563242 0.34711677 -0.4657873 0.13026217 -0.6365763
-0.3076265 0.4892447 0.560502 0.5595227 0.4534636 -0.53935283 -0.2937787 0.3709666
-0.40871125 -0.408498 0.51877075 -0.48945448 -0.010537141 -0.46948043 -0.4241312 -0.56974226
0.086735606 -0.41851443 -0.24501619 -0.28542593 -0.2826789 -0.21297538 -0.28375825 -0.28994438
-0.15286596 -0.14234465 -0.26595587 -0.1163935 -0.023957932 -0.07281233 -0.30975083 -0.32577932
-0.31624672 -0.3117846 -0.31205797 -0.32711238 -0.2387976 -0.3031372 -0.16387653 -0.24180673
-0.3140778 -0.27167314 -0.13339089 -0.09267068 -0.05909377 -0.022930713 -0.13491921 -0.32451937
-0.29281256 -0.19069417 -0.12632883 -0.121129304 -0.17752917 -0.3513824 -0.3109259 -0.30128342
-0.13621092 -0.22722992 -0.055790983 -0.02703708 -0.27789772 -0.0106115965 -0.16145103 0.0002062853
0.015521289 -0.1290387 -0.079416424 -0.22554022 -0.261339 -0.051056426

classify.bias f4 [3]
00000000: c99a 903e 91c7 013f c37d 81bd
0.28243092 0.5069514 -0.06322815
