99-谢睿尧-西安/week 1/model.pth (torch, 5787 bytes, 4 tensors)

embedding.weight f4 [28, 20]
00000000: 810b 873f 887b 6bbe 3a5b b7bf f64b d0be
00000010: 6aa3 fdbe 02ad d43e 7a35 a0bf d8fd 4d3e
00000020: d937 e8bd f8b1 393e d039 28c0 2d44 2fbe
00000030: 76f8 43be 584a 003f 4876 823f c799 e33e
00000040: eeda a9be 6287 963e cc21 783e 76b9 cabf
00000050: 5c58 b3bf 6e44 763f 4360 77bf 2505 103f
00000060: e47e 363e 1a92 51bf 9c12 86be 4d26 a93d
00000070: c73a febe 0385 993f faaf a2bf 55ca 59be
00000080: 48dd 433f 9d36 cabf 4e04 543e 1c7f c5be
00000090: e489 8d3f 4a09 e4bf 139a abbf a54b 7a3f
000000a0: 8019 01be 7cef 8dbf b711 dcbf 6350 ed3f
000000b0: f984 013e 6a68 183f c3ca a73e b990 0340
000000c0: 89f8 0a3f fbef d03e db45 ae3e d183 9c3e
000000d0: 2d68 423f 9f84 a1bf d3c6 9d3f c5c0 9dbf
000000e0: 0bee 823e 55f4 25bf 4eb1 8d3f f328 e2be
000000f0: 160a 96be e2a4 d33f 20ae 393f 0752 093f
00000100: a008 22bf c4e7 133f 5520 58bf 7879 723f
00000110: a6aa babf 7b46 7f3e 438d 3f3f a8cb 373f
00000120: ef4a 473f 7609 97be f3f3 c93f 44d2 bb3f
00000130: 210c 693e 7265 b9bf 3e5b d43f 1d06 bb3e
00000140: d81c e2bd 69b7 853e c40b 7f3f 99b1 bfbd
00000150: 2440 e23f d2ea 5ec0 141c 36c0 117e 4a3f
00000160: d8d0 77bf 3b53 debf c2ff ce3f 421c 84bf
00000170: 3d21 883f 6dbd 903f 8f3c 07be 624b 29be
00000180: 746d 943f 03d0 c23f 855a 07bf 2fb8 c3bf
00000190: da1c 2d40 ef5d f8bf 7161 4f3f eee7 d9bf
000001a0: 9f00 2240 ef96 96bf ced8 8dbf 0555 1c40
000001b0: a30a 0bbf 0be3 1abf 3369 413e 0151 04bf
000001c0: d063 c83e a317 053f 800c c4bf c3d1 a3bf
000001d0: f469 9b3f ac1b fd3e e31c a2bf 0fc8 e5bf
000001e0: 157e d03e af32 b4bf 11a4 c53e d907 68c0
000001f0: a029 3140 eb33 26bf a5b6 20c0 51b4 4c3c
00000200: bcb6 91bf 3adf b0bf 692c 213f 3529 cbbf
00000210: e23b dbbe e25d 7b3e 110e 07c0 5709 dd3e
00000220: 91cc 1f40 3411 0b3d 652b 10c0 5130 b63e
00000230: aa6c 77bf 4d49 fabb b0c9 97bf 2f90 af3f
00000240: d190 0d3f 198e 71bf 94f9 883f 2dad 46c0
00000250: c94d 053f 6932 8ebe 2fb5 61bf aa26 d03c
00000260: 5c23 503f d450 783e 0011 ac3c a57d 3fbe
00000270: 7687 5ebf 1ce8 fd3e 24d6 41bf bd88 18c0
00000280: f50c fd3e d93a 59bf 9bef 0cbe a018 d83f
00000290: e8d7 03c0 4699 823f 7986 86bf e7ad a2bf
000002a0: f214 8e3e 62d2 5d3f 411b 6d3e 8dab 813f
000002b0: 46ef 1440 b2d4 9b3e 920f 03bf 5e42 67bf
000002c0: ba7b 73bf ec50 123f d281 ae3f f30a b8bb
000002d0: 9797 483d 7f03 9b3b 7647 c7bf 5329 1c3f
000002e0: 45fc 85bc 348b 0abf 56ed 80bb a001 e3bf
000002f0: f30f ba3e dd6c 2abf d7e8 edbe 373c dc3e
00000300: 6081 dd3e ed09 0740 b2bd 0f3f 1b64 0a40
00000310: 7c7d 5f3f 3d4d 553d 33a1 8e3f 4bff 953f
00000320: a2a7 b3bf d76b 0abd c1fd 56bf 0923 5cbf
00000330: c3b2 1f3e 7cd2 06bf fe25 b73f 5c92 54be
00000340: 19ba 0abe bb52 afbe 5f56 a0bf eda4 78be
00000350: 9137 673f 16bc 0840 3e20 3a3f 5e34 27be
00000360: 7bbf 093d 1ed7 ddbf 16ef 9ebb 5fbc 583f
00000370: 4b38 983f b597 a4bd a128 50bd 832e 93bf
00000380: 375d d0be a249 e13d c01c 3740 0896 d83e
00000390: db23 1340 8723 9b3f f92e b93e fb49 043d
000003a0: 41fd f13e 10c3 a13d df95 00bf 1214 adbd
000003b0: 587d 0ebf de8e 83bf 5672 0bbf bd47 00be
000003c0: 65c3 dc3f 0cce 0cc0 b6a6 fcbf be0c 6d3f
000003d0: 08ca 1040 a489 af3f 912a a63f 99e1 2a3f
000003e0: 89e1 f93f def4 e63d cbc6 3dbf c05b ad3f
000003f0: ce9e 863f e6d8 10bf ab5f b73e 2c58 b23d
1.0550386 -0.22996342 -1.4324715 -0.40682954 -0.49538738 0.41538244 -1.251632 0.20116365
-0.11338777 0.18134296 -2.6285286 -0.17115851 -0.19137749 0.5011344 1.0192347 0.4445326
-0.33174843 0.29400164 0.24231642 -1.5837848 -1.401134 0.96198165 -0.9663126 0.5625785
0.17821842 -0.8186356 -0.26186073 0.082592584 -0.4965422 1.1993717 -1.2709954 -0.2126859
0.76509523 -1.5797917 0.20704767 -0.3857354 1.1057706 -1.7815335 -1.3406395 0.97771674
-0.12607384 -1.108871 -1.7192906 1.8540157 0.12648381 0.59534323 0.32771882 2.0557082
0.54285485 0.4080809 0.3403767 0.30569318 0.7594021 -1.2618598 1.2326301 -1.2324454
0.25572237 -0.64825946 1.1069734 -0.44171867 -0.2930457 1.6534693 0.7253132 0.5364079
-0.6329441 0.5777552 -0.84424335 0.94716597 -1.4583328 0.2492923 0.74824923 0.7179513
0.77848715 -0.29499406 1.5777572 1.4673543 0.22758533 -1.4484084 1.6590345 0.36528102
-0.11040658 0.26116493 0.9962733 -0.09360046 1.7675824 -3.4830823 -2.8454638 0.7909861
-0.96803045 -1.736915 1.6171801 -1.0321124 1.0635144 1.1307808 -0.13206695 -0.16532663
1.1595902 1.521973 -0.52872497 -1.5290583 2.704886 -1.9403666 0.8100806 -1.7023904
2.531288 -1.1764811 -1.1081789 2.4426892 -0.54313105 -0.6050269 0.18887787 -0.516861
0.3913865 0.5198919 -1.5316315 -1.2798389 1.2141709 0.49435174 -1.2665066 -1.7951678
0.40721193 -1.4077967 0.38601735 -3.625479 2.7681656 -0.6492297 -2.5111477 0.012494163
-1.1383891 -1.3818123 0.6295839 -1.587195 -0.42819124 0.24547532 -2.1102335 0.43171188
2.4968607 0.033951953 -2.2526486 0.35583737 -0.96650183 -0.0076381327 -1.1858425 1.3715876
0.552991 -0.9435745 1.0701165 -3.1043198 0.52071816 -0.27772835 -0.8816709 0.025409061
0.81303954 0.24249583 0.0210042 -0.18700273 -0.86925447 0.49591148 -0.7571738 -2.3833458
0.49423948 -0.8485542 -0.13763277 1.6882515 -2.0600529 1.0203025 -1.0509788 -1.2709321
0.27750355 0.86649144 0.23154928 1.0130478 2.327104 0.3043571 -0.51195633 -0.90335643
-0.95110667 0.57154727 1.3633368 -0.0056165396 0.048972692 0.0047306414 -1.5568683 0.61000556
-0.016355643 -0.5411866 -0.0039345426 -1.7734871 0.36340293 -0.6657236 -0.46466705 0.4301469
0.43262768 2.1099808 0.5614883 2.16236 0.8730085 0.052075613 1.1142944 1.1718534
-1.4035532 -0.03379425 -0.8398095 -0.8599096 0.15595536 -0.52664924 1.4308469 -0.20758957
-0.13547553 -0.34242806 -1.2526358 -0.24281664 0.9031916 2.1364799 0.7270545 -0.1632857
0.033629876 -1.7331274 -0.0048502786 0.8466243 1.1892179 -0.08036748 -0.050819997 -1.1498569
-0.40696117 0.110003725 2.8611298 0.42301965 2.2990634 1.2120217 0.3616865 0.032297116
0.4726353 0.07898533 -0.50228685 -0.08451094 -0.5566001 -1.0277975 -0.5447134 -0.12527366
1.724713 -2.200076 -1.9738376 0.9259757 2.262331 1.371388 1.298174 0.66750485
1.9521953 0.112771735 -0.7413146 1.3543625 1.0517213 -0.5658096 0.35815176 0.08708224

layer.weight f4 [20, 20]
00000000: 85d3 dfbd d192 3c3e a9d4 f8bd d231 e33e
00000010: 4c64 953c 5e33 083f 26a6 b93e 8962 b2be
00000020: de01 5abd 90d9 b7bc 7d91 adbe 395c ba3e
00000030: c51a 10be 3be3 a8bc f208 2d3f ff52 a33d
00000040: 0dbe 07bf a26c 7abd b1a0 333e 6e7e dd3e
00000050: 6fd5 4fbe ecd7 143f d788 45be 70d1 ae3e
00000060: 480d 95be 3b5e d63e 6161 1b3f e639 8bbe
00000070: 7600 ce3d b9d2 213e 5646 92be db5b eb3e
00000080: e61f 143e 0012 feba c36c 683e 5984 2cbd
00000090: 2960 debe c472 4abe 3447 4a3b 259b af3e
000000a0: 07f8 e7be 027b fb3d 3729 90bd 738e ff3e
000000b0: ab3a 15bf b577 f03e 60d5 903e 8015 53be
000000c0: 83cf bc3e 231f 683e 48ac e73d 59c1 823d
000000d0: a3b0 c5bd deb4 853d 4458 b1bc 4628 2fbd
000000e0: 8969 21bf 5bc2 23be e4f4 f33d 647f 273e
000000f0: c475 dd3e 048c 00bf aa3c 4f3e 291b f2be
00000100: 2f19 6c3e 32f5 a2be ea02 febe 2509 e83b
00000110: 581b cebe e74e 29be ddab 9b3e 3094 fabe
00000120: c989 c4bd ce60 ce3d 1fdb 8cbe d70a 04be
00000130: f66a 813e cc0a dc3e ec4c 8ebe 8966 0cbf
00000140: 90dd cbbe 2532 a13e a0c4 eabe 6073 953e
00000150: cfb7 75be 3a6a f83e 0b05 1c3f 5fca b9bd
00000160: 1baf 1d3d 4645 98bd 6fd0 ab3c 5c8b cd3c
00000170: 2a99 ce3d acc5 5bbe ef73 543e 8de5 1c3d
00000180: e5be 1cbf ff92 ecbe f0c5 bd3e 625d 093e
00000190: c1c2 81be 5c56 1c3f e50b dabe bc43 c33e
000001a0: 6b8d 8dbe fdb5 b43e 14da ca3e c81c 41bd
000001b0: d51e 023e 90a5 48bc f1f8 9fbe 5719 253e
000001c0: ef63 77bd ad97 d9bd 42ec 1f3e e79e 50bc
000001d0: 7254 e6be 805b dabe 47d0 043e b58b e23e
000001e0: e199 7ebe 1258 0a3f e43f 8cbe 049f a33e
000001f0: 4ffe ddbe fdf1 093f dd78 943e 73ce cdbd
00000200: 67ef d13e d81d 493e 3274 c2be 2716 983e
00000210: 548c 393e 2076 0d3e 77a1 8f3e ecd0 773e
00000220: f300 87be c5a3 a6be fcdf a33d c5c9 073e
00000230: 3c4b d93e 3a38 e5be 8a4d de3e 449b 17bf
00000240: 8422 d83e ad6e d8be d699 03bf a093 c63d
00000250: c2f1 39be c5fb 57bd 9fb8 ab3e 8a4d 0cbf
00000260: e22a 5f3d eeca 8f3d f5fe 93be 735b 8bbd
00000270: 0bef 5f3e cae6 aa3e 839c adbd c8bf 04bf
00000280: d747 42be d269 8c3e 8565 cebc 0571 023f
00000290: 1fb0 0abf 4084 8e3e 1a84 c33e 6204 133c
000002a0: 1af3 b73d eeca 6c3e 48d2 9cbe faf2 df3e
000002b0: 04c7 ab3c 1124 11bc d45f 453e e3cb 3c3e
000002c0: 4ab0 85be 07bc f8be fec1 a9bc 62b7 243f
000002d0: b77c e73e d126 2fbe 9a46 7e3e 167d 2abf
000002e0: a244 e43e d5c5 ebbe dd9f 1dbf 6ca5 a23e
000002f0: ffb0 abbe c9d2 18be 89bc 3cbd 581d a5be
00000300: 2f86 c1bd 95e8 723d 3d5a 33be 6bc6 51bd
00000310: f899 423e fa28 793e ad6a d9bd 6960 a1be
00000320: b4f6 973e 3368 0dbf a100 e73e 7d87 0dbf
00000330: ae17 613e f29d 9dbe f8e0 21bf 2a35 ac3d
00000340: 2df8 10be 9cdb 90bc db3d 9a3e 1a27 f9be
00000350: 1f04 61bc f2e5 d63d f4d2 b4be 05e4 0d3b
00000360: da62 0d3f 27fe fd3e cfcd f0bd 02f4 0fbf
00000370: 75d8 72be c2f2 963e 8485 ecbe 6a13 063f
00000380: 63a9 b6be d1ba a53e 1dd9 063f aed9 b9bc
00000390: 2c33 b93e 2e9b ad3e 9676 8fbd 9f6b ce3e
000003a0: ac4e 543d 9af7 d43d c3bf 9f3e d7f5 9a3e
000003b0: 590d a6be 4d21 8ebe 6fef 29be 59fa 983e
000003c0: 031a d3be 32b6 9b3e 5572 d6be 36bc 183f
000003d0: 721b 4abd 8b78 653e f371 f33e 2a6f 5dbe
000003e0: 2b2d 843e d0f2 9d3e fc9d d3be b5fe 7c3e
000003f0: b648 3bbe f732 533e 5ca6 d23d 53b7 593c
-0.10929016 0.18415381 -0.12149937 0.44373947 0.018236302 0.5320338 0.36259574 -0.348408
-0.053224437 -0.02244261 -0.3390006 0.36398485 -0.14072712 -0.020616164 0.67591774 0.079748146
-0.5302437 -0.061138757 0.17541768 0.4326052 -0.20296262 0.5814197 -0.19290482 0.34144163
-0.29111695 0.41868767 0.60695463 -0.2719261 0.10058682 0.1580304 -0.28569287 0.45968518
0.14465293 -0.0019384027 0.2269774 -0.042118404 -0.4343274 -0.19770342 0.0030865194 0.34298053
-0.45306417 0.12279321 -0.07039111 0.49913368 -0.58292645 0.4696633 0.28287792 -0.2061367
0.3687707 0.22668128 0.11312157 0.063845344 -0.096528314 0.06528638 -0.021648534 -0.042763017
-0.6305166 -0.1599211 0.119119436 0.1635719 0.4325391 -0.50213647 0.20237985 -0.47286347
0.23056482 -0.31827694 -0.49611598 0.0070811682 -0.40255237 -0.16534005 0.3040456 -0.48941183
-0.09596593 0.10077058 -0.27510926 -0.1289476 0.25276917 0.42976987 -0.27793062 -0.54843956
-0.39817476 0.3148357 -0.45853138 0.29189587 -0.23995899 0.48518544 0.60945195 -0.09071802
0.03849707 -0.07435088 0.020973412 0.025090866 0.100878075 -0.21462125 0.2074735 0.038304854
-0.6122878 -0.462059 0.37065077 0.13414529 -0.25343898 0.61069274 -0.425872 0.38137615
-0.27646956 0.35295096 0.39619505 -0.04714659 0.12707074 -0.012246504 -0.31244615 0.16122948
-0.06039804 -0.10624633 0.15617469 -0.012733198 -0.44986302 -0.42647934 0.12970077 0.44247213
-0.24863388 0.54040635 -0.27392495 0.31957257 -0.43358085 0.5388487 0.2899846 -0.10049143
0.41002962 0.1964029 -0.37979275 0.297044 0.18119937 0.13814592 0.28052875 0.24200791
-0.26367912 -0.3254682 0.08001706 0.13260563 0.42440212 -0.4476946 0.43418533 -0.5922129
0.42213833 -0.4227194 -0.5140661 0.09696126 -0.1815863 -0.05273034 0.33539292 -0.54805815
0.054484256 0.07021128 -0.28905454 -0.06804552 0.21868531 0.33379203 -0.08477118 -0.51855135
-0.18972717 0.27424484 -0.025194893 0.50953704 -0.5417499 0.27835274 0.38186723 0.008973213
0.08981915 0.23124287 -0.30629182 0.43740064 0.020968921 -0.008858697 0.19274837 0.18437152
-0.2611106 -0.48580953 -0.020722385 0.6434232 0.45212337 -0.17104651 0.2483162 -0.66597116
0.44583613 -0.4604937 -0.61572057 0.31766832 -0.33533475 -0.14924158 -0.04607824 -0.3224895
-0.094494216 0.05930384 -0.17514892 -0.051214617 0.19004047 0.24332038 -0.1061605 -0.31518868
0.29680407 -0.5523712 0.45117667 -0.55284864 0.2198169 -0.30784565 -0.632339 0.08408578
-0.14157172 -0.017682843 0.30125317 -0.48662645 -0.013733893 0.10493077 -0.35317194 0.0021650803
0.5522896 0.49607965 -0.11758005 -0.562317 -0.23715384 0.29482085 -0.46195614 0.52373374
-0.35676107 0.32369092 0.5267504 -0.022686806 0.36171854 0.33907455 -0.0700504 0.40316483
0.05183284 0.10398789 0.3120099 0.30265686 -0.32432058 -0.2775978 -0.16595243 0.298785
-0.41230783 0.30412441 -0.41884103 0.5966219 -0.04934258 0.22409265 0.47547874 -0.21624437
0.2581571 0.30849314 -0.4133147 0.24706538 -0.18289456 0.2062491 0.10285637 0.013288337

layer.bias f4 [20]
00000000: e589 b43d c58f ed3e 26b7 903e 16fa 53be
00000010: c674 2f3e 023c 4f3e f7a8 1e3e 0ff5 d8be
00000020: 4812 293d e702 0ebf 0075 e3be b1c7 483e
00000030: 5d6c 103e 4e71 e7be 90f3 1cbf ffc0 553e
00000040: 47ea a0be 2a00 e8be ef40 82be f2dd 893e
0.08815364 0.4639875 0.2826473 -0.20700869 0.1713439 0.20237735 0.15494142 -0.42374465
0.0412772 -0.5547318 -0.444252 0.19607426 0.14103837 -0.45203632 -0.61309147 0.20874403
-0.3142874 -0.45312625 -0.25440165 0.26927143

classify.weight f4 [1, 20]
00000000: 89f4 c0be 9548 c9be 798a 9fbe 88d9 a13f
00000010: 9a45 c5be 9b20 adbe 4579 a1be bf4e 973f
00000020: 1121 31be 832b 983f bbd4 af3f 375e 9cbe
00000030: 16b5 c1be 6619 933f 4cfe aa3f ea99 8ebe
00000040: aa36 853f ff6a a03f 256b 903f f63b a7be
-0.37686566 -0.39313188 -0.31160334 1.264451 -0.38529664 -0.33813938 -0.31537834 1.1820906
-0.1729777 1.1888279 1.3736795 -0.3054063 -0.3783347 1.1492126 1.3358855 -0.27851802
1.0407307 1.2532653 1.1282698 -0.32662934
