83-邹逊绩-南京/week1/model.pth (torch, 2327 bytes, 4 tensors)

embedding.weight f4 [10, 4]
0.31500715 0.03028669 0.575476 2.1211011 -0.54663754 -0.18994442 0.1723727 0.15924026
-0.23221421 -0.15343589 -0.28277037 -0.004423187 -0.20030896 -0.28880894 -0.6521168 0.5963571
0.22060835 -0.2460109 -0.52781576 -1.0390418 -0.70535 -0.07040799 0.511166 -0.33779898
-0.7288864 0.025562698 0.4298584 -0.2636931 9.27139 9.275877 7.4186754 7.02382
7.74977 7.760076 9.313255 8.8029 -0.24545902 -0.15250441 -0.52380234 -0.018152377
00000000: 9e48 a13e cb1b f83c 6552 133f 1fc0 0740
00000010: 70f0 0bbf ca80 42be 7882 303e e10f 233e
00000020: 90c9 6dbe 4c1e 1dbe 47c7 90be 62f0 90bb
00000030: cb1d 4dbe c4de 93be 20f1 26bf dcaa 183f
00000040: 28e7 613e 48ea 7bbe ef1e 07bf 52ff 84bf
00000050: d191 34bf 1032 90bd c6db 023f fdf3 acbe
00000060: 4d98 3abf dd68 d13c 6616 dc3e c802 87be
00000070: 9d57 1441 fe69 1441 ca65 ed40 22c3 e040
00000080: 1efe f740 8b52 f840 1803 1541 aed8 0c41
00000090: 9c59 7bbe 1e2a 1cbe e917 06bf 4bb4 94bc

layer.weight f4 [4, 4]
0.32904476 -0.046041008 0.35514355 0.15708311 -7.175038 -1.6933361 -4.6366434 -3.4655979
0.3387703 0.18749027 0.19671544 0.06620728 -7.7693195 -1.6692383 -4.962298 -3.5605104
00000000: 8e78 a83e 7f95 3cbd 60d5 b53e 65da 203e
00000010: e999 e5c0 3dbf d8bf 625f 94c0 5bcc 5dc0
00000020: 4d73 ad3e 73fd 3f3e c66f 493e af97 873d
00000030: 449e f8c0 9aa9 d5bf 25cb 9ec0 67df 63c0

layer.bias f4 [4]
-1.2955449 8.410398 -0.981729 8.009014
00000000: 6ad4 a5bf fd90 0641 9752 7bbf ec24 0041

classify.weight f4 [1, 4]
3.9438035 -3.600948 4.6826153 -3.6067333
00000000: 4767 7c40 ef75 66c0 fcd7 9540 b8d4 66c0
