51-吕杉-乌鲁木齐/week1/model.pth (torch, 4827 bytes, 4 tensors)

embedding.weight f4 [16, 20]
00000000: 2d0e 383f 753c f8bf b127 1abe 2f85 c13d
00000010: 8106 e13f 59ef 79bf aee6 98bf b70b aebf
00000020: 904d a63e d8e9 093e 1c7e 243e 855c d83e
00000030: 0b65 c1be f9f4 1a3f cba0 173f 0b01 b53f
00000040: b7db 8e3e 153a 243f caf6 563f c6fc 39bd
00000050: 668e 3dbd 2b4e 1ebd 2d86 71bf 7b10 41bf
00000060: f509 5cbf b65a c93f 476b 69bc 5dc5 653f
00000070: 828d a13f 9c29 c1bd 4030 2fbf b0f6 ea3f
00000080: b370 b0bf b161 01bf f56b 0b3e 02b3 83be
00000090: 4dc1 8f3e 15f4 c2be 5bca c53f 4103 35bf
000000a0: a739 2abf 10ac 3cbf ac72 253f 35dc 0bbf
000000b0: d2f2 febe 70b6 ab3f 23ef 543f d016 113f
000000c0: 174e 053f 96fa 693f 44f2 90bd 5a99 c53d
000000d0: 9784 443f d33c 88bd c65f ea3f 4850 5e3f
000000e0: cd38 453f 8d1c e2bf a7ae ab3f 3bc3 12be
000000f0: 4a07 fbbe 97f4 92bf 8bda 823f fe1e be3f
00000100: cf3e b33f 78ef 79bf 3cf1 b6bf 1aa2 d8bf
00000110: 6a4b efbf a524 99bf ab9c 0dc0 1e98 a7bf
00000120: a5c3 64bf 5c3d 5a3f dd64 85bf f7c3 10c0
00000130: 9bef 5bbf a968 54bf fc08 68bf 6955 1d3e
00000140: 980d 9a3f afc3 8b3d 432d d6bf e325 9dbf
00000150: 9dfd b2bf c31f 4bbf b856 48bf 3686 753f
00000160: ab7c 13bf d013 c23f ff73 473f 40ee 9dbf
00000170: 4661 84bf c935 babd d0b0 f13f 9c65 3a3e
00000180: 4eb2 5cbf e0e7 a7bf 90f4 893d 6d09 51be
00000190: 06e8 2d40 24af 6e3f a3ef 2bbf 5b11 afbf
000001a0: b910 dbbf 562b 70bf 25b5 303f 8328 33be
000001b0: 131e 08c0 0358 633d bc62 403e de6a 66be
000001c0: 7241 153f 370e 3dbf 9696 d63f fa42 e3bf
000001d0: f142 593f 5315 a73e 0062 ac3f cf40 1f3e
000001e0: 296c 58bf 1159 923f a105 e1be feaf abbf
000001f0: dd63 70be fc1a 303f 2838 9e3e 27a2 b73e
00000200: 134d 00c0 2b90 803f 3148 bd3f d4f9 1c3e
00000210: 177c abbe 9487 45bf 6bba 75bf 5271 3c3f
00000220: 3c61 f8be 6033 cb3f 81a8 a53f f367 873f
00000230: f820 4bbf 0946 123f 8a89 893f f8d8 d5be
00000240: 978a 10bf 6a03 8d3f 335c 50bf d8d5 8d3f
00000250: 578c 833e da7f afba 1c7f f83f 15fd 43be
00000260: a1f9 793e 8444 4cbf 046b f13f 82fc cf3f
00000270: 84f8 e13f 82ad efbe b012 0dbf b0f8 99be
00000280: 76cb 01c0 eb8a a63d 3f57 2f40 d056 083f
00000290: 2d8c c0be 6688 ac3d 5ab8 1ac0 2f69 59bf
000002a0: 9a6d a6bf c638 d0bf 5c75 8bbe fcea ddbf
000002b0: 38a8 16bf ec9b 613f b493 90bf ef90 c5bf
000002c0: b8a2 6bbf 87e1 10c0 8569 9f3e dc1d f73e
000002d0: 78ae a63f ea83 edbe af77 013f 001e 57be
000002e0: 8ba0 bebf bff3 003f 2a3a 883f fc24 ddbe
000002f0: 2b23 9d3f ce74 053f bd34 07bf 6436 3a3f
00000300: e914 aa3f 3890 b83e 4e5b d83d 8dad a7be
00000310: 61bc 603f c30b e6bd 8e36 a13f 563c 11c0
00000320: 3b20 353e be44 353f 8340 64bf cd12 823d
00000330: 5c0f acbf bcbf 81bf bdf4 a4bd cdf4 8a3f
00000340: 7732 a4bf fa2e 5c3e 987b 0c40 c50a c13f
00000350: bbab d3bf d917 283f f686 753f 790a a13f
00000360: 1827 f4be 2f43 03c0 ca0d 713d 22e3 c3be
00000370: e39a 0b3f b319 9c3f 96b8 e93e 9d29 2c3e
00000380: d57e e8bd bbb6 91be a10e bc3f 676d dbbe
00000390: 551b 733f 1714 3f3f d5ec 4abf ed46 853f
000003a0: 007a a03f 147b 15c0 afe6 8cbc bba5 fa3f
000003b0: ae3a 76bf bf23 edbd 5f6f 31bf c695 a7be
000003c0: 045c 95bf 95ee c43d 1588 d1bf a52e b6be
000003d0: 2254 a83f 69db b03f 0b10 73be adac a3bf
000003e0: 3aec e1be 3af8 e23e 217f 033f 3719 33bf
000003f0: 0cd9 05bf f70a cbbf 4e50 5c3e 57a3 e43f
0.7189663 -1.939345 -0.15054204 0.09449231 1.758011 -0.9763084 -1.1945398 -1.3597325
0.3248105 0.1346811 0.16063732 0.42258087 -0.37772402 0.6053005 0.59229726 1.4140943
0.27902004 0.64151126 0.8397032 -0.04540708 -0.04627838 -0.038648766 -0.9434536 -0.7541577
-0.85952693 1.5730808 -0.014246768 0.8975428 1.262131 -0.094317645 -0.68433 1.8356533
-1.3784393 -0.5053969 0.13615401 -0.2572251 0.28077164 -0.38076845 1.5452379 -0.7070809
-0.6649422 -0.73700047 0.646281 -0.54632884 -0.49794632 1.341505 0.83177394 0.56675434
0.5207228 0.9139799 -0.070774585 0.0964839 0.76764816 -0.06652226 1.8310478 0.8684125
0.77039796 -1.7664963 1.3412675 -0.14332287 -0.49029 -1.1480893 1.0222944 1.4853208
1.4003543 -0.97631025 -1.4292369 -1.692447 -1.869489 -1.1964308 -2.2126873 -1.3093297
-0.8936103 0.85249877 -1.0421406 -2.2619607 -0.85912484 -0.829722 -0.9063871 0.15364613
1.2035398 0.06824433 -1.6732563 -1.2277187 -1.3983647 -0.7934534 -0.7825732 0.95907915
-0.57612103 1.5162296 0.7791137 -1.2338333 -1.0342185 -0.0909229 1.8882084 0.18202823
-0.8620957 -1.3117638 0.067361 -0.20413752 2.7172866 0.93235993 -0.6716253 -1.3677171
-1.7114478 -0.93816125 0.69026405 -0.17495923 -2.1268356 0.055503856 0.18787664 -0.22501704
0.58302987 -0.73849815 1.6764705 -1.7754815 0.8486777 0.32633457 1.3467407 0.15552066
-0.8454004 1.1433431 -0.43949607 -1.3413084 -0.23475595 0.68791175 0.3090222 0.358659
-2.0047042 1.0043997 1.4787656 0.15329677 -0.3349311 -0.7716 -0.95987576 0.73610413
-0.48511684 1.5875053 1.2942048 1.0578598 -0.7934718 0.57138115 1.0745099 -0.41767097
-0.5646147 1.1016667 -0.81390685 1.1080885 0.25693008 -0.0013389543 1.9413791 -0.19139512
0.24411632 -0.79792047 1.8860784 1.6248934 1.7653966 -0.46812063 -0.5510664 -0.30072546
-2.0280433 0.08131965 2.7397 0.53257465 -0.37606946 0.084244534 -2.417502 -0.8492612
-1.3002198 -1.6267326 -0.27237976 -1.7337337 -0.5885043 0.8812854 -1.1295075 -1.5434855
-0.92045164 -2.263765 0.31135193 0.48264968 1.3021994 -0.46389705 0.5057325 -0.21007538
-1.4892744 0.5037193 1.064275 -0.4319228 1.2276357 0.52131355 -0.5281485 0.72739244
1.3287631 0.3604753 0.1056429 -0.32749596 0.87787443 -0.11232712 1.2594774 -2.2693076
0.17688076 0.7080802 -0.8916094 0.06351242 -1.3442187 -1.0136638 -0.080544926 1.0855957
-1.2827901 0.21502295 2.1950436 1.5081412 -1.6536783 0.6566139 0.9590906 1.2581321
-0.47686076 -2.0509756 0.05885104 -0.38259226 0.54533213 1.2195343 0.4564864 0.16812749
-0.11352316 -0.28459725 1.4691964 -0.42856905 0.9496358 0.7464003 -0.79267627 1.041227
1.2537231 -2.335637 -0.017199842 1.9581827 -0.9618329 -0.11579084 -0.69310564 -0.32731456
-1.1668706 0.096158184 -1.6369654 -0.35582462 1.3150675 1.3816959 -0.23736589 -1.2787071
-0.4412554 0.44330007 0.5136586 -0.6996035 -0.5228431 -1.5862721 0.21515009 1.7862347

layer.weight f4 [20, 20]
00000000: 0d1c 9abe fffa 8dbd c7db c73e 5501 223f
00000010: 9678 563e 9996 65be 7495 10bf db81 2fbe
00000020: fc13 36be 5efa 28bf 7b0e 0dbf 65da 98be
00000030: dfa8 4fbe adcf f33e 4fdd c4be 38e9 e5be
00000040: 29e3 acbe f0ea abbd 8df1 89be be62 143e
00000050: 100a d43e 9518 0a3d f915 1ebf f457 bbbe
00000060: 748c debe 8817 783e c2fb 8d3e 87ce 4f3e
00000070: 895c 563d 2d15 193f 4f04 e23e 871c 913e
00000080: 35f6 d33d 6f70 08bf fe45 2a3e bc25 2f3f
00000090: d270 7a3e 2f49 4fbc ba44 a33e 645a 86be
000000a0: 56a6 d8bd 6d93 47be e101 0d3f d217 153f
000000b0: f42a 823e ea6d 47be e970 0cbf 4694 9abe
000000c0: 0901 74be ad7f f9be ccba 0fbf c5ae 13bf
000000d0: 21a3 9abe aa01 353e 65ee afbe eb97 e0be
000000e0: 4a65 7abe c150 1ebe 8a13 dcbd 204c 173e
000000f0: 3693 2b3e 6689 c43d 5aa1 21bf b679 fabe
00000100: e951 d2be 02cf 0d3e 0556 013f 2259 783e
00000110: d384 423e 01e3 273f 2320 f13e a9be 043f
00000120: bcda 833e 1ee7 0dbe 98a3 bd3e b230 e33e
00000130: 3434 bb3d a8d6 323d 287c e33d 4974 b2bd
00000140: 43db 55be 4e3c 8a3d b1e7 123f 3752 263f
00000150: 46ae bb3e 4063 99be 32ac efbe 6a0c 87be
00000160: c6d4 8abd 536e f2be 61a5 f7be 9053 0bbf
00000170: 68ea 36be c745 0e3f ad21 98be 81d0 d7be
00000180: 858b 63be d9e3 f0bd bf3e 8fbe b074 c93e
00000190: 6928 8ebe cc0a 7ebd 16d4 013f 5697 2e3f
000001a0: 28e3 e43e be77 9dbe 4939 01bf 2659 b3bd
000001b0: 634f efbd 3e52 07bf 340c edbe f126 1cbf
000001c0: 6d5d 0abe 590c 023f ef66 86be 8827 31bf
000001d0: 95a2 b6be 10b2 b5bd a2b8 5bbe 448e 903e
000001e0: 6cd5 fbbe e2b1 10be 1f08 ea3e 949f e93e
000001f0: eb3c a73e 1522 c2be 952c 13bf 2a22 17be
00000200: 8041 fabd 880c dfbe 98de 17bf 0d31 bcbe
00000210: d5d4 d9bd 769a dc3e 7557 98be b883 23bf
00000220: 6c22 75be 9e9e 133d c2f5 adbe d673 373e
00000230: 04eb b0be b57f cfbe 7816 e13e 5670 2f3f
00000240: 6ce6 843e 027a aabe d9ed 0ebf 95db f6bc
00000250: b928 e5bd e9d3 0bbf 9eaf b7be 7c7b 1dbf
00000260: 0f69 53be 9017 6a3e f22f e5be c161 04bf
00000270: 882d 7ebe 39da d83c 9969 55be a187 b03e
00000280: c393 563e 0ab1 893d 232f 32bf 6030 1bbf
00000290: 87b2 f5be 61ea 3c3e 27f8 9d3e fb54 153e
000002a0: ae04 2b3e 6dc3 303f 4adc 193f ead8 143f
000002b0: 48aa a63e 212d edbe 5d28 883e 8700 c13e
000002c0: 7ddd 803e 35ed 3cbc ee1e 373d 2f90 e2be
000002d0: ee6a d9be e376 953c c457 fe3e c0ba 113f
000002e0: 1ffe 743e a86d f7be 58d8 1cbf 4e22 97be
000002f0: eed5 a13c 8b61 29bf 8151 e7be 5a3f 04bf
00000300: 39ca cfbd e456 ef3e 43d9 97be ea5c d5be
00000310: 8410 c0be 8617 3bbc e1e4 27be 8d02 9f3e
00000320: 10ca 383e 85f5 953e bc6c b2be ebe6 4fbe
00000330: f35b 44be 2ab0 df3e ee81 0e3f 4f0a 133e
00000340: 1a03 263d e887 283f 094b e73e eaa0 093f
00000350: 6f1d 423e 0ab5 40be 8d57 e13e fbea 893e
00000360: fcfb b93d 0365 3a3e 4faa a93e 2337 b7be
00000370: 8be2 4cbe 4508 0abe b681 153f 8768 093f
00000380: 08d6 0e3f 1fc5 54be 8723 f2be 336f 58be
00000390: b092 49bd d849 51bf 0314 efbe 4694 d6be
000003a0: db02 79be 3c2d 623e 20c0 debe 1bd8 12bf
000003b0: 8b63 88be 4f3f 5abe 3762 67be 1bd6 043f
000003c0: 920d cfbe 8794 ffbd 6c2f 153f f129 3f3f
000003d0: e444 0d3f d935 87be d4c4 eebe 9bb6 813c
000003e0: 085d a63c f4ab 33bf 96b1 b6be 1ac2 2bbf
000003f0: 04ea 79bd b380 b13e c527 39be 1a1b 44bf
-0.30099526 -0.06932639 0.39034864 0.6328328 0.20944437 -0.2242073 -0.5647805 -0.1713938
-0.17781061 -0.6600703 -0.5510022 -0.29854122 -0.20279263 0.47619382 -0.38450095 -0.44904494
-0.3376706 -0.0839442 -0.269421 0.14490792 0.41413927 0.03371485 -0.6175228 -0.3659054
-0.43466532 0.24227726 0.27731138 0.20293628 0.052334342 0.59797937 0.44143912 0.28342077
0.10349695 -0.5329656 0.16628262 0.68416953 0.244571 -0.012651726 0.31888372 -0.26240838
-0.10578601 -0.19489832 0.5508099 0.5823947 0.25423396 -0.19475523 -0.5485979 -0.3019125
-0.2382852 -0.4873022 -0.56144404 -0.5768855 -0.30202582 0.17676416 -0.34361568 -0.43865904
-0.24452701 -0.15460493 -0.10745914 0.14775133 0.16755375 0.09596519 -0.6313683 -0.48920983
-0.41078117 0.13848498 0.5052188 0.24252751 0.18995981 0.65580755 0.4709483 0.51853424
0.2575282 -0.13857695 0.37038875 0.4437309 0.09140816 0.043661743 0.11107665 -0.08713586
-0.20884423 0.067497835 0.57384783 0.649692 0.36656398 -0.29958534 -0.46811062 -0.2637666
-0.067788646 -0.47349796 -0.48368362 -0.5442438 -0.17862856 0.5557522 -0.29713193 -0.42151263
-0.22221191 -0.117622085 -0.2797756 0.39346838 -0.27765206 -0.062022015 0.5071424 0.6819967
0.44704556 -0.3075542 -0.50478035 -0.08757238 -0.11685064 -0.52859867 -0.46298373 -0.6099692
-0.13512202 0.5080009 -0.26250407 -0.69200945 -0.35670915 -0.08871853 -0.2145715 0.2823354
-0.49186265 -0.14130357 0.4570932 0.4562956 0.32663664 -0.37916628 -0.574899 -0.14759126
-0.122195244 -0.43564248 -0.59324026 -0.36756173 -0.106362976 0.43086594 -0.29754224 -0.6387286
-0.23938912 0.03603994 -0.3397656 0.17915282 -0.34554303 -0.4052712 0.43962455 0.68530786
0.25957048 -0.3329621 -0.55831677 -0.030134002 -0.11189408 -0.54620224 -0.35876173 -0.6151655
-0.20645545 0.22860551 -0.44763142 -0.5171166 -0.24822056 0.026471244 -0.20841064 0.34478477
0.20954804 0.06723221 -0.69603175 -0.6062069 -0.47987768 0.18448783 0.30853388 0.14583199
0.16701004 0.69048196 0.6010176 0.58143485 0.3255179 -0.46323493 0.26593295 0.37695715
0.25168982 -0.011531164 0.04470723 -0.44250628 -0.42464393 0.018245166 0.49676335 0.5692558
0.23925065 -0.4832585 -0.61267614 -0.2951836 0.01975533 -0.66164464 -0.4517937 -0.51659167
-0.10145993 0.4674598 -0.29657945 -0.4167245 -0.375126 -0.011419183 -0.16395904 0.31056634
0.1804583 0.2928888 -0.34848583 -0.20302932 -0.19175701 0.4368909 0.55667007 0.14359401
0.0405303 0.65832376 0.45174435 0.5376116 0.1895654 -0.18819061 0.44012108 0.26937088
0.09081265 0.18202595 0.33137748 -0.35784253 -0.20008294 -0.13479717 0.5840105 0.5367512
0.55795336 -0.2077832 -0.4729273 -0.21136169 -0.049212158 -0.817533 -0.46694955 -0.4191
-0.24317496 0.22087568 -0.43505955 -0.57361 -0.26638445 -0.21313213 -0.2259606 0.518892
-0.4044004 -0.12479501 0.58275485 0.7467337 0.55183244 -0.2640827 -0.46634543 0.015834143
0.020308033 -0.70184255 -0.35682362 -0.6709305 -0.06101419 0.34668502 -0.18081577 -0.76603854

layer.bias f4 [20]
00000000: eaff d9be 6efa 563e f38d 8ebe 359e 373e
00000010: ca75 dcbe 9a4c f5be 0f20 a1be 84a4 32be
00000020: b8ac ab3e 8716 b3be 7273 873d 1dea 7abe
00000030: c302 9bbe 1914 ac3e 33b7 c83e d1dc 9abe
00000040: 9020 0ebe 8c65 d73e e0a7 873e 9d5e b9be
-0.4257806 0.20993969 -0.27842674 0.17931445 -0.43058616 -0.47910005 -0.3146977 -0.1744557
0.3353021 -0.34978124 0.06613816 -0.2450337 -0.30275545 0.33609083 0.3920227 -0.30246595
-0.13879609 0.42069662 0.26495266 -0.36204997

classify.weight f4 [1, 20]
00000000: 88de aa3f 2cc5 b1be 89cd 8b3f aa94 e0be
00000010: 6716 b03f 2dfc 9f3f 0c3b a43f 0b8b 923f
00000020: 46c1 92be 5146 a63f ca96 eabe be5d 8f3f
00000030: a368 953f 552d 92be 6ba4 91be 1f47 983f
00000040: 1c22 a33f c96d d4be f606 ffbe 5736 963f
1.3349161 -0.34720743 1.0922099 -0.43863422 1.3756837 1.2498833 1.283052 1.1448683
-0.2866308 1.2990209 -0.45818168 1.1200483 1.1672558 -0.2855021 -0.28445753 1.1896704
1.2744784 -0.4149001 -0.49809998 1.1735333
