64-崔建华-广州/week2/model.pth (torch, 4699 bytes, 4 tensors)

embedding.weight f4 [14, 20]
000000 66 8d db 3f 9f 82 78 3d cd c4 0d bf 7d e1 53 bf
       1.7152526 0.060671445 -0.5537842 -0.8276594
000010 c8 ce e0 3e 92 ad da bf 34 ff b9 bf 57 3c bd 3f
       0.43907762 -1.708422 -1.4531007 1.4784039
000020 a0 bd 97 3f 6a 08 92 3f 9e bc 30 bf 12 c7 a1 3f
       1.1854744 1.1408818 -0.69037807 1.2638876
000030 9c 62 3f 3f 28 4b 54 3f a2 10 6d bf c9 39 1d bf
       0.7475984 0.8292718 -0.92603505 -0.614163
000040 c3 37 a2 3f 2f 6d 0e c0 5d 73 2f 3f 03 2b 02 3f
       1.2673267 -2.225414 0.68535405 0.5084688
000050 23 56 10 c0 31 38 83 bf 6c 8c 91 bf 70 28 cd bf
       -2.2552574 -1.0251523 -1.1370978 -1.6027966
000060 d5 b6 82 3e 10 3e 06 c0 73 00 a1 bf f9 60 dc bf
       0.25530115 -2.097538 -1.2578262 -1.7217094
000070 6b ff a2 3f 8a 6c e5 bf 94 a1 f4 3e 09 6c 09 40
       1.2734197 -1.7923748 0.47779524 2.147219
000080 cf 44 bb 3f 90 b1 f2 bd 34 29 ff bf 3d ab 4a 3f
       1.4630374 -0.118502736 -1.9934449 0.7916754
000090 44 a6 14 be f9 62 e2 bf 06 31 bc bf 74 d9 7b bf
       -0.1451655 -1.7686454 -1.4702461 -0.9837868
0000a0 d3 16 95 bc a3 77 95 bf 39 85 78 bf 12 c6 f0 bf
       -0.01819936 -1.1677135 -0.9707828 -1.8810446
0000b0 1e cc 22 40 48 77 e6 bf 42 90 05 c0 82 cc e2 bf
       2.5437083 -1.8005152 -2.0869298 -1.7718661
0000c0 cd e2 43 3f 34 80 c5 bf 57 1c e0 3f d3 44 57 bf
       0.76517946 -1.542975 1.7508649 -0.8408939
0000d0 fd 67 ed 3f a5 f9 30 be d4 af 8f bf 07 56 92 3f
       1.854736 -0.17282732 -1.1225533 1.1432503
0000e0 c6 ab 85 3d 30 68 af be 78 92 09 c0 1b 34 c9 bf
       0.06526904 -0.34259176 -2.1495647 -1.5719026
0000f0 36 14 3c be 44 ce 31 bf a7 9f 7c 3f 2b 26 91 3f
       -0.18367085 -0.6945536 0.9868111 1.1339773
000100 cb fa 49 bf ed 38 e3 3e b4 63 60 bd 0c e4 da 3f
       -0.78898305 0.44379368 -0.054782584 1.7100844
000110 42 ea 48 bf b9 74 d1 3f 42 55 46 3f 8c a4 fd bf
       -0.7848245 1.6363746 0.77473843 -1.9815841
000120 5b 67 99 be 3d c6 0e c0 05 33 31 3f 6c 6d 91 3e
       -0.29961666 -2.2308495 0.69218475 0.28403795
000130 05 d9 68 bf dc f9 41 bf c5 85 0e be 90 fd 06 bf
       -0.90956146 -0.7577188 -0.13918217 -0.52730656
000140 de c4 a1 3e 48 96 51 be 19 13 a6 3f 6d db c0 3f
       0.3159551 -0.20467484 1.2974578 1.5066963
000150 b5 cd 02 c0 a0 22 0a be da 2c 90 bf 3d 97 09 3e
       -2.0438054 -0.13489771 -1.1263688 0.13436599
000160 80 79 e5 be 24 3a 69 bd e7 d7 04 3e 66 89 d9 be
       -0.4481926 -0.056940213 0.12972985 -0.4248764
000170 bb 8b bb bf 44 14 b5 be 57 f0 c5 3d 4d af 82 3f
       -1.4652017 -0.35367024 0.09664982 1.0209748
000180 34 7b 66 3f b7 13 95 bf d3 f4 0e 3d 21 2d 15 bf
       0.90031743 -1.1646641 0.03490145 -0.58271986
000190 c6 1a 81 3c d3 55 ff 3f fe fd 3f 3e 97 b9 ac bf
       0.015759837 1.9948066 0.18749234 -1.3494138
0001a0 68 2a aa 3e c6 5f af 3f 32 ec 94 3f 50 71 fc be
       0.33235478 1.3701103 1.1634581 -0.493052
0001b0 b2 67 01 bf a1 a3 ed bf cf e3 73 be 38 8e e1 bf
       -0.5054885 -1.856556 -0.23817371 -1.7621527
0001c0 43 d6 2c bd 90 c4 e1 3e a9 d6 9f 3e bd 81 e6 bf
       -0.042196523 0.44095278 0.3121846 -1.8008343
0001d0 30 63 b2 3f 4f 08 7d 3f 9c a3 ae 3f 43 8c 82 be
       1.393652 0.988408 1.364368 -0.25497636
0001e0 e4 64 eb 3e a0 57 d3 3e 7a 33 6d bf 4e cf bc bd
       0.4597541 0.4127779 -0.9265667 -0.09219228
0001f0 d5 d9 40 3e 41 aa 42 3f cd 19 ff 3f 38 e3 9e bf
       0.18833096 0.76041037 1.9929749 -1.2413092
000200 fb ce 9d bf db 39 14 c0 e1 50 cd 3e 10 61 73 bf
       -1.232879 -2.3160312 0.40100768 -0.9506998
000210 af 7b 42 be d4 b0 1f bf fd 87 75 3f 35 29 ab bf
       -0.18992494 -0.62379193 0.95910627 -1.337195
000220 49 5d 52 3f 5c 9a da 3f 41 7c b0 3f eb a8 13 3f
       0.8217359 1.7078357 1.3787919 0.57679623
000230 05 36 71 bc 2d f1 6d 3e 35 85 97 3d 0d 05 e3 3e
       -0.014722352 0.23236533 0.07398454 0.4433979
000240 3c 5a 9e be f1 2e 0c bf c3 4d 8b 3e 15 fc 85 bf
       -0.30928218 -0.54759127 0.27207765 -1.0467554
000250 68 d2 f3 be 27 f4 05 3f b5 56 82 bf f3 b9 ce bf
       -0.47621465 0.5232567 -1.0182711 -1.6150497
000260 fb f7 81 be c4 6d ff be 58 f9 c3 3e 84 8e 78 bf
       -0.25384507 -0.49888432 0.38276172 -0.9709246
000270 66 e4 9b 3e a2 2f d1 be ff ef ad 3f c3 c4 e5 3d
       0.30447692 -0.40856653 1.3588866 0.1121917
000280 ad 5f 13 40 8c 1b 8d 3d 01 af 2b 3f 71 c4 87 3e
       2.3027146 0.0689002 0.6706391 0.2651706
000290 76 5b 15 3d 87 f1 81 bf 76 60 ef 3f fd 38 3a 3f
       0.036464177 -1.0151833 1.8701313 0.7274321
0002a0 b5 65 9a bd 8b 5d 91 3f 9b eb 3f bf 4b 45 c3 3e
       -0.0753893 1.1356672 -0.7496888 0.38138804
0002b0 af 82 04 3f 77 79 7c be 42 47 99 be 5a b7 54 3f
       0.5176191 -0.2465571 -0.29937178 0.8309227
0002c0 b5 68 32 3f ef e4 60 bf 18 55 64 3f cc 5a 45 40
       0.6969102 -0.87849325 0.8919234 3.0836668
0002d0 8c d9 e8 be be 9b 81 be 98 24 f6 3e 1f 5e 05 3f
       -0.45478475 -0.25314134 0.48074794 0.5209674
0002e0 72 28 85 bd 6c b3 cb 3f 7e cc 0d 3f 6e 5a a3 3d
       -0.06501855 1.591413 0.55390155 0.079762325
0002f0 8b 27 da 3d 24 d9 cc 3e 40 04 20 bf 92 74 1d be
       0.106520735 0.40009415 -0.62506485 -0.153765
000300 65 0f 43 bf ec 11 2e bf 65 71 0b 40 60 94 a0 3f
       -0.76195365 -0.67996097 2.178796 1.254528
000310 ca ac a8 be 96 e6 56 bf 4d b2 a4 3f f5 f5 f2 bf
       -0.32944328 -0.83945596 1.2866913 -1.898131
000320 82 02 d6 3f f4 01 2c 3e 3d f9 49 3f 37 77 08 3f
       1.6719515 0.1679762 0.7889593 0.5330691
000330 a4 d0 2b bf a5 b0 b3 3e d0 c8 19 3e 2d ea 55 3e
       -0.67115235 0.35095707 0.1501801 0.20890112
000340 3f 17 31 3d f5 26 ad bb 35 f7 e9 bf a9 69 ba bf
       0.04323506 -0.005284185 -1.8278567 -1.4563495
000350 08 c5 06 bf c4 a4 bc 3f 8b fe 86 bd ae 24 6c be
       -0.52644396 1.4737782 -0.06591519 -0.23060867
000360 2a b4 a4 3d 51 1f 41 bf 42 1b 75 3e 06 98 b2 be
       0.08042176 -0.7543841 0.2393618 -0.3488161
000370 cf 70 8c 3e e7 fb a6 bd cd cb d0 3e 6d 43 1b be
       0.27429816 -0.08153515 0.40780488 -0.1516244
000380 62 4a 0a c0 71 ab 29 3e 24 77 2d 3f a2 ca 5b 3e
       -2.16079 0.16569306 0.6775992 0.21464017
000390 52 24 b6 bf 7d fb 84 bf ba 82 08 bf ea 37 2c 3e
       -1.4229834 -1.0389248 -0.5332447 0.16818205
0003a0 fc 5b be be a0 14 bc 3e 86 82 6e 3e 24 79 28 bf
       -0.37179554 0.36734486 0.23291978 -0.65809846
0003b0 77 16 c2 3e 50 53 7a 3f 2a 70 9c 3e 3a a3 18 3e
       0.37907764 0.97783375 0.30554324 0.14906016
0003c0 7f 96 b5 3f b2 37 47 bf 8d 99 e9 3e f6 78 84 3f
       1.4186553 -0.7781936 0.45624962 1.0349414
0003d0 18 db 6e 3f 89 9f bb 3f 53 0e d8 3f 57 83 2c 3f
       0.9330306 1.4658061 1.6879371 0.6738791
0003e0 61 86 96 bf 32 9f dd 3d f7 55 dd bf 20 ee 06 bf
       -1.1759759 0.1082138 -1.7291859 -0.527071
0003f0 88 c0 bb 3e c3 43 74 bf 62 c5 06 bf 48 fe c7 3d
       0.36670327 -0.95415896 -0.5264493 0.09765297

layer.weight f4 [20, 20]
000000 d0 0e eb be f4 c3 b5 3d 3c 34 0e bf 22 51 05 bf
       -0.4590974 0.08875266 -0.55548453 -0.52076924
000010 08 c5 9c 3e ae 77 89 be af f2 f4 be bf 98 96 3c
       0.30619073 -0.2684912 -0.47841403 0.018383382
000020 e2 e8 fb 3e d4 15 2f be 4d 66 bd 3e fb 1b 69 3e
       0.49201113 -0.1709817 0.36992112 0.2276458
000030 e0 60 20 3f c0 ec c9 3d 62 53 c1 be 59 b9 ae 3b
       0.6264782 0.098596096 -0.3775893 0.0053321538
000040 74 c7 d2 be e9 a4 bd bd cd f8 2d bf 7a 18 84 bc
       -0.41167796 -0.0925997 -0.67957765 -0.016124953
000050 57 37 79 3e bc bc 01 3e 2a d8 6e 3e 21 34 f8 3e
       0.24337517 0.12669653 0.23324648 0.4847727
000060 5f f8 83 be 89 3d f8 3e ee 3a 92 3e ec 3c e3 3d
       -0.2577543 0.48484448 0.28560585 0.11095604
000070 84 5d e9 be 1c 0d 11 3e a6 b5 3b be a4 3d 25 be
       -0.4557916 0.14165157 -0.18331012 -0.16136795
000080 fe 04 e6 be fe 0e be be ca 2b 0b 3f ec 1d fc bd
       -0.44925684 -0.37120813 0.5436369 -0.12310395
000090 e7 df 6b 3e 24 c5 ed bc b4 1d c8 3e 73 c0 ad 3e
       0.2303463 -0.029024668 0.39085162 0.3393589
0000a0 ce e4 0f bf 97 09 9e bd aa b7 d2 be 39 b3 b3 be
       -0.56208503 -0.07716673 -0.4115575 -0.35097674
0000b0 14 c3 eb 3e 97 5e fc bd 29 37 f4 be 7b ce a1 be
       0.4604727 -0.12322729 -0.47698334 -0.31602845
0000c0 3c 8c 7c 3e 54 81 9d 3d ea a4 02 3f c0 3c 0d 3f
       0.2466287 0.07690683 0.5103289 0.5517082
0000d0 12 c3 18 3f b1 b0 41 3e 8d 48 91 be 5b 56 92 3e
       0.59672654 0.18915059 -0.28375664 0.2858151
0000e0 fa 90 8e be 85 09 37 3e 89 77 02 bf fd b6 de bd
       -0.27844983 0.17874725 -0.50963646 -0.10874746
0000f0 13 7d 07 bf 4c 1b 04 bc ef c8 18 bf 05 04 e1 be
       -0.52925223 -0.008063149 -0.596816 -0.4394838
000100 cd b0 c7 3e b3 6c 96 be 0b 30 91 be 05 82 93 be
       0.39002076 -0.29379806 -0.28356966 -0.28810135
000110 e8 50 2f 3e 6d 43 d9 3b b5 e4 78 3e fc 9d 5c 3e
       0.17120707 0.006630352 0.24305995 0.21544641
000120 c8 ad dc 3e 22 35 55 3e 9a 38 9c be b2 44 aa 3e
       0.43101335 0.2082105 -0.30511934 0.33255535
000130 a4 e8 bf bd fc 4b 3b bd e0 fb 02 bf a1 91 97 be
       -0.093705446 -0.04572676 -0.5116558 -0.29603294
000140 72 d6 03 bf 5b a2 43 be 62 e6 ce be c2 fb d3 be
       -0.5149909 -0.19104902 -0.40410143 -0.41403013
000150 9b e2 a3 3e 7e 9c 88 be f6 90 ef be 7e d4 2f be
       0.32008824 -0.26681894 -0.46790284 -0.17170903
000160 61 ea 02 3f 13 1e da bd 65 d8 05 3f 89 e9 ba 3e
       0.51138884 -0.106502675 0.52283317 0.36506298
000170 a8 ff 27 3f e7 41 da 3e 07 02 1b bf 32 e2 40 3e
       0.65624475 0.42628404 -0.6054997 0.18836287
000180 ae 1b a6 be fd b4 38 3d 68 54 05 bf e3 25 30 be
       -0.32442993 0.04509448 -0.5208192 -0.17201953
000190 2a 0a e1 be 45 21 4e be fa e0 4d be ce 70 ff be
       -0.43953067 -0.20129879 -0.20105353 -0.4989075
0001a0 b6 58 0c 3f bc 97 ef be 07 a7 bd be 04 6e 2b be
       0.5482286 -0.46795452 -0.37041494 -0.16741186
0001b0 9c b5 a8 3e e2 c8 ec 3b 54 70 99 3e 72 cf 13 3f
       0.32951057 0.0072260955 0.29968512 0.5773841
0001c0 d2 bb f7 3e 6b 7e c8 3e 26 e0 ce be 44 6b 77 3e
       0.48385483 0.3915895 -0.40405387 0.24162012
0001d0 93 53 08 be f9 02 9d 3e d6 80 02 bf 15 6a df be
       -0.13313131 0.3066633 -0.5097784 -0.43635622
0001e0 5b 76 ef 3e 58 9f b0 3e c8 76 80 3e b4 cd b9 3e
       0.46769986 0.3449657 0.25090623 0.36289752
0001f0 f6 54 83 be 4c be cc 3d 05 43 8f 3e 19 e2 99 3e
       -0.25650758 0.09997234 0.2798082 0.3005531
000200 4d 2d bd be 6f d5 79 3d 06 d5 f8 be 4a 10 d6 be
       -0.36948624 0.06099456 -0.48600024 -0.41809303
000210 2a 65 ef be 92 a2 bb bd d5 3e f4 3e f5 fc e3 bd
       -0.4675687 -0.09161867 0.47704187 -0.11132232
000220 21 40 09 3e 85 39 3f be 19 dd f3 3e d0 25 0d 3e
       0.1340337 -0.18674286 0.47629622 0.13783956
000230 1a b3 00 3f f2 45 a0 3e 3e 6e de 3e 91 9b e3 3e
       0.5027329 0.31303364 0.43443483 0.44454625
000240 b4 c9 e9 be 4a 04 11 3e f9 e8 d7 3e a0 f7 2b 3e
       -0.456617 0.14161792 0.42169932 0.1679368
000250 ab 47 87 3c 20 13 38 3e a6 79 cc bd ee ad ed be
       0.016513666 0.17976046 -0.0998414 -0.4642176
000260 f2 36 17 bf 3f cd 18 bc 35 3c d5 3e ff 5d 59 be
       -0.59068215 -0.009326278 0.41647497 -0.21227263
000270 36 26 d5 bc d5 22 a6 3c b7 f2 00 3f 20 df 70 3e
       -0.026019197 0.020280281 0.50370353 0.23522615
000280 5c f9 89 be 20 53 09 3b 5e 39 90 be 81 50 ae be
       -0.2694806 0.0020954087 -0.28168768 -0.34045795
000290 fb c2 b8 3e e8 c1 d1 be 91 22 0c bf fb d1 6c be
       0.36086258 -0.4096825 -0.54740244 -0.23126976
0002a0 a9 8f 1f 3f e4 2e 8b bd df b3 f8 3e b6 bd 80 3e
       0.62328583 -0.06796053 0.4857473 0.25144738
0002b0 53 21 2b 3f 04 93 9b 3e 3c 50 a3 be e4 f1 7f bd
       0.66847724 0.30385602 -0.3189715 -0.062486544
0002c0 3e 53 f0 be e2 7c 18 bc e9 3b 19 bf 4d 8b 8f be
       -0.4693851 -0.009307118 -0.5985704 -0.28035966
0002d0 dc fc 9e be ac 53 f3 bd bc 68 1b bf 42 1c 0c bf
       -0.3105229 -0.118811935 -0.60706687 -0.5473062
0002e0 56 a4 ee 3e 73 b3 a1 be 58 9f f1 be 4a 92 ed 3b
       0.46609753 -0.3158222 -0.47191882 0.007250105
0002f0 50 e0 db 3e 35 83 c7 bd 0f bd f6 3e e9 40 c0 3e
       0.42944574 -0.09741823 0.48191115 0.37549523
000300 1a 87 b0 3e 09 8c b9 3e 5c 03 c6 be 06 1f 23 3e
       0.34478074 0.3623965 -0.38674438 0.15929803
000310 5d 00 2f be 61 a4 64 3d cf 4a 11 bf 56 24 a2 bd
       -0.17089982 0.055820826 -0.56754774 -0.07917087
000320 86 7e e3 be 41 75 70 be 3b 07 9a be a6 b5 2d bf
       -0.44432467 -0.23482229 -0.3008364 -0.678553
000330 97 81 d0 3e 2b e9 9a be 05 c1 af be 32 c8 a1 be
       0.4072387 -0.30256018 -0.3432695 -0.3159805
000340 24 ef cf 3e c3 6c 6f 3d 03 79 c8 3e 21 3e 94 3e
       0.40612137 0.058453333 0.39154825 0.2895365
000350 05 44 0d 3f f5 e9 04 3e 67 e3 c7 be 6f 0c cf 3d
       0.55181915 0.12979873 -0.39040682 0.101097934
000360 17 61 db be 99 bf 81 bd 78 c3 e3 be 6a 5d 7e be
       -0.4284751 -0.063353725 -0.44485068 -0.24840322
000370 33 f4 b7 be 33 3d 91 be e2 0c 57 be f7 26 e6 be
       -0.35928497 -0.28367004 -0.21001008 -0.44951603
000380 4b 2b a5 3e df e0 02 be 30 8d d8 be 92 28 86 be
       0.32259592 -0.12781094 -0.42295218 -0.26202828
000390 9d 22 9c 3e 31 5e 95 be 59 e9 79 3e 83 37 d1 3e
       0.30495158 -0.29173425 0.24405421 0.40862665
0003a0 ba a5 19 3f 1d f8 a3 3d 95 21 65 be 78 cf 8d 3e
       0.60018504 0.08006308 -0.22376092 0.2769735
0003b0 51 da 82 bd 56 37 fe 3b 03 f5 10 bf 25 02 57 bd
       -0.06389297 0.0077580614 -0.5662386 -0.05249228
0003c0 23 5b fc 3e 8b af a6 3e 88 5e 95 3e 8e bb 35 3f
       0.49288282 0.32555804 0.29173684 0.7098931
0003d0 f3 04 40 be ed 87 95 3e c7 ee ae 3e 06 01 2e 3e
       -0.18751888 0.29205266 0.34166548 0.16992578
0003e0 48 d5 34 be 66 d1 fc ba 54 cf f6 be 50 67 ba be
       -0.17659485 -0.001928848 -0.48205054 -0.36406946
0003f0 a0 59 09 bf de 15 66 be 2f 6b c8 3e 5c 73 00 be
       -0.5365238 -0.22469279 0.39144275 -0.12544006

layer.bias f4 [20]
000000 a9 cd b4 bd f8 bf 7f 3e 47 0d 0b be 4d f1 b0 bd
       -0.08828289 0.24975574 -0.13579284 -0.086397745
000010 6b e3 0a bf e7 55 da be 2b f6 d2 3d af 85 cd 3e
       -0.5425326 -0.42643663 0.10300859 0.40141055
000020 f7 83 9f be 85 c0 73 be f9 17 ba be 7b 6f db be
       -0.3115537 -0.23803909 -0.36346415 -0.4285849
000030 40 d5 ca 3e 27 b3 6f 3e 34 a0 cc be 28 c1 d7 be
       0.39615822 0.23408185 -0.39965975 -0.42139554
000040 7a 6c 25 3e 01 01 3c 3e 34 73 9d 3e 47 aa b8 3d
       0.16154662 0.18359758 0.30751956 0.09016853

classify.weight f4 [1, 20]
000000 2e fd a2 3f 3c cf 94 be ed f2 b0 3f 1e 01 90 3f
       1.2733514 -0.29064357 1.3824135 1.1250341
000010 63 9c a5 3f b5 44 a0 3f 47 4d cf be f4 69 80 be
       1.293835 1.2520968 -0.40488645 -0.25080836
000020 36 29 a0 3f 74 74 ae 3f 5b ab 93 3f 7e b1 a3 3f
       1.2512577 1.3629289 1.1536669 1.2788541
000030 65 84 98 be c2 bc ac be ec ff a3 3f 36 70 95 3f
       -0.2978851 -0.3373776 1.2812476 1.1674869
000040 da a6 8c be c2 63 99 be e7 a4 75 be 26 c5 d3 be
       -0.27471048 -0.29958922 -0.23988687 -0.4136135
