98 聂靖华 桂林/model.pth (torch, 5787 bytes, 4 tensors)

embedding.weight f4 [28, 20]
000000 a1 1c 5d bf 6b c6 82 3f 69 b6 50 3f c3 0c ab bf
       -0.8637181 1.0216802 0.81528336 -1.336327
000010 4b 92 61 be b7 c3 3d be bd 9f d9 3c ec 55 a1 3f
       -0.22028463 -0.1853169 0.026565427 1.2604346
000020 46 ec b4 bf 01 d4 47 bf ef 82 99 bd 98 9c b8 3e
       -1.4134605 -0.7805787 -0.07495677 0.36056972
000030 ba a8 b6 be f2 20 61 bf aa 61 f9 3e 95 23 f6 bf
       -0.35675603 -0.87940896 0.48707324 -1.9229609
000040 7c bc b7 3f 79 54 54 bf 1d 22 89 3f ee 03 d6 be
       1.4354396 -0.82941395 1.0713536 -0.41799873
000050 1c 42 40 c0 a6 f5 7c 3f 29 4e c5 bf 50 b6 ec 3f
       -3.004035 0.9881233 -1.5414478 1.8493137
000060 7b 44 14 c0 80 8f cb bf 7b be fd 3f fb a2 e1 3f
       -2.3166797 -1.5903168 1.9823755 1.7627863
000070 ee 00 0a bf b2 90 54 bf b7 7d ac bf 4e 8e 32 bb
       -0.5390767 -0.8303329 -1.3475865 -0.0027245465
000080 0c 16 03 40 be 3f f5 3c b3 87 82 bf ae 6c a3 bf
       2.0482206 0.029937621 -1.0197662 -1.2767541
000090 e2 db ab bf 78 c5 e3 bf 78 d1 5c bf b4 e1 c2 bf
       -1.3426478 -1.7794638 -0.86257124 -1.5225129
0000a0 bb 61 af bf 04 bd f2 3f e0 85 37 be 15 09 86 3f
       -1.37017 1.8963933 -0.17922163 1.0471522
0000b0 98 a3 0c c0 13 97 6c bf fc ed 7e be 2b 31 51 3f
       -2.197485 -0.9241802 -0.24895471 0.8171565
0000c0 dc a4 29 40 6b 46 64 bf de 79 f3 3e c3 8b a7 3f
       2.6506872 -0.8916995 0.47553915 1.3089527
0000d0 b4 83 12 40 79 eb 09 c0 4c 41 2f c0 e3 fd e7 bc
       2.2892885 -2.154997 -2.7383604 -0.028319305
0000e0 d0 ed 38 bf b7 fa a8 bf bf 37 ac bf 70 3e b6 bf
       -0.72237873 -1.3201512 -1.3454512 -1.4237804
0000f0 93 a6 04 c0 a1 7b 8b 3f e1 41 af be 90 e0 3c be
       -2.072667 1.0897104 -0.3422995 -0.18445039
000100 a1 b6 eb be 8a 1f 96 bf e0 42 15 40 1f bc 1e 3f
       -0.46037772 -1.1728375 2.3322067 0.620058
000110 f0 8b b9 3f 95 24 b2 bf 9c 17 45 3f c4 78 cc 3f
       1.449583 -1.3917414 0.7698915 1.5974355
000120 e3 3a 1f 3f 3c 84 9d bf ca 27 c4 be 3f 1b c0 bf
       0.6219923 -1.230598 -0.38311607 -1.5008315
000130 0f 00 52 bf e7 bf 34 bf f1 89 af bf f7 11 14 c0
       -0.8203134 -0.7060532 -1.3713971 -2.3135965
000140 2b 2b 08 3f e0 05 ac 3c 0e 5b c8 3f 48 a4 7a 3f
       0.5319087 0.020998895 1.5652788 0.97906923
000150 f7 e7 e0 be 0d 96 78 3f 3f f8 8e be fb b4 d1 bf
       -0.43926975 0.9710396 -0.27923772 -1.6383356
000160 42 5a 31 be 65 82 2a bf 02 ea a5 bf ac 31 05 c0
       -0.17319587 -0.66605216 -1.2962039 -2.0811567
000170 e7 14 df 3e a7 bd b6 3e 5d c5 8e 3d 40 47 7a bd
       0.43570635 0.35691568 0.06971238 -0.061103106
000180 f8 62 74 3f fc ba c1 bf e2 2e 92 be bc 1a 46 bf
       0.95463514 -1.5135188 -0.28551394 -0.77384543
000190 8b ee f0 bd 56 f9 1c bf be 57 fe bd a0 f6 db bf
       -0.117642485 -0.61317956 -0.12419079 -1.7184639
0001a0 79 bd 02 3f ee 48 5a 3e 8c fb b5 bf 81 10 dc bf
       0.5107036 0.21316883 -1.4217391 -1.7192537
0001b0 44 47 90 bf bc 02 43 be 5d 58 77 3d 1f 75 d3 be
       -1.1271749 -0.19044012 0.060387004 -0.41300294
0001c0 36 e9 3e bf 4f 7e 98 3f da 45 5e bf f9 4b b9 bc
       -0.745746 1.1913546 -0.86825335 -0.022619234
0001d0 af 24 79 bf 66 4f 9e bb ab d6 3c 3f 6e 0d 34 bd
       -0.973216 -0.0048312424 0.7376506 -0.04395812
0001e0 28 45 34 bd d6 48 c3 3e 60 f4 33 3e f2 51 45 3e
       -0.044011265 0.38141507 0.1757369 0.19269541
0001f0 4b 07 f7 be 2f 15 4b 3f d1 71 e7 bf fc 53 65 3e
       -0.48247752 0.793292 -1.8081609 0.22395319
000200 ff ea 1f bd 52 bc 31 3f e9 98 78 bf 66 6e 9c bd
       -0.03904247 0.6942798 -0.9710832 -0.07638244
000210 ad 26 e2 be ca 7c 19 3f b2 5d 0d be 60 71 37 3f
       -0.44170132 0.5995604 -0.13805273 0.7165737
000220 8c f7 1a 3e 8c 6c fd 3f 0a a6 21 bf 97 e3 e7 3f
       0.15133494 1.9798751 -0.6314398 1.811633
000230 b5 79 34 3f 6c fc dc 3c 62 d7 81 3f a9 06 02 be
       0.7049821 0.026975833 1.0143855 -0.12697853
000240 64 90 54 3f e3 c3 92 3f 7a 29 8d 3f f3 95 17 bf
       0.8303282 1.146603 1.1028283 -0.5921318
000250 f6 8c 3d bf b2 c9 82 be 27 f0 99 3c 50 59 a2 be
       -0.74043214 -0.25544506 0.018791271 -0.31708765
000260 72 ad 79 bf 4a a1 56 be 0d 35 59 3f 98 00 ad bf
       -0.9753028 -0.20959964 0.84846574 -1.3515806
000270 c4 54 7a 3e d2 97 e1 3f 58 a9 01 bf a0 c2 91 be
       0.24446398 1.7624457 -0.50649023 -0.284688
000280 1d d1 d0 3f 6b 34 14 c0 75 33 c2 be 53 39 0e 3f
       1.6313816 -2.3156993 -0.37929884 0.5555622
000290 7a 95 9d bf c7 88 c6 be a6 1f b6 bf a2 1e 52 3f
       -1.2311242 -0.38776228 -1.4228408 0.8207799
0002a0 d9 b6 19 c0 71 85 c8 3e f4 6b 79 3f b4 56 e0 bd
       -2.4017851 0.39164308 0.9743035 -0.10954037
0002b0 f2 cf 9c bf 1f e6 27 3f a1 af 2f bf df 48 29 3f
       -1.225096 0.6558551 -0.68627363 0.6612682
0002c0 f4 92 21 3f 98 c1 cb bf f7 18 91 bf 77 08 60 3e
       0.6311486 -1.5918455 -1.1335744 0.21878229
0002d0 e7 34 a3 3e f6 2e 67 bf 5f 03 d3 3d 30 89 de be
       0.318763 -0.9030603 0.10303377 -0.4346404
0002e0 00 6a fd 3e f9 df 8c bf 74 d6 63 bf 80 52 9a be
       0.49494934 -1.1005851 -0.88999104 -0.30141068
0002f0 01 f6 13 bf 0f 27 d9 3f c7 c8 8e bf 41 8d c7 3f
       -0.5779725 1.6965045 -1.1155022 1.5589982
000300 02 fc f0 be d0 7e 28 bd a0 a6 97 3f d5 af 3c bf
       -0.47067267 -0.041136563 1.1847725 -0.737058
000310 9c 0a d6 bc 37 86 32 3e e7 4f d2 3f 1d a1 02 3f
       -0.026128106 0.17434011 1.6430634 0.5102709
000320 a5 3c 73 3e 73 d5 45 3f 03 6a dc 3f 9f b9 03 3f
       0.23753603 0.7727882 1.7219852 0.5145511
000330 75 94 57 3d 2e 08 23 3f 0b 7f 43 bf b5 0a 92 3e
       0.052631814 0.63684356 -0.7636573 0.28523794
000340 a1 86 22 be 6a 1a 8e bf 8d f4 88 c0 1d ef 41 bf
       -0.1587167 -1.1101811 -4.2798524 -0.7575548
000350 6e 59 1b 3f fc e4 b0 3e bd 3b d8 3f 9a b5 04 bf
       0.60683334 0.345497 1.6893231 -0.518396
000360 66 7e 01 3f e0 72 96 3e eb e4 1b 3f aa 29 29 bf
       0.50583494 0.29384518 0.60896176 -0.660792
000370 a6 be 29 be d2 d7 68 be 50 67 16 be 6c d8 e5 bf
       -0.16576633 -0.22738579 -0.14687848 -1.7956672
000380 3a b4 9f 3f d0 7b 3b bd 8f d0 0c 3f 72 94 07 40
       1.2476876 -0.045772374 0.55005735 2.1184354
000390 88 27 ae bf ac ed 03 40 57 d9 8e bf e5 03 29 bf
       -1.3605814 2.0613813 -1.1160077 -0.6602157
0003a0 b8 05 06 c0 3c 35 06 3f 32 2f b5 ba 41 8e 35 be
       -2.094099 0.5242498 -0.0013823269 -0.17730047
0003b0 05 ec ab bf c7 04 22 3e ef 42 d6 3e 0d c6 5f 3f
       -1.3431402 0.15822135 0.4184794 0.87411577
0003c0 0c 3c 6b 3e 67 b2 9b be fc 15 b4 3f 6e dd 54 bf
       0.22972125 -0.30409548 1.4069209 -0.83150375
0003d0 ab ed e9 bf b5 dc d3 3d fb 0e 06 c0 e5 6e 7d bf
       -1.8275656 0.10344831 -2.0946643 -0.98997337
0003e0 cc 06 2b 3f cb 46 15 be b2 95 cb be f5 88 9b bf
       0.66807246 -0.14577787 -0.39762646 -1.2151171
0003f0 45 6c 95 bf 96 32 61 3f 11 1c 95 be 1c 19 03 c0
       -1.1673666 0.87967813 -0.29122975 -2.0484076

layer.weight f4 [20, 20]
000000 54 54 22 3f 74 85 15 be 9b 2d 82 3e c7 ff 97 bd
       0.63409925 -0.1460169 0.2542542 -0.074218325
000010 91 26 3a 3e 8a 45 61 3e ee 20 ba be c8 7f 6b be
       0.18178774 0.21999183 -0.36353248 -0.22997963
000020 16 53 17 bf d6 d0 bb 3e 2c b9 84 3c 61 f2 01 bf
       -0.59111154 0.36682767 0.016201578 -0.50760466
000030 fc 50 d6 be 1e 7d c8 3d 40 79 96 3e 4c 48 fb 3d
       -0.4185866 0.09789489 0.2938938 0.12269649
000040 72 50 9c 3e 73 97 be 3e 23 dd 7a 3e 3b 4f da 3d
       0.30530125 0.37224922 0.2449842 0.10659643
000050 65 76 1f 3f a9 99 3a be 8a 47 e5 3e c5 07 15 be
       0.6229003 -0.18222679 0.44781142 -0.14553745
000060 2d 01 b9 3e 77 14 f4 3d 69 cb dc be dc 7c 4c be
       0.3613371 0.11917966 -0.4312394 -0.19969505
000070 e9 b1 fc be b4 4b 8d 3e 63 7c 6f be 87 93 0f bf
       -0.49354485 0.2759682 -0.23387294 -0.56084484
000080 b2 3c 14 bf 41 6a 31 3b e6 8a 76 3e 16 0a 61 3d
       -0.57905114 0.002707139 0.24076423 0.05494126
000090 1d f8 df 3e a6 94 d6 3d 6e 2a ae 3e 43 cb d0 3e
       0.43743983 0.10477571 0.34016746 0.40780076
0000a0 35 c2 2c bf ef 1d b3 3e bf f2 28 be 0f ce fd 3c
       -0.67483836 0.34983775 -0.1649885 0.030982045
0000b0 14 de a1 be 4c 4d eb bd 5e 83 e5 3e a5 df ae 3e
       -0.31614745 -0.114893526 0.44826788 0.34155002
0000c0 44 2b b9 3e ba b5 8d be 35 9b a5 3e ab d4 0e 3f
       0.36165822 -0.2767771 0.32344976 0.55793256
0000d0 e1 da e0 3e 59 5e 44 3c 0e 5c b5 be de b6 9e bd
       0.4391699 0.011985385 -0.35421795 -0.07749723
0000e0 27 bb 0c bf ab 7b 87 be 1e 28 e6 be c2 b3 c1 be
       -0.5497307 -0.2646154 -0.44952482 -0.37832457
0000f0 df c4 44 bf 93 7d 9c 3e fd 2b 00 bf 3f 7e 02 3e
       -0.768629 0.30564556 -0.5006712 0.12743472
000100 4c fb b4 be 73 d9 52 be 56 f3 e7 3e 2b a1 f5 3d
       -0.35347974 -0.20590763 0.45302838 0.11993631
000110 7c 9c 17 3f 2e f5 c6 be 1f 22 19 3e b9 34 31 3f
       0.5922315 -0.38858932 0.14954422 0.69221073
000120 21 c9 a2 3e 90 d4 34 be 1e 9a b9 be 0a 52 41 be
       0.31794074 -0.17659211 -0.36250395 -0.18878952
000130 92 bd 02 bf 95 39 8d be 99 84 ae be 09 96 5a be
       -0.5107051 -0.27582994 -0.3408554 -0.21346296
000140 fd 18 12 3f eb 46 89 be da f7 a5 3e 11 5a 90 be
       0.5706938 -0.2681192 0.32415658 -0.28193715
000150 c3 61 7a 3e d5 b4 27 3e fe fa 07 bf 16 7c c3 be
       0.24451356 0.16377576 -0.5311736 -0.38180608
000160 ae 0c ff be e6 91 cb 3e 8e 2d e9 3d d9 2a c3 be
       -0.4981436 0.3975975 0.11385642 -0.38118628
000170 13 d9 c6 be 53 29 8e 3d 7e 95 9a 3e 4b 1c 2f bc
       -0.3883749 0.06941476 0.30192178 -0.010687898
000180 5e f5 65 3e c3 12 88 3e ae a5 32 3e e1 00 85 3e
       0.22456881 0.26576814 0.17446014 0.25977233
000190 98 0d 28 bf 45 27 d2 3e 6d fe 00 bf dc b3 96 bc
       -0.6564574 0.41045585 -0.5038822 -0.01839631
0001a0 cb 76 c6 be f8 8b a5 be 7d 6f 8c 3e b3 46 aa 3e
       -0.38762507 -0.3233335 0.2742881 0.33257064
0001b0 56 c7 ce 3e cd d2 e4 be e0 db 7b 3e 9b 6f eb 3e
       0.40386456 -0.44692078 0.24595594 0.45983586
0001c0 1f c7 8a 3e 51 22 87 bd 19 5f b2 be 9d 4d 64 be
       0.27105042 -0.06598342 -0.3483818 -0.22295232
0001d0 15 c5 8d be ac 42 33 be e7 40 ac be 19 45 b2 be
       -0.27689424 -0.17505902 -0.33643267 -0.34818342
0001e0 27 cb c8 3e c9 c4 a6 bd b0 4f c2 3e 77 38 8a be
       0.39217493 -0.081430025 0.37951422 -0.26996204
0001f0 4e f3 05 3e ba 93 d1 3e b5 63 24 bf 1f d1 26 be
       0.13081095 0.4093302 -0.6421464 -0.16290711
000200 4a e6 0b bf 97 da d7 3d 0b a7 b1 bd e2 ca ff be
       -0.5464827 0.105397396 -0.08674439 -0.49959475
000210 10 bb 18 bf 1a e3 79 3d aa a6 fb 3e 7c 5c fc 3d
       -0.59660435 0.061007597 0.49150592 0.123223275
000220 08 30 70 3e 85 a2 86 3e 5e fe 02 3e ca 1a 62 3e
       0.23455822 0.26295868 0.12792346 0.22080532
000230 eb fb 4c bf c5 5b a3 3e 1e ee 7c be fe 51 37 3e
       -0.80071896 0.31905952 -0.2470021 0.17902371
000240 19 4f ae be 70 b5 4a be e6 d1 cc 3e 65 9d 93 3e
       -0.34044722 -0.19795775 0.4000389 0.2883102
000250 35 c7 08 3f c3 f7 c2 be 78 4a 7b 3e ad 68 19 3f
       0.53428966 -0.38079652 0.24540126 0.5992535
000260 16 83 94 3e 6b 00 22 be 04 b7 68 be 35 d6 58 be
       0.2900626 -0.15820472 -0.22726065 -0.21175463
000270 e8 dd f8 be 06 70 c6 be 75 28 79 be 0f a9 23 be
       -0.486068 -0.38757342 -0.2433184 -0.1598246
000280 4d cb 42 3f 9e 0c 5f bd 5e 92 43 3e 81 81 66 bc
       0.7609146 -0.054455392 0.19098803 -0.014068962
000290 b2 e6 64 3e 7d 2b bb 3e 24 a7 d1 be 50 95 bc be
       0.22353628 0.36556616 -0.4094783 -0.36832666
0002a0 fc db 20 bf ee 9f d9 3e 39 33 50 bc 8d ae b3 be
       -0.6283567 0.4250483 -0.012707525 -0.3509411
0002b0 c2 a4 0a bf 27 81 4e 3e 0b 5a bc 3e dc cf 86 3e
       -0.5415765 0.20166455 0.36787447 0.2633046
0002c0 73 1c ac 3e c1 72 ad 3e 32 a1 36 3e 32 b3 fe 3d
       0.33615455 0.33876613 0.17834929 0.124365225
0002d0 b8 47 43 bf d7 d8 14 3e a6 fa ab be 53 65 a2 3e
       -0.7628131 0.14535843 -0.33589667 0.3171793
0002e0 25 91 49 be e7 d7 a6 be 3f cf 01 3f 70 5a b9 3e
       -0.19684274 -0.32586595 0.5070686 0.3620181
0002f0 57 94 12 3f 00 6c 2b be 0f 21 9e 3e 2c a0 17 3f
       0.572576 -0.16740417 0.30884597 0.5922878
000300 a8 34 30 3f a8 a3 07 3d 9a ca a2 be 6b dc 12 be
       0.6883035 0.03311506 -0.31795198 -0.14341895
000310 1c 62 bb be 01 49 19 be 19 eb e9 be 54 05 50 be
       -0.3659829 -0.14969255 -0.45687178 -0.20314533
000320 ba 8b 62 3e b7 71 c3 be ef eb 75 bd 42 76 bc 3c
       0.22123614 -0.38172695 -0.060039457 0.023005608
000330 95 21 e3 3e 9f 11 76 3e 80 09 f5 be 52 19 e3 be
       0.4436156 0.2403016 -0.4785881 -0.44355255
000340 dd 44 f9 be 10 1d 35 3e e2 2d 83 3e 66 f2 37 be
       -0.4868535 0.17686868 0.25620943 -0.17963561
000350 02 7e b8 be 6a a0 9a 3c 1c d7 dd 3e 53 3e d5 3e
       -0.36033636 0.01887532 0.43328178 0.41649112
000360 1a 1d 8d 3e d6 07 d3 3e dc 79 b2 3e 37 5c b9 3e
       0.27561265 0.41216916 0.34858596 0.36203167
000370 19 55 48 bf 58 d4 56 3e 7f 88 82 be 91 6f d6 3d
       -0.7825485 0.2097944 -0.25494763 0.10470498
000380 e9 21 ca be d0 2b 07 be df a6 e8 3e 22 44 c6 3e
       -0.39478996 -0.13200307 0.45439813 0.38723856
000390 ad 5d 0a 3f ec 32 eb be ce d3 17 3e b0 36 16 3f
       0.5404919 -0.45937288 0.14826891 0.58677197
0003a0 90 49 9a 3e 3d 17 d2 bd c5 e0 6f be 50 55 22 be
       0.3013425 -0.102583386 -0.23425587 -0.15852857
0003b0 7a 0a 08 bf da 53 56 be 40 80 84 be 82 b4 56 be
       -0.53140986 -0.20930424 -0.25879097 -0.20967296
0003c0 b9 98 4d bf 7a e8 ac 3e ba 7a b3 be 97 5f 4e 3e
       -0.8031116 0.33771116 -0.3505457 0.20153652
0003d0 69 2e b0 be eb 3b 89 be 0f e8 0f 3f 23 d1 76 3e
       -0.34410408 -0.26803526 0.5621347 0.24103217
0003e0 53 f7 f4 3e 8d ab 79 be 52 d8 35 3e 3b a7 30 3f
       0.47844943 -0.24381848 0.17758301 0.69005173
0003f0 43 35 2a 3f 92 93 bb bd f6 fb b0 be d9 cb 1e be
       0.6648752 -0.09159006 -0.3456723 -0.15507449

layer.bias f4 [20]
000000 20 9c 9e 3e 4c 1b d3 3e 43 f2 19 bf 30 18 e8 be
       0.3097849 0.41231763 -0.6013529 -0.45330954
000010 ac 30 a3 3e 88 af d1 be 86 b6 7c 3e 66 5b fe be
       0.3187307 -0.40954232 0.24679002 -0.49679106
000020 0a 3f d6 3e 72 10 01 bf d4 4c 6b 3e 3d bb a5 be
       0.4184497 -0.5041572 0.22978526 -0.32369414
000030 ba 7d 34 bf d7 4d 9d be 8b fe e1 be d5 eb 59 3e
       -0.70504344 -0.3072345 -0.44139513 0.21281369
000040 82 3e f9 3e 38 7f b8 be a2 ee 2e bf 78 54 83 3e
       0.48680502 -0.3603456 -0.68332875 0.25650382

classify.weight f4 [1, 20]
000000 1d 95 b0 be bf 6b ac be 9a 2a a3 3f ab 53 9b 3f
       -0.34488764 -0.33675954 1.2747376 1.2134908
000010 91 f5 83 be 3a eb 99 3f d5 01 ea be ac f9 aa 3f
       -0.2577329 1.202491 -0.45704523 1.3357444
000020 c5 0a 96 be 17 e2 a4 3f 67 40 2f be ec 3a 96 3f
       -0.29305092 1.2881497 -0.17114411 1.1736732
000030 24 05 99 3f 3d 65 98 3f 2e 9b a0 3f bc e8 f7 be
       1.1954694 1.1905895 1.2547357 -0.4841975
000040 3c 6e 9b be 7d 04 82 3f 1a d4 a2 3f 11 8d c6 be
       -0.3035754 1.015762 1.2720978 -0.387795
