39-王辰-武汉/week1/model.pth (torch, 5787 bytes, 4 tensors)

embedding.weight f4 [28, 20]
1.8713375 1.3669972 0.8305749 -0.9290973 0.9346047 1.7600805 -1.3428764 0.48111367
1.2539237 1.2905834 1.7531395 -0.054283045 2.3833048 0.45986882 0.38377222 1.4225858
-0.1859 0.37425232 1.2956088 -1.6161088 -1.2890013 0.69926083 0.5258599 1.169748
-1.2515999 0.64656645 -1.215061 -0.87424195 0.36240822 0.520275 -0.36242086 0.6981873
-0.96002305 0.6967509 -0.036217283 0.0043610497 -0.20463502 0.34482074 0.10616861 -0.43946764
-1.035062 1.6985592 2.2814686 -0.55396664 -0.5743384 0.3828978 -0.35974288 -0.3939099
-0.46804363 -0.75818723 -0.5048856 1.7059015 0.5952786 0.7142014 0.29600233 0.49567047
0.26381582 1.023487 -1.3462379 -0.3130165 2.157204 -0.7566775 -0.34593898 1.4776845
0.36959833 -1.9579276 2.8742778 -1.2082547 0.40210944 -1.0239443 1.4724777 -0.706781
0.6247972 -1.9095055 -0.7774224 1.3242375 -2.1295788 0.0740491 -0.47373858 1.9149036
-0.7431387 -0.83012974 0.24207045 -0.85632205 -0.27740023 1.3526199 0.7591442 -0.58090913
-0.76650065 1.2564595 0.36299798 1.4317675 -1.9008921 -1.2575946 1.0783516 -0.34728226
1.6893777 -1.4374597 0.6265508 0.8722046 1.2341874 2.210218 -0.88172853 0.49212295
0.95505136 0.69035405 0.9370497 -1.0844134 0.65660584 -1.2611742 0.039320365 2.0850286
1.4431556 1.0552993 -0.031719718 -2.2481396 1.9056189 0.59164155 -1.1557976 -1.1419199
0.9094245 0.50059843 1.2088705 -0.9765249 0.38868216 1.0498484 -0.77351034 1.3383635
-0.58262616 3.0209508 0.2752393 -0.38662595 0.5003869 0.31699905 -0.6524182 -0.009318304
0.31763938 0.36586937 -0.93285966 1.1297226 1.5684851 -0.6651937 0.29736772 -0.10129154
0.532062 0.8013054 1.3497844 2.5214171 -0.37591773 0.89335126 0.10746736 0.6896377
-1.3083847 0.3858395 -0.6293885 -0.030493848 1.3984828 -0.81641686 -2.693018 -1.7810532
0.8327911 1.846705 1.691215 0.08992341 -0.41582316 1.1658316 -1.0468206 0.5569547
-1.9350102 3.2351859 0.9860702 -1.3770971 0.15684734 -1.5113534 0.62627554 0.3285641
1.4511127 0.1415414 -0.18245034 0.592626 0.1882011 0.8802266 1.1750685 -1.2211605
1.2695274 -0.22701609 -0.2361126 0.28830862 -0.5887099 -0.28471377 0.4447469 0.8989642
-0.26160154 0.52604973 0.16501777 -0.30292174 -0.772225 1.320705 -0.44222236 -1.7318649
0.38865727 -2.1928139 0.08770365 0.015197569 0.8357415 0.05663923 0.6077071 -1.7328987
0.004337831 1.0927038 -2.212008 0.632393 -1.6910053 -0.39445594 -0.09300007 -1.4877719
-1.3003377 -0.46911573 0.39472273 -1.7351583 1.8454586 -1.3894305 -0.38426042 -0.505815
-1.4723072 -0.44571874 0.9331382 0.9303176 0.70542014 -0.56781286 1.4141722 -1.8965858
1.15115 -1.0197521 -0.9129891 1.7773914 -0.4464631 0.029155511 2.567649 0.4242234
-0.74994814 -1.0763948 0.23114358 -0.64500815 0.45068377 0.7743686 1.2615298 -0.98246324
-3.019573 -0.27124974 -1.1121433 -0.25441954 -1.4255848 1.028257 -0.23955102 0.29058355
00000000: fd87 ef3f c4f9 ae3f 8fa0 543f 52d9 6dbf
00000010: 4142 6f3f 514a e13f 60e3 abbf 8854 f63e
00000020: 9280 a03f d631 a53f e066 e03f e657 5ebd
00000030: 1188 1840 ed73 eb3e cb7d c43e 4b17 b63f
00000040: 925c 3ebe 009e bf3e 82d6 a53f a7dc cebf
00000050: fffd a4bf c202 333f c19e 063f 4dba 953f
00000060: 6d34 a0bf 6185 253f 1e87 9bbf 52ce 5fbf
00000070: 928d b93e be30 053f 3a8f b9be 67bc 323f
00000080: 12c4 75bf 445e 323f 9358 14bd 23e7 8e3b
00000090: d88b 51be 588c b03e ee6e d93d e701 e1be
000000a0: e97c 84bf 636a d93f 9503 1240 c2d0 0dbf
000000b0: d707 13bf 2e0b c43e 3830 b8be 8fae c9be
000000c0: 6aa3 efbe 8f18 42bf 2f40 01bf fb5a da3f
000000d0: 2e64 183f e7d5 363f 9e8d 973e 85c8 fd3e
000000e0: de12 873e 9f01 833f 8651 acbf b343 a0be
000000f0: a10f 0a40 9eb5 41bf ea1e b1be c424 bd3f
00000100: fe3b bd3e 5f9d fabf 2bf4 3740 17a8 9abf
00000110: 4ae1 cd3e 9b10 83bf 267a bc3f 9aef 34bf
00000120: b6f2 1f3f ad6a f4bf 2805 47bf 9d80 a93f
00000130: 054b 08c0 0ea7 973d dd8d f2be 901b f53f
00000140: 563e 3ebf 6283 54bf 51e1 773e ec37 5bbf
00000150: 6707 8ebe a622 ad3f 4657 423f 76b6 14bf
00000160: 6339 44bf aad3 a03f dfda b93e 2844 b73f
00000170: 6f50 f3bf dcf8 a0bf 6d07 8a3f fbce b1be
00000180: 873d d83f aefe b7bf a265 203f cd48 5f3f
00000190: daf9 9d3f 3674 0d40 f6b8 61bf 8af7 fb3e
000001a0: 3f7e 743f 0bbb 303f 7de2 6f3f 0fce 8abf
000001b0: 5217 283f 286e a1bf 640e 213d 1c71 0540
000001c0: 53b9 b83f 0c14 873f 89ec 01bd 85e1 0fc0
000001d0: 52eb f33f d275 173f 2df1 93bf 6e2a 92bf
000001e0: 0bd0 683f 3827 003f 45bc 9a3f 89fd 79bf
000001f0: 5901 c73e 6f61 863f c604 46bf 7f4f ab3f
00000200: fd26 15bf 4257 4140 2aec 8c3e d6f3 c5be
00000210: 5b19 003f b34d a23e e104 27bf cdab 18bc
00000220: a1a1 a23e 3b53 bb3e e4cf 6ebf c09a 903f
00000230: 1fc4 c83f 224a 2abf 9540 983e f071 cfbd
00000240: 3735 083f 5a22 4d3f bcc5 ac3f e65e 2140
00000250: 4a78 c0be abb2 643f d917 dc3d 198c 303f
00000260: 2679 a7bf c18c c53e 9b1f 21bf 3cce f9bc
00000270: 7c01 b33f b200 51bf 685a 2cc0 8df9 e3bf
00000280: cc31 553f d460 ec3f bc79 d83f c429 b83d
00000290: c6e6 d4be f839 953f 38fe 85bf 9594 0e3f
000002a0: 6aae f7bf 490d 4f40 196f 7c3f b844 b0bf
000002b0: 979c 203e 0774 c1bf 9853 203f 8e39 a83e
000002c0: 10be b93f 3bf0 103e 43d4 3abe 56b6 173f
000002d0: cab7 403e 8856 613f a568 963f fd4e 9cbf
000002e0: e07f a23f e876 68be 80c7 71be 309d 933e
000002f0: b1b5 16bf 01c6 91be deb5 e33e 8522 663f
00000300: a3f0 85be 32ab 063f 6bfa 283e 8f18 9bbe
00000310: 8ab0 45bf dd0c a93f f86a e2be c0ad ddbf
00000320: 16fe c63e 1057 0cc0 f99d b33d 39ff 783c
00000330: 28f3 553f 8afe 673d b192 1b3f a0cf ddbf
00000340: 5d24 8e3b b8dd 8b3f 8a91 0dc0 82e4 213f
00000350: dd72 d8bf 21f6 c9be d276 bebd 4f6f bebf
00000360: 7771 a6bf f02f f0be 1919 ca3e ab19 debf
00000370: fd37 ec3f dcd8 b1bf c8bd c4be 187d 01bf
00000380: 9074 bcbf 3f35 e4be 25e2 6e3f 4b29 6e3f
00000390: 6a96 343f 2f5c 11bf 9803 b53f 53c3 f2bf
000003a0: e258 933f 3d87 82bf a7b9 69bf 9081 e33f
000003b0: d096 e4be 8ad7 ee3c 5c54 2440 cf33 d93e
000003c0: 9afc 3fbf 4ec7 89bf e7b0 6c3e 411f 25bf
000003d0: 06c0 e63e 053d 463f cf79 a13f b682 7bbf
000003e0: af40 41c0 3fe1 8abe b65a 8ebf 4743 82be
000003f0: 9079 b6bf ed9d 833f dd4c 75be 5ec7 943e

layer.weight f4 [20, 20]
0.4726424 -0.077252425 -0.20325856 0.08117877 -0.28951663 -0.69049203 0.25085127 -0.04660984
0.50952107 -0.62319416 0.49332294 -0.3245603 0.35747957 -0.3330514 -0.17197311 0.79392046
-0.15234824 -0.034845952 0.38724512 0.25025454 -0.5031356 0.3007885 0.16756685 -0.016741496
0.4902406 0.8071695 -0.18543822 0.10697448 -0.46987802 0.29474387 -0.3432597 0.43661758
-0.43114808 0.08950206 0.082629606 -0.4133244 0.2412627 -0.17913572 -0.07458108 -0.3987026
0.65191704 -0.08550812 -0.4436046 0.060414664 -0.45571464 -0.60960877 0.31281286 -0.17400599
0.37416187 -0.33586237 0.35875112 -0.38129583 0.32566994 -0.4289592 -0.1694065 0.91023934
-0.182255 -0.025273032 0.27253255 0.56845117 -0.5439613 0.14322743 0.2756909 0.08753243
0.21692108 0.6877549 -0.13301004 0.17393297 -0.14016823 0.30363682 -0.5538876 0.31612805
-0.3037134 0.2961888 0.22721712 -0.5516094 0.13054183 0.065977514 -0.22162314 -0.31823552
-0.55365616 0.15527023 0.10778746 0.23645312 0.50540483 0.6740691 -0.18638211 0.15212001
-0.30519086 0.46184844 -0.5587761 0.21012938 -0.1966201 0.35370785 0.071225174 -0.45611164
0.2027643 -0.14199792 -0.19977307 -0.20881347 0.43625644 -0.3268684 -0.21753727 -0.12570351
-0.3200523 -0.6991287 0.3617451 0.071112394 0.40276438 -0.27746716 0.4549384 -0.07420787
0.4695515 -0.22766583 -0.07843997 0.6380456 -0.3821254 -0.19564654 0.3374389 0.6083086
-0.36900035 0.32411274 0.13289261 -0.16630124 0.40448982 0.59615904 -0.23715234 -0.12293497
-0.3162839 0.61580426 -0.35918337 0.34006098 -0.41781154 0.11334709 -0.00873573 -0.50957155
0.33673942 -0.1644341 -0.2376456 -0.41133136 -0.5698686 0.15222692 0.097093955 -0.109110065
0.32457402 0.6788841 -0.21495572 0.06034873 -0.18530749 0.36407527 -0.4867557 0.42487893
-0.37384108 0.1940535 -0.069162935 -0.46845543 0.35250995 -0.065957785 -0.2589748 -0.11766075
0.5139582 -0.21606788 -0.40566254 0.017663604 -0.522873 -0.5826649 0.34305102 -0.091583446
0.5878374 -0.62277895 0.5649988 -0.5041265 0.3397714 -0.49584803 -0.14992885 0.79756856
-0.12189623 0.12481791 0.41640264 0.5818307 0.44616324 -0.19466005 -0.18190674 -0.11920438
-0.33387426 -0.680933 0.2706819 -0.13609175 0.62069136 -0.5736271 0.63736767 -0.3105998
0.18996845 -0.5118856 -0.23314352 0.7161199 -0.17577226 -0.23435089 0.44550887 0.39220494
0.560193 -0.26713192 -0.374967 -0.066810645 -0.5724212 -0.7038168 0.22488602 -0.12407049
0.37665424 -0.35233858 0.4878073 -0.10891875 0.30026248 -0.42238525 -0.21149753 0.6296522
-0.33691296 0.078012876 0.32991788 0.26460645 0.40460175 -0.22026649 -0.31183687 -0.09096377
-0.34972274 -0.70774585 0.3123597 -0.065963134 0.32410124 -0.40939745 0.47581723 -0.37560967
0.2523046 -0.20025526 0.0018316391 0.70997953 -0.18485673 0.07785194 0.30962282 0.5191624
0.41465983 -0.41696253 -0.13697717 -0.07357521 -0.46382764 -0.74044013 0.2746245 -0.110427335
0.39977577 -0.5610167 0.5834597 -0.2916527 0.32282603 -0.2652442 0.020851081 0.57005084
00000000: 2ffe f13e 8536 9ebd 0323 50be 0e41 a63d
00000010: 863b 94be 16c4 30bf 946f 803e f6e9 3ebd
00000020: f96f 023f a789 1fbf d394 fc3e c52c a6be
00000030: 9007 b73e b785 aabe b819 30be 5f3e 4b3f
00000040: 2d01 1cbe a1ba 0ebd fe44 c63e 5d21 803e
00000050: 7fcd 00bf f300 9a3e a596 2b3e 7625 89bc
00000060: d100 fb3e a9a2 4e3f 84e3 3dbe 7015 db3d
00000070: da93 f0be abe8 963e bcbf afbe 578c df3e
00000080: 71bf dcbe db4c b73d b639 a93d 419f d3be
00000090: 920d 773e 5b6f 37be f7bd 98bd bf22 ccbe
000000a0: 09e4 263f e21e afbd 2420 e3be 5e75 773d
000000b0: 6e53 e9be 520f 1cbf 0229 a03e a02e 32be
000000c0: 2592 bf3e 27f6 abbe 3aae b73e 3539 c3be
000000d0: 36be a63e 8aa0 dbbe e678 2dbe 7205 693f
000000e0: 0ea1 3abe 6409 cfbc 6389 8b3e 0486 113f
000000f0: 0c41 0bbf 36aa 123e 5c27 8d3e 3444 b33d
00000100: 8f20 5e3e b510 303f c933 08be 7c1b 323e
00000110: 4388 0fbe 4976 9b3e 94cb 0dbf 89db a13e
00000120: 5380 9bbe 0fa6 973e 9bab 683e 4636 0dbf
00000130: c2ac 053e 381f 873d 2df1 62be c4ef a2be
00000140: 69bc 0dbf 29ff 1e3e acbf dc3d c420 723e
00000150: 3662 013f cb8f 2c3f f4da 3ebe 59c5 1b3e
00000160: fa41 9cbe 6677 ec3e f30b 0fbf 282c 573e
00000170: c856 49be 3219 b53e 81de 913d 7787 e9be
00000180: 72a1 4f3e e767 11be 5091 4cbe 33d3 55be
00000190: 015d df3e 4c5b a7be 17c2 5ebe 6cb8 00be
000001a0: e5dd a3be 19fa 32bf a736 b93e 60a3 913d
000001b0: 2237 ce3e 2d10 8ebe b0ed e83e 4cfa 97bd
000001c0: 0e69 f03e 3b21 69be 23a5 a0bd f556 233f
000001d0: f1a5 c3be 9157 48be cbc4 ac3e 1dba 1b3f
000001e0: 9ded bcbe 1bf2 a53e 0015 083e df4a 2abe
000001f0: 4a19 cf3e e19d 183f 10d8 72be 54c5 fbbd
00000200: f7ef a1be 59a5 1d3f e2e6 b7be 791c ae3e
00000210: 65eb d5be 8522 e83d 4f20 0fbc 4873 02bf
00000220: 1c69 ac3e 6a61 28be 5e59 73be 069a d2be
00000230: e9e2 11bf 60e1 1b3e 32d9 c63d 1975 dfbd
00000240: 912e a63e 59cb 2d3f 5a1d 5cbe 3b30 773d
00000250: 3fc1 3dbe 1368 ba3e 0b38 f9be bb89 d93e
00000260: 1968 bfbe f6b5 463e 4ca5 8dbd 64d9 efbe
00000270: 2f7c b43e e014 87bd 5898 84be 1ff8 f0bd
00000280: c492 033f e640 5dbe 00b3 cfbe 43b3 903c
00000290: 01db 05bf 8729 15bf 62a4 af3e 1a90 bbbd
000002a0: 837c 163f 716e 1fbf c3a3 103f 6f0e 01bf
000002b0: 84f6 ad3e cbdf fdbe f386 19be 742d 4c3f
000002c0: bba4 f9bd 88a0 ff3d ba32 d53e dbf2 143f
000002d0: 826f e43e f754 47be c345 3abe 6d21 f4bd
000002e0: 91f1 aabe a051 2ebf d196 8a3e a35b 0bbe
000002f0: a1e5 1e3f 3ad9 12bf 872a 233f f006 9fbe
00000300: 1787 423e ef0a 03bf 2dbd 6ebe a253 373f
00000310: a5fd 33be aef9 6fbe bd19 e43e 16cf c83e
00000320: cf68 0f3f 84c5 88be adfb bfbe 05d4 88bd
00000330: 328a 12bf 562d 34bf 8548 663e ab18 febd
00000340: d3d8 c03e b965 b4be e1c1 f93e cb10 dfbd
00000350: 01bc 993e e142 d8be cf92 58be e330 213f
00000360: db7f acbe 37c5 9f3d ffea a83e 7f7a 873e
00000370: f627 cf3e 8a8d 61be 15a9 9fbe 374b babd
00000380: dc0e b3be d52e 35bf 9ced 9f3e ae17 87bd
00000390: 99f0 a53e 8b9c d1be 519e f33e e94f c0be
000003a0: 122e 813e b70f 4dbe 9c13 f03a 38c1 353f
000003b0: 154b 3dbe d770 9f3d e286 9e3e d4e7 043f
000003c0: 4b4e d43e 1d7c d5be be43 0cbe 9aae 96bd
000003d0: d17a edbe 7c8d 3dbf 959b 8c3e ba27 e2bd
000003e0: 69af cc3e ca9e 0fbf 9d5d 153f 8153 95be
000003f0: 7449 a53e 16ce 87be e3cf aa3c daee 113f

layer.bias f4 [20]
-0.30986625 0.14474861 -0.7121784 0.35809708 0.11211033 -0.511891 0.20542243 0.2454258
-0.68565553 -0.3497399 -0.43718183 -0.18588139 -0.32284433 -0.36946556 0.062803246 -0.23327368
-0.36080885 0.39702684 0.25476986 0.15722965
00000000: caa6 9ebe fb38 143e 5351 36bf 8058 b73e
00000010: 1a9a e53d 4a0b 03bf 425a 523e e750 7b3e
00000020: 1f87 2fbf 1c11 b3be 4cd6 dfbe b157 3ebe
00000030: da4b a5be 972a bdbe fd9e 803d 4cdf 6ebe
00000040: f0bb b8be 1a47 cb3e 3271 823e cf00 213e

classify.weight f4 [1, 20]
1.2444471 -0.3548993 1.1333418 -0.32709903 -0.4837936 1.2967584 -0.3326063 -0.4064284
1.2746266 0.971542 1.3343323 1.1598693 1.2547704 1.2258037 -0.217959 1.2007574
1.081901 -0.25691834 -0.3377145 -0.43793327
00000000: 0b4a 9f3f 5cb5 b5be 5811 913f 8679 a7be
00000010: cbb3 f7be 2efc a53f 5f4b aabe 6217 d0be
00000020: f726 a33f fab6 783f 67cb aa3f 9976 943f
00000030: 519c a03f 23e7 9c3f a530 5fbe 6bb2 993f
00000040: bb7b 8a3f cd8a 83be eae8 acbe ca38 e0be
