67-訾连祥-北京/week1/model.pth (torch, 6939 bytes, 4 tensors)

embedding.weight f4 [42, 20]
00000000: f3ed 89bf f95a f53e 5cd0 583e be6f e33f
00000010: 92d6 b03f 0443 bc3f b557 4f3f 81f7 33bf
00000020: e124 a93f 865b fb3e 7384 573d 72c5 97bf
00000030: 9ad4 95be 6067 853e 53c8 11bf e9a4 13c0
00000040: 8587 abbf 364e a6bf be70 7e3f d4e5 dc3f
00000050: 360b 52bf 1138 18be beaf 3740 3a40 a73e
00000060: b5dc a23f 7d81 1d40 2ffd 553f 0edd 02c0
00000070: 15ca 1dbe 7b7d 2cbf a4da 1c40 e673 e8bf
00000080: f06c bf3f 4a22 78bf 10bb b13f c897 2d3f
00000090: d0fe 10c0 67d1 b4bf 3bdf 12bf 4eb7 f1bc
000000a0: 975d ffbf 2546 bbbd dcbe 70bf 8337 3a3f
000000b0: 6d1f ad3f bac6 0740 77dc 1b40 d8a5 d1bf
000000c0: 742b 5dbf 4fb8 a5bf 3417 9b3e 604d 9bbe
000000d0: 6f05 a53e 0769 02c0 a271 2a40 bef7 9e3f
000000e0: e31a 95bf ce9f 52be 9bb9 6abf d985 c5be
000000f0: e6d1 14bf 1a95 c0be dd87 ca3f e97b 07bf
00000100: 176e 6b3f bb46 433f 1695 853e 63be 873d
00000110: 98c8 e0be 33e5 9bbe 5a5a 0940 a758 1cc0
00000120: c3e1 71bf 914d ffbf 743a c23f cd17 0a3f
00000130: e179 50bf de11 b7be 2c95 14c0 2cb5 cbbf
00000140: 1d1f a8be 2225 50c0 0971 753f 11fb 6a3f
00000150: ca54 3c3f 0fbf b03f 8ccc 463f 3d54 3dbf
00000160: b21f 10c0 cd1c 1cbf 859a 2a3e 937d 16c0
00000170: 9f7b e23e e649 04bf dae3 0b3f 12a0 1240
00000180: 0807 d1bf 4715 1bbf a9fd 53bf 1d1a a1bf
00000190: ef86 943f b930 2540 1cee b7be 63dd 183f
000001a0: b908 adbf 164d 31bf 32fb 5b3f 051d f33d
000001b0: 25c5 263e 066a 403f e5f8 89bd 8486 38be
000001c0: a190 56bf 9255 2cbf 37ac 00bf 5c72 1dc0
000001d0: 05f6 0dbf cc37 cb3e b810 b33f 4e29 99be
000001e0: 9f15 63be 57c5 e6bf 11e1 6abe d108 c73e
000001f0: 3c48 82bf 4f6a 573e be79 10bf cb84 963e
00000200: f57f 723f 4e2d 8a3f 60ed 6dbe 7043 863e
00000210: 37a5 0cbf c018 ff3f b628 c0be 3665 213f
00000220: 6a29 133f 7b62 8e3f 5347 f8bd 9a57 143f
00000230: cd7d d53f 973a d9be fb17 aebf f225 123e
00000240: 4db9 d5be f2f5 9ebf fd10 d23f 4ef9 0a3e
00000250: 9519 d1be b42b fc3f 241d 8cbf 738d 99be
00000260: e39a a6bf 78be 953e 5d2b 213e e7c3 943e
00000270: 4ad1 0b3d b365 6a3e 347c 623f 1390 8a3f
00000280: 25df 7e3e 1f94 093f 022e 263f 26f0 843f
00000290: b488 b73e 3b31 a4bf 9358 5f3d b47c d23e
000002a0: 3bdb 383f 0560 833f 3f63 b03d 0ef1 663e
000002b0: 28d6 f3be e651 143f 9eb4 73bf 7b93 bdbe
000002c0: da72 d23f 4b0e 02c0 e774 68bf e5d2 913e
000002d0: ac02 8bbe 5bcb f33e 1160 cebf d8cb fabe
000002e0: 0ce9 9dbf 47e8 5a3e d9aa 3bbf b9e4 fd3f
000002f0: bead 8a3f 48ce 3d3f 1406 ec3e 6724 85be
00000300: a6b5 de3f 7d5b 883e 9ef7 c1bf f186 9fbe
00000310: a0ff 04bf 53d3 e0bd 53c0 babf fb48 a1bd
00000320: 2f72 a03e 0b29 c8be 52e1 0bbf b103 ff3e
00000330: d3d3 813f 84bc 3b3f 327b e8bf 770e cb3e
00000340: 852d df3e f7c4 49be 4d6b c4be 3a2b 733e
00000350: cfcb 093f d00a 2a3c 83ce 89bf 0f79 35be
00000360: dc92 c83f f882 a33e 7398 c53f 7ee9 de3e
00000370: d070 d53f b12e 5b3f ce39 a7bd 2498 0e3f
00000380: 74fd 9ebf 70fe 8b3f d831 08c0 06bd 9bbe
00000390: da81 ec3f 3e4c d23e 38cb 9abe 8c1a 34bf
000003a0: 44e3 cdbe 9fe4 19bd 2de1 cabf 5e54 b33f
000003b0: 45a9 86bf 9d5f b13e eee9 1840 bcd2 cc3f
000003c0: 2cec 713f 152c d2bf 8c42 96bf e3e5 94bf
000003d0: 99df b7be 99fa 82bf bd74 30bf 36c9 803f
000003e0: cb8c c2be 53b3 21bf 6e7c d53c 82e2 1c3f
000003f0: c94d 663e b1f4 adbf d11a 9cbd d22b 70bf
-1.0775741 0.4792097 0.21173233 1.7768476 1.3815482 1.4707952 0.80993205 -0.70299536
1.321438 0.49093264 0.052616548 -1.185713 -0.29263765 0.2605543 -0.56946295 -2.3069403
-1.3400732 -1.2992618 0.9939078 1.7257638 -0.82048357 -0.14865138 2.8701015 0.32666188
1.2723604 2.4610283 0.8358945 -2.044742 -0.1540912 -0.6737897 2.4508448 -1.8160369
1.495512 -0.9692732 1.3885212 0.67809725 -2.2655525 -1.4126405 -0.5737187 -0.029506352
-1.9950436 -0.091442384 -0.9404123 0.72740954 1.3525215 2.1215043 2.435331 -1.6378736
-0.8639443 -1.2946872 0.3029114 -0.3033247 0.32230708 -2.0376604 2.6631856 1.2419355
-1.164883 -0.20568773 -0.9168946 -0.3857868 -0.5813278 -0.37613755 1.5822712 -0.52923447
0.9196486 0.762798 0.26090306 0.0662811 -0.4390304 -0.30448303 2.1461396 -2.442911
-0.9448511 -1.9945546 1.5174088 0.5394257 -0.8143597 -0.3575582 -2.3216047 -1.5914664
-0.32836238 -3.2522664 0.958756 0.91789347 0.7356688 1.3808306 0.77655864 -0.7395666
-2.2519345 -0.60981447 0.16660507 -2.3514144 0.4423494 -0.5167526 0.5464455 2.29102
-1.6330271 -0.6057934 -0.8280893 -1.2586094 1.1603678 2.5810988 -0.3592385 0.5971281
-1.3518287 -0.6925825 0.8593017 0.118707694 0.16286142 0.7516178 -0.06736926 -0.18020064
-0.83814436 -0.6731807 -0.5026278 -2.460105 -0.5545352 0.39691007 1.3989477 -0.29914325
-0.22176217 -1.8028973 -0.22937419 0.38873914 -1.0178294 0.21036647 -0.56435764 0.29398188
0.94726497 1.0795076 -0.23235083 0.26223326 -0.549396 1.9929428 -0.3753106 0.6304506
0.5748507 1.1123804 -0.12122979 0.5794617 1.6679016 -0.42427513 -1.3601068 0.14272287
-0.41742936 -1.2418807 1.6411434 0.13571665 -0.4083983 1.9700837 -1.0946393 -0.2999073
-1.3016018 0.2924688 0.15739198 0.29055712 0.03413514 0.22890358 0.8847077 1.0825218
0.2488981 0.5374164 0.6491395 1.0385787 0.35846484 -1.2827524 0.05452783 0.41110766
0.7220952 1.0263678 0.0861268 0.22552893 -0.47624326 0.5793747 -0.95197475 -0.3702658
1.64413 -2.0321224 -0.9080338 0.28481212 -0.27150476 0.47616085 -1.6123067 -0.48983645
-1.2336745 0.2137767 -0.7330757 1.9835426 1.0834272 0.74142885 0.46098387 -0.26004335
1.7399185 0.266323 -1.5153692 -0.3115764 -0.5195255 -0.10977807 -1.4589943 -0.07875248
0.31337115 -0.39093813 -0.54640687 0.49807504 1.0142769 0.73334527 -1.8162596 0.39659473
0.43589416 -0.19704042 -0.38363114 0.23746958 0.5382661 0.010378554 -1.0766147 -0.17721961
1.5669818 0.3193586 1.5437149 0.43537515 1.6675053 0.8561812 -0.08165322 0.557009
-1.2421098 1.0937023 -2.1280422 -0.3041765 1.8477128 0.41073793 -0.3023317 -0.7035301
-0.40212452 -0.037571546 -1.5849968 1.4010122 -1.0520407 0.3464326 2.389278 1.6001811
0.94500995 -1.6419703 -1.1739058 -1.1632656 -0.3591278 -1.0232726 -0.6892813 1.0061405
-0.37998042 -0.6316425 0.02606031 0.61283123 0.2249061 -1.3590299 -0.07622302 -0.93816864

layer.weight f4 [20, 20]
00000000: 7af2 eebe 88b6 8cbe c7bc f73e a317 323a
00000010: 96c5 963c 00be 463f 34d3 983e 3cef 0fbf
00000020: 1d09 1abf 2672 09bf 54f5 ac3e 9871 21bf
00000030: 9fcd b7be c3de 2bbf 4ab5 f33e dd4c 893e
00000040: 6ab4 1abf 1c1a 883d 16ba cfbe 65fd e0be
00000050: 0e67 a43e dd32 ef3d 37ef d6be edb7 e13c
00000060: 884c 05be c30b cbbe ca7e bbbe b2e1 be3e
00000070: 2296 2c3f bb19 f63e 8f58 f2be 2b50 0f3f
00000080: 3505 a43d 40f3 1b3f 3e85 82be a4b9 9cbe
00000090: 2a63 dd3e 6035 c43d 6ef4 663e fd4d a53e
000000a0: 9dc8 703e 9e7f 283e 3be4 9dbe e1dd 953c
000000b0: af45 edbd f9c5 3cbf 4757 dabe 1ae3 973e
000000c0: 1a5e 353f 00c3 c83e acc4 34bf 17c7 c13e
000000d0: c830 173e a3c7 1b3f 6688 a6be b536 11bf
000000e0: bdf2 d03e e6c5 e13d 3449 713e 8a2c f03e
000000f0: 549e 183e 7fd0 4e3d 4104 bebe 7fea 8dbd
00000100: e0c5 2fbe a22e 38bf b2c2 a3be 7b4b a73e
00000110: d920 013f 3943 fa3e dbed e6be 2bc8 c33e
00000120: c3fe e83d f91a e43e 0aa2 15bf a7b2 e6be
00000130: e155 d83e 035c b4bd e55c 9c3e 7974 bb3e
00000140: da52 563e 4870 893e 2843 cdbe 6dac 70bd
00000150: 0298 24bb 19b4 f4be c890 b6be 0112 073f
00000160: d80c d13e 2048 cd3e 4069 bbbe 2bd1 e53e
00000170: af29 273e 2a87 1f3f ad41 debe 5b76 80be
00000180: 605e 123f 9481 ad3c d0bb 813e c35b 043f
00000190: 44d5 d5bd 34ad 69be 6245 c23e 534e 173e
000001a0: 57a2 8b3e 0b06 4e3f 8912 d03e 881d f0be
000001b0: aa24 01bf 4406 c1be 4f9d 303f b862 c1be
000001c0: d847 21be f1d1 20bf e40d e63e 9d9f 093f
000001d0: dc4c eabe 843f 933d 19bb f1be 0217 e8be
000001e0: 6302 25be 88a7 5cbe 0a35 bf3e 2d5a 96bd
000001f0: 9274 8e3e 3b37 2a3f 96b1 b33e b487 ffbe
00000200: f801 08bf ee9a 1cbf dc1f 2c3f be83 01bf
00000210: fb07 28be bf52 d0be 947e f83e 1d28 8d3e
00000220: bf39 19bf ffda 38bd be50 09bf 5fdd 88be
00000230: 70e8 93be 81a6 44be 506a e23e 6602 3c3e
00000240: 3857 ad3e ca57 2f3f 0e94 9e3e 4902 1fbf
00000250: cf6b dfbe 4757 c1be 487f 3b3f 56b7 ecbe
00000260: bf4b eebd cd0e 2dbf 2e3b d03e 9a73 e03e
00000270: 57b3 1abf 37a4 d2bc 9cbd d7be 356e dbbe
00000280: 3185 a63e 85af 6a3d b887 93be 808b 683a
00000290: 1180 7cbe 2267 eebe e4f5 87be ab96 923e
000002a0: 83dc 213f 2b5f d33e 7429 30bf 6ff0 db3e
000002b0: 58ae 803d 2275 083f 8c27 fbbe ca5a dfbe
000002c0: ec4f 0b3f 98ed 2dbe 14ff 3b3e 6e46 e53e
000002d0: 92b1 913e 2a12 553e 7a7a 82be d220 6ebd
000002e0: 2504 b1be 9000 cabe bf52 b2be b7ac 073f
000002f0: 22d4 d03e a67d fc3e 3f16 15bf 113f f33e
00000300: efbf f13d c6d2 ca3e e63f 9dbe 1dcf b2be
00000310: 8bb1 e03e a3f3 80bd 50a6 d43e e4eb f03e
00000320: 0e74 893e 4240 5a3e 9f10 f7be e3a0 e4bc
00000330: ae55 22be 37a1 01bf 9310 bbbe 3da8 b63e
00000340: 8dc6 093f 220f e23e a625 d1be bfba c43e
00000350: d87b 473e 24e2 1c3f 62db bcbe 332e f3be
00000360: 3aa0 f03e e57b 343d 9345 b43e 6e58 003f
00000370: 3b56 15be 8d80 91be eadb 813e f1d7 b83d
00000380: 5570 af3e 855e 413f 0985 a53e 118a 21bf
00000390: 7bfb aabe 2ee2 dabe 5143 153f 512d ffbe
000003a0: ce21 98be 2a7c 04bf ed9c b23e 7bfa c23e
000003b0: eea9 fbbe 49a0 2ebd b30c b3be 8aec f7be
000003c0: a917 6ebe f852 5bbe e133 d63e 2326 d8bd
000003d0: 8f9a 2a3e 3f3a 303f 70c1 db3e 8a92 e1be
000003e0: fb69 25bf cd1e 0ebf 704f 143f 3ed0 d8be
000003f0: 82ec 80be 3e89 22bf 2480 763e 9e24 eb3e
-0.4666937 -0.2748301 0.48386213 0.0006793683 0.018404763 0.77633667 0.29848635 -0.5622442
-0.60170156 -0.536898 0.3378092 -0.63063955 -0.35899064 -0.6713678 0.4759925 0.26816455
-0.6043154 0.06645605 -0.4057166 -0.43943325 0.32109874 0.11679623 -0.4197938 0.027553523
-0.13017476 -0.3965741 -0.3662017 0.37281567 0.67416584 0.48066506 -0.4733319 0.559817
0.08008806 0.60918045 -0.2549228 -0.30610383 0.4323972 0.09580493 0.2255418 0.32286063
0.23514028 0.16454932 -0.3083819 0.018294277 -0.11585557 -0.7373958 -0.42644712 0.29665452
0.7084671 0.39211273 -0.706126 0.37847206 0.14764702 0.60851496 -0.3252594 -0.567241
0.40810195 0.11024074 0.23563081 0.4690898 0.14904147 0.050491806 -0.3711262 -0.06929492
-0.17165327 -0.71946156 -0.31984478 0.32674775 0.50440747 0.48879412 -0.45103344 0.38238654
0.11376717 0.44551829 -0.58450377 -0.45058176 0.4225302 -0.08806612 0.30539623 0.366123
0.20930043 0.26843476 -0.400903 -0.058758188 -0.0025115018 -0.47793654 -0.35657334 0.52761847
0.40830112 0.4009409 -0.36603737 0.44886145 0.16324495 0.6231562 -0.43409482 -0.25090298
0.57175255 0.021179952 0.25338602 0.5170252 -0.10441068 -0.22819978 0.3794356 0.14775972
0.27272293 0.8047797 0.4063914 -0.4689753 -0.5044657 -0.37700093 0.68990034 -0.3777063
-0.15750062 -0.62820345 0.44932473 0.53759176 -0.45761764 0.07189849 -0.47213057 -0.45330054
-0.16114192 -0.21548283 0.37345153 -0.073414184 0.2782331 0.66490525 0.35096425 -0.4990822
-0.53128004 -0.61173904 0.67236114 -0.5059165 -0.16409294 -0.4068813 0.4853407 0.27569667
-0.5985374 -0.045130726 -0.5363883 -0.26731393 -0.28888273 -0.19204141 0.44221735 0.1836029
0.33855605 0.6849333 0.30972332 -0.6211286 -0.4363694 -0.377619 0.7324109 -0.46233624
-0.11635541 -0.6760071 0.4067015 0.43838197 -0.604299 -0.02571307 -0.42136848 -0.4285752
0.32523492 0.057296295 -0.28814483 0.0008870885 -0.24658228 -0.4656306 -0.26554787 0.28630576
0.632271 0.41283545 -0.6881325 0.42956874 0.062832534 0.5330373 -0.4905361 -0.43623954
0.54418826 -0.16985166 0.18359023 0.44780296 0.28455788 0.2080771 -0.25484067 -0.05813677
-0.34573475 -0.39453554 -0.34828755 0.52997917 0.40786844 0.49314612 -0.5823707 0.47509053
0.118041866 0.39613932 -0.30712813 -0.3492364 0.43885455 -0.0629647 0.41533136 0.4705497
0.26846355 0.21313575 -0.48254868 -0.027908748 -0.15852997 -0.5063662 -0.36536083 0.3567523
0.5381859 0.4415217 -0.40849036 0.38423726 0.19480836 0.61282563 -0.36886126 -0.47496185
0.46997243 0.044063468 0.3520933 0.50134933 -0.14583676 -0.2841839 0.25363094 0.090255626
0.3426539 0.7553485 0.3232806 -0.631013 -0.3339499 -0.42750686 0.5830584 -0.4983926
-0.2971329 -0.5175196 0.3488535 0.38081726 -0.49153084 -0.04263333 -0.34970626 -0.48422652
-0.23251213 -0.21418369 0.41836455 -0.10554149 0.16660522 0.68838876 0.4292102 -0.44057113
-0.6461484 -0.5551575 0.5793371 -0.42346376 -0.2518044 -0.63490665 0.2407232 0.45926374

layer.bias f4 [20]
00000000: 47d4 05bf f0af c83e 59f5 a13e 87ee 733e
00000010: deec af3e bd48 ebbe 9675 20bf 77cf 21bf
00000020: 11fc 023f 2f01 ce3e 37e4 013f db70 b9be
00000030: 7823 c2be 50af 8b3e a204 c3be 9fe6 14bf
00000040: c895 b13e aaf2 2b3f bfd5 18bf e25b cbbe
-0.52277035 0.3919673 0.31632498 0.2382146 0.34360403 -0.45953932 -0.6267942 -0.6320719
0.5116587 0.40235278 0.50738853 -0.36218914 -0.37917686 0.2728219 -0.38089472 -0.581644
0.34684587 0.6716715 -0.5970115 -0.3971854

classify.weight f4 [1, 20]
00000000: d9f2 0240 7804 05bf 2362 e0be 2d7c f5be
00000010: e960 06bf 6069 f63f 7c06 0540 68de fe3f
00000020: 67ce 0fbf 6274 05bf 2e72 bfbe 8d2c fb3f
00000030: 40af 0440 cad3 d2be 0d3a f03f 51b5 0040
00000040: 5e0c c1be cb33 cabe de74 f33f 1767 0140
2.0460722 -0.51959944 -0.43824872 -0.479463 -0.52491623 1.9250908 2.0785208 1.9911623
-0.5617432 -0.5213071 -0.373918 1.9622971 2.0731964 -0.41177207 1.8767716 2.0110667
-0.37704748 -0.3949264 1.902004 2.021917
