125-吕军-北京/week02/model.pth (torch, 5915 bytes, 5 tensors)

embedding.weight f4 [28, 20]
000000 54 9c ce 3f 8d c0 9d 3e a1 8b aa bf 5e 51 00 bf
       1.6141458 0.30810967 -1.3323861 -0.50124156
000010 b0 51 70 bf 52 7f 45 3e 1e ce 45 be cb 22 3c 3e
       -0.93874645 0.1928685 -0.19316909 0.18372647
000020 cb 4f 6d 3d 8c cd 39 3f b7 9c 3f 3f dc a8 b6 bf
       0.057937425 0.72579265 0.748485 -1.4270282
000030 f7 a6 cb 3d 7b 81 9a 3f 2f bc 17 bf 95 29 8c bf
       0.099439554 1.2070764 -0.5927152 -1.095019
000040 2e 6b 68 3f f9 e2 66 bf 1c e1 bf 3f 05 4c 81 3f
       0.90788543 -0.9019008 1.4990573 1.0101324
000050 56 fd 2c c0 97 73 50 3f ce f7 59 bf 5a 48 af bf
       -2.7029624 0.81426376 -0.85143745 -1.3693955
000060 21 0b 4e 3f 9a 64 8e bf 12 02 94 40 3f d3 75 bf
       0.8048573 -1.1124451 4.6252527 -0.9602546
000070 a3 88 0a 40 a6 2f 84 3d 9d e5 db 3f 5b 1c c4 bf
       2.1645896 0.06454401 1.7179447 -1.5321153
000080 e0 a7 ac 3f 21 c0 3d 3e 05 7f 10 40 5a 00 8a 3f
       1.3488731 0.18530323 2.2577527 1.0781357
000090 f3 e0 ee 3e 6b 90 ef 3f ad ab a1 bf 6b 35 7d 3f
       0.46655998 1.8715948 -1.2630516 0.98909634
0000a0 2f d0 55 be 0a 2e ed 3e f8 6f 39 3f ff c5 33 40
       -0.20880197 0.46324188 0.72436476 2.8089597
0000b0 d8 ff 9f bf 57 b2 04 3f dc af 8c 3e 5b 5f f8 3f
       -1.2499952 0.51834625 0.2747792 1.94041
0000c0 5b 96 3e bf 09 1a c7 be b0 72 5b 3f a1 2e 9d bf
       -0.74448174 -0.3888705 0.85721874 -1.2279855
0000d0 06 48 ad 3e 9d 87 a7 3f 62 1d 67 40 88 fe 9f 3f
       0.33844012 1.3088261 3.6111684 1.2499552
0000e0 54 0f 30 40 56 1e ac bc 02 85 19 c0 1f 9d 8a 3f
       2.7509356 -0.021010559 -2.3987432 1.08292
0000f0 1c c6 97 bf 25 e0 21 3e 75 bc ac 3f 76 f8 25 40
       -1.1857333 0.1580816 1.3495013 2.5932899
000100 50 4c 62 bf 90 a4 b7 bf 02 25 47 3f d2 25 c8 3e
       -0.88397694 -1.4347095 0.77790844 0.39091355
000110 8d 71 6a 3f 25 98 96 3f 34 34 7a 3f a5 78 fe bc
       0.91579515 1.1765181 0.97735906 -0.031063387
000120 df 95 bc 3f 7e 77 ca 3f 96 63 12 3f 56 df 32 3f
       1.4733237 1.5817716 0.57183206 0.69872034
000130 fa f9 4b 3f 25 71 7a 3f 69 ec 47 c0 51 a5 e9 3f
       0.7967831 0.97828895 -3.1238043 1.8253576
000140 10 d8 06 bf b1 fe f5 3d db 38 7f 3e ca 55 76 3f
       -0.52673435 0.12011469 0.24924032 0.96224654
000150 a5 1c b0 bd 67 19 c9 3f ec 19 86 bf 07 8f 6f bf
       -0.085992135 1.5710877 -1.0476661 -0.9357762
000160 0c 50 57 3f 51 b9 8b 3f 4d 56 11 be 50 58 83 bf
       0.84106517 1.0915929 -0.14193077 -1.0261326
000170 83 36 1d 40 dc 14 b4 3e db 3c f6 be d0 ff 63 be
       2.4564521 0.35172164 -0.48093304 -0.22265553
000180 ee 3a 9b be de 00 c7 be a1 1a e1 3f 2c 11 10 bf
       -0.30318397 -0.3886785 1.7586251 -0.562762
000190 01 a9 76 bc ec 09 20 3d 2c 02 42 bf b2 da 86 3e
       -0.015054942 0.039071962 -0.75784564 0.26338726
0001a0 d9 d3 26 be 8e 8c d4 bf 6c 2b 66 bf 24 be c3 3e
       -0.16291751 -1.6605394 -0.89910007 0.38231003
0001b0 e7 8b 30 3f 8a 6b 86 3f d7 ed 97 3e f8 af dd 3f
       0.68963474 1.0501568 0.29673645 1.7319326
0001c0 51 6f eb 3e 1d 19 28 bf 89 27 c0 bf 35 be bc be
       0.45983365 -0.6566332 -1.5012065 -0.36863866
0001d0 45 26 30 3f 05 0c a9 bf 56 fc 1f 3f 37 fa a5 3f
       0.68808395 -1.3206793 0.6249441 1.2966985
0001e0 84 b2 0a 40 c5 0e 06 bf 94 96 d5 bf d3 b0 5b 3e
       2.1671457 -0.52366287 -1.6686578 0.21454172
0001f0 8b 68 4c 3f ca a0 ef bd 39 b1 b5 bf b0 30 05 bf
       0.7984702 -0.1170059 -1.4194709 -0.52027416
000200 ef 59 83 be e7 9c 0b 3f a5 25 c1 be 3d 71 23 bd
       -0.2565455 0.5453629 -0.37724033 -0.039902914
000210 ba 18 3f 3f 4b 11 79 3f ce 9d c0 3f 7f 0b 02 bf
       0.74647105 0.9729201 1.5048158 -0.5079879
000220 a6 d9 1c 3e 43 e6 6b bf 91 7a ef 3e 09 6a 34 be
       0.15317401 -0.92148226 0.46773198 -0.17618574
000230 c0 d7 18 3f 39 64 6a 3f ed 75 16 c0 5d e3 f7 3d
       0.5970421 0.9155918 -2.3509476 0.12103913
000240 5d e8 5f bf ec 92 a9 3e aa 64 af bf 33 84 12 bf
       -0.87463933 0.33119905 -1.3702595 -0.5723297
000250 d5 d7 e5 3e 52 34 09 3f e0 ea d6 be ec a8 ad 3f
       0.4489123 0.5359546 -0.4197607 1.3567176
000260 72 b9 9c 3e 93 fe 81 bf a0 2a e7 be 98 24 b5 3c
       0.30610234 -1.0155815 -0.45149708 0.022112176
000270 71 09 23 3f 2f 1d 15 bf c9 11 2f be c5 e4 6d bf
       0.6368628 -0.58247656 -0.17096628 -0.929272
000280 0a a8 93 3e 09 19 9e bf 48 8f 25 3e 44 8b 9f 3f
       0.2883914 -1.235139 0.16167939 1.2464375
000290 6d f0 16 3f a8 f3 11 40 1d fd 7e 3f 9a 71 c3 bf
       0.5896061 2.2804966 0.9960497 -1.5269043
0002a0 89 f3 ca bb f4 89 4a 3f d7 fe bd 3f 66 75 95 bf
       -0.0061935824 0.7911675 1.4843396 -1.1676452
0002b0 ad 46 2b be ba 16 0a bf 37 4a c9 bd f1 f2 fe bf
       -0.1672618 -0.5394093 -0.098286085 -1.991789
0002c0 4f 99 1f 3e 30 4b 6e bf 13 33 eb 3e fb f5 15 bf
       0.15585826 -0.9308348 0.45937404 -0.5857846
0002d0 33 f9 86 be 51 4e 1c bf 23 13 24 be 82 80 94 bf
       -0.26362 -0.61057 -0.16022925 -1.1601717
0002e0 78 29 67 be e1 fc fd 3f 88 99 84 3e e7 fa e0 be
       -0.22574413 1.9842798 0.25898385 -0.43941423
0002f0 93 80 f1 be 25 b7 7d 3f 23 be c9 bc ad 93 94 3f
       -0.47168407 0.9910758 -0.024626797 1.1607567
000300 a6 38 a5 bd 98 cd bf bf 3c 83 91 3f ed 19 45 3d
       -0.080674455 -1.4984617 1.1368175 0.048120428
000310 91 0e 48 3f 91 10 e8 bf 28 19 49 3e 88 24 97 3d
       0.78147227 -1.8130056 0.19638503 0.07380015
000320 7e df ee bf 66 e7 8b be df 5e 8e bf 9c b2 af 3f
       -1.8661954 -0.2732498 -1.1122702 1.3726382
000330 7a f4 67 3e e2 cf 34 be 32 92 b7 bf bc e8 b1 3f
       0.22651854 -0.17657426 -1.434149 1.389915
000340 0b e9 05 be 53 09 7f 3f 88 9f 93 bf 10 82 04 c0
       -0.1307718 0.996236 -1.153306 -2.0704384
000350 1b ab cd 3f 0b 55 19 3f 3f 9b 8b bf 4a e7 25 bf
       1.6067842 0.5989539 -1.0906752 -0.64806044
000360 b5 5c 07 be 3f c0 88 3f e9 27 ad 3f 84 11 c1 be
       -0.13218959 1.0683669 1.3527805 -0.37708676
000370 08 84 b8 bf 17 91 e0 bf 4c aa b7 bf 2a bf 79 bf
       -1.4415293 -1.7544278 -1.4348845 -0.9755732
000380 e5 39 ba be a5 1a 40 be 0c 4b 54 bf c2 5a e7 bf
       -0.36372295 -0.18760164 -0.8292701 -1.8074572
000390 c1 f8 07 be e5 1e 98 3e 2a 93 d3 3e 94 28 25 3f
       -0.13278486 0.2971107 0.41323215 0.6451504
0003a0 b6 c4 de 3d 9c 21 bd bf d1 6b 22 bf 9a 23 53 bf
       0.108773634 -1.4775882 -0.63445765 -0.824762
0003b0 22 c6 6a 3f 8f 08 0c bf ee 35 0c bf b6 89 fe 3e
       0.91708577 -0.5470056 -0.5476979 0.4971444
0003c0 29 29 df 3f 8b 76 9a be cf 4c d4 bf 46 66 53 3f
       1.7434436 -0.30168566 -1.658594 0.8257793
0003d0 64 6a 0e 3f f5 a0 71 bf 02 f3 b7 bf 83 86 d4 3e
       0.5563109 -0.94386226 -1.4371035 0.41508874
0003e0 95 c4 3f 3f 5f e7 b1 3f 82 84 3b bf 81 82 f3 be
       0.74909335 1.3898734 -0.73249066 -0.47560504
0003f0 8f 53 c2 be a7 89 99 bf 4f 2e 8f 3f a8 7d c3 3e
       -0.37954375 -1.1995133 1.1186007 0.38181806

layer.weight f4 [20, 20]
000000 a0 5c 59 bd dc a9 2c 3e 8c d0 2a 3e a5 ce 59 3e
       -0.05306685 0.16861671 0.16681117 0.21270235
000010 29 56 74 be 9e 30 df bd 6f d2 b7 3e 2d d9 f0 3d
       -0.23860992 -0.10897945 0.35902736 0.11760173
000020 48 1b 7a 3d 93 5a 93 3b 0a cc 1b 3e b4 c1 30 bd
       0.061061174 0.0044968813 0.15214553 -0.04315348
000030 ca 2f 4f bd f2 50 b3 3e 4f 56 c1 3e bc b2 8d 3e
       -0.050582685 0.35022694 0.3776116 0.27675426
000040 28 e5 60 3e 3c f0 c5 3e b0 a5 38 bf 64 fd b3 3e
       0.21962416 0.38659847 -0.7212782 0.3515426
000050 57 9f fe 3d ab fc 08 3e bd 66 b8 bd 53 fa 06 3e
       0.124327354 0.13377635 -0.09003971 0.13181429
000060 a1 89 2d 3e a0 26 d2 bd db c3 46 be 40 70 27 be
       0.16947033 -0.102612734 -0.1941065 -0.16351414
000070 19 53 38 3e 8b ad c3 3d c5 75 45 be 8c e9 b2 3d
       0.18000449 0.09554585 -0.19283207 0.08735952
000080 d2 49 94 3c 39 16 cf bd 53 d1 eb 3d b0 8b f4 bd
       0.018101607 -0.101116605 0.11514535 -0.11940706
000090 22 02 25 bb 32 b4 18 be 40 ed 5e bc d2 6c 8d 3e
       -0.0025178273 -0.14912489 -0.0136063695 0.27622086
0000a0 79 ce d4 bd c5 d1 2f 3e be 31 2d 3e 4b 90 68 3e
       -0.10390944 0.17169864 0.16913506 0.22711293
0000b0 eb 9f a2 be 53 c4 b7 bd 48 eb df 3e 8c 1a 32 3e
       -0.31762633 -0.08972993 0.43734193 0.1739294
0000c0 85 3e 7e 3e 57 73 c8 bd 28 7a 76 3e b8 be bf bd
       0.24828537 -0.09787624 0.24070036 -0.093625486
0000d0 be ae 0f 3c 9a d9 f7 3e 92 62 81 3e 90 83 c4 3e
       0.008769689 0.48408204 0.25270516 0.38381624
0000e0 b1 6a 98 3e df 44 52 3e 0f 5d 57 bf 92 01 72 3e
       0.297689 0.20534085 -0.8412637 0.23633412
0000f0 80 70 70 bd 28 c0 09 3e d8 a9 27 3d a0 05 50 3e
       -0.05870104 0.13452208 0.04093346 0.20314646
000100 c6 16 32 be f8 4a a5 bd 3e 0a 8e 3e d9 03 63 3d
       -0.173915 -0.0807094 0.2774219 0.05542359
000110 af 24 75 3e 46 c4 33 be 14 9f 6a 3e 38 7e 14 be
       0.23939775 -0.17555341 0.22912246 -0.14501274
000120 89 8d d9 3d e9 24 81 3e 46 17 35 3e 3d fb 9d 3e
       0.10622699 0.25223473 0.1768466 0.30855742
000130 06 02 47 3e 53 9a 3d 3e 13 7d 0d bf fa cf 3a 3e
       0.19434366 0.18515901 -0.55268973 0.182434
000140 9e 21 86 3e 33 5d 95 bd 1f 4c bd 3e 3b 9a fc be
       0.26197523 -0.07293167 0.36972138 -0.49336419
000150 b3 20 85 3e 60 4c 95 bd 4a 00 30 be 74 e8 d2 3e
       0.2600151 -0.07289958 -0.1718761 0.41192973
000160 f9 2a a7 be c6 73 05 bf 56 bf a1 3e 44 0b 8d bd
       -0.32649973 -0.5212978 0.3159129 -0.06886914
000170 be 46 c3 be 1f 12 8f 3d 4f 2d e0 be 5c f0 c4 3e
       -0.3813991 0.06985878 -0.43784568 0.3846463
000180 2d 77 82 be dc 37 c2 3e ba 66 38 be 69 5d 2e be
       -0.2548155 0.37933242 -0.18007937 -0.1702782
000190 e5 e1 9a 3e ae 3c 86 bd 9e 8d 87 3e bd f0 1f be
       0.3025047 -0.065545425 0.26475233 -0.15619178
0001a0 48 3d 5a 3a 15 b0 8c be df 72 33 bd fb 33 84 3e
       0.00083251717 -0.2747809 -0.04381072 0.25820908
0001b0 e6 bb e5 be d4 c2 ca be 6e e2 e4 3d f4 61 2a bd
       -0.44869918 -0.39601767 0.111760005 -0.04159732
0001c0 c7 82 26 bf 55 ff 80 bb 43 ea b7 be e5 e9 a0 3e
       -0.650433 -0.003936688 -0.35920915 0.31428447
0001d0 90 b7 02 bf 3a d5 2f 3e 08 31 a4 be 2b f6 b6 be
       -0.51061344 0.17171183 -0.32068658 -0.35734686
0001e0 5c 3a 84 3e 20 42 0a be f0 98 b6 3e b3 1e bf be
       0.25825775 -0.13501787 0.35663557 -0.3732811
0001f0 be b4 97 3e 13 83 a4 bd 5f c6 2d bd 4e 2b c7 3e
       0.29630083 -0.08032813 -0.04242551 0.38900226
000200 90 97 a3 be 26 0a b0 be 3a 50 b7 3d 9a 18 c7 bd
       -0.3195157 -0.34382743 0.08950849 -0.09721489
000210 37 87 05 bf 11 a0 8b 3d c6 d6 f3 be 29 67 a0 3e
       -0.52159446 0.068176396 -0.47624797 0.31328705
000220 89 38 9b be 9c 93 5f 3e 64 8b a6 be b7 7f 70 be
       -0.3031657 0.21833652 -0.32528222 -0.2348622
000230 92 0d 67 3e 8c 8e c8 3d dc c3 b4 3e 02 a6 89 be
       0.2256377 0.09792814 0.3530568 -0.26884466
000240 00 eb 9d 3e d3 5a 7c bd 8a e4 5d 3d 3e ca f1 3e
       0.30843353 -0.061610054 0.05417303 0.4722461
000250 43 65 66 be 4d 80 9f be 19 b6 16 3e f8 b1 59 3d
       -0.22499566 -0.31152573 0.14717902 0.05314824
000260 0b 51 9b be 20 20 25 3e 0e 32 da be d3 9d f1 3e
       -0.30335268 0.16125536 -0.42616314 0.47190723
000270 be bf 55 be 1a 0e 4e 3e 34 09 7b bd 35 d3 b2 be
       -0.20873925 0.20122567 -0.061288074 -0.34926763
000280 63 34 09 be fb 39 b4 3d 98 fe 92 3d fb 8c 35 3d
       -0.1339889 0.088001214 0.07177466 0.044323903
000290 0f ac a0 bd 83 4c f9 bd 0f e5 e8 3e 23 9c 3e 3e
       -0.078453176 -0.121727966 0.45487258 0.18614249
0002a0 03 82 41 3e c5 4e 53 3d 6e 2a 40 3e 7a dc 73 bd
       0.18897252 0.051588792 0.18766186 -0.059536435
0002b0 cd 9d ef bc f8 78 89 3e 29 da 8e 3e 13 67 8e 3e
       -0.02925005 0.26850104 0.27900818 0.27813014
0002c0 fc 23 9d 3d 26 37 90 3e 27 2c 06 bf 70 79 74 3e
       0.07672879 0.28167075 -0.5241112 0.2387445
0002d0 6f f1 58 bd 59 87 cf 3d 9e a3 97 3d cc 16 e5 3d
       -0.052964624 0.101332374 0.074042544 0.11185989
0002e0 39 b6 04 be 18 68 0a be 45 19 1b 3f 00 38 aa 3d
       -0.12960137 -0.13516271 0.60585433 0.083114624
0002f0 4e 05 90 3e 8a 0f 50 bd 80 31 56 3d 18 51 fa bd
       0.28129047 -0.05079607 0.0522933 -0.12222499
000300 9a df 08 3d f3 d6 02 3f 6f 26 ad 3e 54 cd f2 3e
       0.033416368 0.51109236 0.33818385 0.47422278
000310 65 3a a7 bd dd 7d 9b 3e ed bc 44 bf 2a 4a e8 3e
       -0.08165435 0.30369464 -0.7685078 0.45369083
000320 84 25 42 3e 75 23 30 bd 79 59 ca 3e 07 74 55 3d
       0.18959624 -0.043002564 0.39521387 0.052112605
000330 b1 d3 ca 3d 0f 5f 2f be d7 67 0b 3e a6 cf 9c 3e
       0.09903658 -0.17126106 0.1361383 0.30627173
000340 e5 56 9a be 8b bf fc be 59 f7 6f 3e b4 97 2a be
       -0.3014442 -0.49364886 0.234342 -0.16659433
000350 d2 37 b8 be 15 73 cf 3d fc 4c 87 be 63 7d 17 3f
       -0.35980088 0.10129372 -0.26425922 0.591757
000360 98 bf 97 3d fd b6 79 3e 99 87 f9 be 47 ce 12 be
       0.074095905 0.2438621 -0.48736265 -0.14336501
000370 b8 97 e6 3d 07 28 4b be ad 3a 82 3e c2 e3 ad be
       0.11259407 -0.19839488 0.2543539 -0.33962828
000380 da 4e d0 3e 0b ec 46 be 8d 5c 63 bd af 90 b1 3e
       0.4068516 -0.19425981 -0.055508185 0.34680697
000390 c2 49 8c be 3f 62 e4 be 7e d2 12 3e 00 c2 2d 3d
       -0.27400023 -0.44606206 0.14338109 0.04242134
0003a0 f5 88 f5 be a3 dd 01 3d 02 de bf be bc 67 78 3e
       -0.47956052 0.03170551 -0.37474066 0.24258322
0003b0 c2 f2 1c be 7e 5f f5 3d ba ca 8d be 63 ea 84 be
       -0.1532698 0.11981104 -0.2769373 -0.25960073
0003c0 b1 88 2f be 8a f7 6c 3d 8a b7 29 3e c4 e2 9a 3e
       -0.17141987 0.05785326 0.16573921 0.30251133
0003d0 c0 90 33 be 06 d0 95 bd 86 64 35 3e bc bd a8 3d
       -0.17535686 -0.07315068 0.17714128 0.08239314
0003e0 a6 ad 06 3e 0e 97 d9 bd 27 f4 7a 3e e4 4d 22 be
       0.13152179 -0.106245145 0.24507199 -0.15850025
0003f0 cb 49 e9 3d fe 76 43 3e e1 9d ea 3e 6d 92 c6 3e
       0.11391028 0.1908836 0.45823577 0.3878359

layer.bias f4 [20]
000000 de 63 b7 be 00 78 8c bd b8 53 18 bf 09 e5 d8 bd
       -0.3581838 -0.06858826 -0.59502745 -0.1059056
000010 9c c0 0b bf 1b 48 bd be 63 80 e8 be d7 65 4c be
       -0.54590774 -0.36969075 -0.4541045 -0.19960724
000020 e5 e7 59 be 59 fc b9 be 60 88 95 be c8 d3 58 be
       -0.21279867 -0.36325338 -0.29205608 -0.21174538
000030 f1 b0 00 bf 25 93 93 be de fe 83 bc 76 da cc be
       -0.5026999 -0.288232 -0.016112741 -0.40010422
000040 e0 bb 04 bf 2d 54 af 3e 10 a5 ea be eb 6f 02 bf
       -0.51849174 0.3424391 -0.45829058 -0.50952023

classify.weight f4 [3, 20]
000000 37 e5 8a 3f c0 47 35 bb da b5 a3 3f 5d a6 b3 3e
       1.0851201 -0.0027661175 1.2789872 0.35087863
000010 a7 3f b5 bf 91 c7 99 bf 55 97 8f bf 60 51 69 bf
       -1.416005 -1.2014028 -1.1218058 -0.91139793
000020 2a 2f 3d 3f 1a 24 86 3f 60 11 a7 3d c4 b1 9e bf
       0.7390009 1.0479767 0.08157611 -1.2398
000030 cf cc 78 3f 78 22 ff 3e b6 fb 2b bf 16 f4 88 3f
       0.97187513 0.49830985 -0.67180955 1.0699489
000040 7f 8c be bf 00 aa 6b be 05 a6 72 3f cb d8 bc bf
       -1.4886626 -0.23014069 0.94784576 -1.475366
000050 a2 cd bb bf 7f 2b 57 3d 20 4a c7 bf 92 69 25 bf
       -1.4672129 0.052531715 -1.5569496 -0.6461421
000060 66 60 9d 3f d1 9b 79 3f cd 2c 94 3f 19 16 04 3f
       1.2295043 0.9750338 1.1576172 0.5159622
000070 38 f3 48 bf 52 65 bb bf 3b 19 58 3f 22 0a 68 3f
       -0.7849612 -1.4640296 0.844135 0.9064046
000080 9c a9 8d bf 45 dd 1c bf d2 0a e5 3e a3 a9 b5 bf
       -1.1067386 -0.6127513 0.44734818 -1.4192394
000090 5f 4a 8b 3f dc 7b 05 be 4e 6f 74 bf 56 dd 9b 3f
       1.0882071 -0.1303553 -0.9548234 1.2176921
0000a0 13 92 f8 3e 64 1f 70 3e 55 47 12 3e a3 50 f6 3e
       0.48548946 0.23449475 0.14285024 0.48108396
0000b0 18 c9 59 be 93 ee 5e be 14 38 ad be bc 7c 37 be
       -0.21268117 -0.21770696 -0.33831847 -0.17918676
0000c0 cf 32 a2 3e 0f ea 01 3e 15 13 09 bf c4 92 ae 3d
       0.3167939 0.12686943 -0.5354474 0.08524087
0000d0 6d 87 de 3e e1 43 a2 3e 61 3f 67 3d 9f d7 4c 3e
       0.43462697 0.31692412 0.056456927 0.20004128
0000e0 bd 37 54 be d2 5e e8 3e c0 65 e7 3e ac 91 8c be
       -0.20724387 0.45384842 0.45194817 -0.2745489

classify.bias f4 [3]
000000 38 b8 50 be 03 4a 8a be 9a 23 0d 3f
       -0.20382774 -0.2700959 0.5513245
