week1/model.pth (torch, 5787 bytes, 4 tensors)

embedding.weight f4 [28, 20]
0.3034714 -0.7081841 0.36133558 -1.0254408 -0.1883813 0.71196854 0.15337195 1.4319948
0.7235777 1.133958 0.6497846 -0.66118664 -0.30616486 -0.9905108 -0.36203313 -0.18405667
-1.438988 0.7064804 0.03635082 -0.14665948 -3.038969 -0.7637236 -4.795056 0.7352521
-0.26985165 -3.1005526 0.6214206 -0.643795 -1.3693472 -4.728318 -2.055175 -0.24170941
3.561555 -2.943728 -2.1132405 -3.7582757 -1.4763156 -2.9693842 3.8746107 3.0753746
-2.3954058 -1.4390447 -4.181441 0.4096228 -1.2587144 -1.1156236 0.44468582 -1.9809881
0.47460037 -3.1558936 -2.2838635 -1.5366497 2.9241927 -4.2917266 -1.480197 -1.98808
-1.4520841 -4.510574 4.7064686 2.552911 -4.030316 1.3497499 -2.5333729 -0.43264216
-1.0451037 -3.0122774 0.48369658 -1.7391435 0.6403066 -3.9172163 -2.8160374 0.5105035
2.7369792 -4.02969 -1.3320364 -3.9493935 -2.6198385 -3.6025698 3.2983217 2.7653677
0.32979947 0.8859588 1.0804135 -1.4373572 3.1576297 0.4201483 2.2579799 -0.81891954
0.45869684 0.14025919 1.1673543 -1.1259879 0.18018632 1.8618329 1.0563626 0.7743916
1.456777 1.531094 -0.23080997 1.6041121 0.9160191 1.6290112 0.9022273 0.17641309
1.0788972 0.16381223 0.7733964 0.6847942 1.89787 -0.3515876 1.9038224 -1.2806951
0.5739203 1.0536013 -0.31912583 -0.9881159 0.7951834 2.2340136 -0.6662247 -1.635867
1.3976301 2.4359002 1.6576918 -2.3802068 -0.47233987 1.4426503 -0.6595584 0.30789673
0.37919682 -0.26500127 0.8488117 -1.4230552 0.109055504 1.3036791 -0.114526734 1.3246555
0.96139425 1.9671432 0.78844875 -1.8311881 1.781855 1.0634184 1.9327942 -0.027122097
0.5432547 0.74254656 -1.2674985 1.9646968 0.5766662 0.8229626 1.9965252 -2.3171005
1.7154881 -0.91677445 0.9977246 0.32787898 1.1754764 1.8148091 1.0840164 -0.2671004
0.05604473 1.3875626 2.6417766 -0.4738803 1.5929202 0.5865711 0.11680587 2.3527958
1.5812637 2.4901946 0.46810403 -1.6062574 0.04312198 1.2384539 -0.637706 -0.85519665
3.6767647 1.4043262 1.6426495 -1.1140622 1.6472052 0.9527446 2.4173663 1.3129343
-1.1283747 1.5250214 1.27998 1.9181892 1.2633492 2.0203602 1.9330691 0.08804197
1.693088 0.28936285 0.6573887 -0.22489166 -0.2322093 -0.3292383 1.4239964 -2.9109242
3.3886514 1.3590748 2.685588 -2.0897746 0.0740462 1.1992409 -0.33523762 0.36737236
-0.9860693 -0.8250513 0.66830814 -0.2891367 0.2389465 -0.66964704 1.1942304 -0.24336982
-0.19107391 1.8329989 1.9494867 -1.1671597 0.42846897 2.0095148 0.7518103 -0.13546191
0.4149574 -0.42029074 0.30395123 -0.70368856 1.4245814 0.12313503 1.4948547 -2.0239701
-0.34489027 1.0544097 -0.012301996 1.0321577 1.8696764 2.549542 -0.194018 -0.9474402
1.2597193 0.1250431 0.99596494 -1.0671477 0.78205085 3.6535897 -0.4940398 0.9686328
0.16747095 -0.51978475 1.1265618 -1.3339603 -0.53354496 0.61323285 0.59472364 1.1587995
00000000: 9a60 9b3e 8e4b 35bf fa00 b93e a541 83bf
00000010: 07e7 40be 9243 363f 890d 1d3e 9b4b b73f
00000020: 633c 393f 8925 913f 4958 263f 8743 29bf
00000030: a4c1 9cbe 1e92 7dbf 685c b9be 5a79 3cbe
00000040: c230 b8bf e6db 343f 99e4 143d e72d 16be
00000050: 787e 42c0 6483 43bf 1971 99c0 7b39 3c3f
00000060: ff29 8abe 746f 46c0 6c15 1f3f c0cf 24bf
00000070: c546 afbf 624e 97c0 fd87 03c0 ac82 77be
00000080: 84f0 6340 0a66 3cc0 553f 07c0 9787 70c0
00000090: e9f7 bcbf 640a 3ec0 9ff9 7740 f0d2 4440
000000a0: 544e 19c0 9e32 b8bf 5dce 85c0 14ba d13e
000000b0: 8e1d a1bf c1cc 8ebf dcad e33e 0591 fdbf
000000c0: d2fe f23e 29fa 49c0 d22a 12c0 f0b0 c4bf
000000d0: f925 3b40 d355 89c0 1877 bdbf 6879 febf
000000e0: e4dd b9bf 9f56 90c0 649b 9640 e562 2340
000000f0: 59f8 80c0 9bc4 ac3f c822 22c0 4683 ddbe
00000100: f5c5 85bf 27c9 40c0 14a7 f73e 419c debf
00000110: 22eb 233f acb3 7ac0 f539 34c0 5bb0 023f
00000120: ab2a 2f40 38f3 80c0 2b80 aabf ddc2 7cc0
00000130: 6fab 27c0 8190 66c0 b417 5340 c9fb 3040
00000140: 7adb a83e 32ce 623f fd4a 8a3f 52fb b7bf
00000150: 9b16 4a40 ae1d d73e be82 1040 b6a4 51bf
00000160: 50da ea3e 1ba0 0f3e de6b 953f 5f20 90bf
00000170: c382 383e 8a50 ee3f e436 873f 873e 463f
00000180: ab77 ba3f e3fa c33f 7359 6cbe 8c53 cd3f
00000190: 3a80 6a3f 7083 d03f 5ef8 663f a2a5 343e
000001a0: 4e19 8a3f 65be 273e 4efd 453f ac4e 2f3f
000001b0: 67ed f23f 4a03 b4be 74b0 f33f d1ed a3bf
000001c0: 71ec 123f 68dc 863f 7664 a3be 2af5 7cbf
000001d0: 2491 4b3f 14fa 0e40 b48d 2abf 1764 d1bf
000001e0: 8be5 b23f cae5 1b40 3f2f d43f 4f55 18c0
000001f0: 88d6 f1be c4a8 b83f d2d8 28bf a4a4 9d3e
00000200: 1626 c23e 3fae 87be b94b 593f ac26 b6bf
00000210: 7e58 df3d f5de a63f fe8c eabd 508e a93f
00000220: ef1d 763f 59cb fb3f c7d7 493f 5f64 eabf
00000230: d313 e43f 181e 883f cd65 f73f 292f debc
00000240: bd12 0b3f 8817 3e3f 643d a2bf 2f7b fb3f
00000250: 65a0 133f adad 523f 238e ff3f 604b 14c0
00000260: 1d95 db3f bbb1 6abf e16a 7f3f c1df a73e
00000270: 0376 963f aa4b e83f 0dc1 8a3f 62c1 88be
00000280: 298f 653d a79b b13f de12 2940 70a0 f2be
00000290: cfe4 cb3f 8629 163f ea37 ef3d 3594 1640
000002a0: d966 ca3f 595f 1f40 55ab ef3e d899 cdbf
000002b0: aca0 303d a885 9e3f b340 23bf 2bee 5abf
000002c0: 1d50 6b40 f6c0 b33f 5742 d23f 9799 8ebf
000002d0: 9fd7 d23f 12e7 733f 21b6 1a40 3b0e a83f
000002e0: 956e 90bf e733 c33f 62d6 a33f 3987 f53f
000002f0: 6db5 a13f 954d 0140 cf6e f73f 594f b43d
00000300: 1cb7 d83f 5e27 943e a04a 283f 004a 66be
00000310: 46c8 6dbe ec91 a8be 8445 b63f 954c 3ac0
00000320: aadf 5840 2af6 ad3f ace0 2b40 debe 05c0
00000330: 89a5 973d ba80 993f 44a4 abbe 3b18 bc3e
00000340: 0a6f 7cbf 9036 53bf 3e16 2b3f ba09 94be
00000350: 64ae 743e fd6d 2bbf 8bdc 983f f035 79be
00000360: e1a8 43be b59f ea3f c888 f93f 7d65 95bf
00000370: 4960 db3e e49b 0040 a476 403f 87b6 0abe
00000380: 4c75 d43e 5930 d7be 7f9f 9b3e ef24 34bf
00000390: af58 b63f 382e fc3d 6657 bf3f ba88 01c0
000003a0: 7595 b0be e6f6 863f 508e 49bc be1d 843f
000003b0: 8e51 ef3f b22b 2340 a8ac 46be 718b 72bf
000003c0: 7b3e a13f 4c0b 003e 8ff7 7e3f 4c98 88bf
000003d0: 7c34 483f 6ad4 6940 c9f2 fcbe 52f8 773f
000003e0: 817d 2b3e 9d10 05bf 2d33 903f 36bf aabf
000003f0: 6796 08bf d4fc 1c3f cf3f 183f 8b53 943f

layer.weight f4 [20, 20]
-1.0740597 0.82440645 -0.06984397 1.5542138 -1.1401101 0.4156047 0.62730706 -0.28233323
-0.43189922 -0.78237 -1.7689787 -0.5841389 0.9401844 -0.28414857 -0.07443997 -0.13582551
0.42601234 0.47143108 0.23863587 0.5237223 1.9249501 -2.2400877 -2.9710672 -1.3888519
-0.075418584 -1.7806947 1.4245011 1.6886201 1.4397187 0.26701748 -3.3672302 2.5021489
-2.1425223 1.403024 1.5060678 1.469302 -2.1173193 -2.1152177 -3.0120983 0.060008008
1.5244266 -0.3102417 -1.906446 -0.81018466 0.040976856 -0.0710104 1.7824999 1.2761663
1.8555114 -0.9045861 -2.5932424 -0.096886985 0.13836017 2.3118272 2.3967202 2.0170786
0.30312616 0.5521481 -2.901765 -0.47916737 1.4593298 -0.22440879 -2.1088445 0.7423783
-1.1666933 -0.07545309 2.0880587 2.3522067 1.7573448 -0.42784238 -2.6069138 1.1173497
0.4593005 1.6749562 1.6761215 1.7734243 -0.47413525 -0.98834264 -2.3169477 -0.4568651
-0.118935406 2.0394025 0.12049232 1.627957 -2.1091714 1.6708113 0.088732354 -0.041475337
0.25833324 -2.2715716 -3.750518 -1.7074934 2.4507818 0.27407607 0.69302404 -0.36029142
1.7265663 1.9426956 0.41347644 -2.0023963 2.7933488 -1.8991674 -2.8630362 -1.5999126
-0.1645859 -1.5995601 1.2890998 1.2870443 1.2505625 0.106287085 -2.6861641 1.2965376
-1.4184394 1.3896549 1.2576313 1.2105119 -1.5417085 -1.5611897 -2.2277 -0.16652587
-0.56165326 -1.2376895 -0.9954126 -0.69311404 -0.12239164 -0.83019805 -0.7653252 -0.49277687
-0.6776283 -0.0822181 0.3995539 -0.048901137 -0.6225121 -0.9095108 -0.5984957 -0.5420779
-0.9137631 -0.9681901 -0.17549919 -0.020980675 -0.80561894 -1.1450586 -0.774505 -0.58515555
-0.23773533 -0.5128467 -0.2851504 -0.30511874 -0.6807092 -0.5020264 -0.24138276 -0.25672522
-0.46357787 -0.4654807 -0.6055284 -0.60476816 -0.5690803 -1.2099512 -0.30302233 -0.3812397
-1.436965 0.6069626 -0.60728437 2.1058953 -2.597412 1.1944865 0.25225967 -0.1045256
-0.40634164 -2.246052 -3.2903445 0.26186815 2.4295158 -0.38950863 0.33915824 -0.044833835
2.0796194 1.0033439 -0.13512631 -0.38008794 -0.110489324 2.0949123 0.12594993 1.8290368
-2.109625 1.5562714 0.17918834 -0.016641552 0.39419037 -2.4055858 -4.0991254 -1.6770092
2.4104629 -0.0021284788 0.22318384 -0.10171519 1.8560816 1.806879 0.33031487 -1.757556
-1.2711729 1.6157546 2.4872863 1.3836313 0.70399624 1.5960238 -1.3563778 -1.4880848
-1.2067946 0.54162514 1.7144912 -1.8956177 1.2874063 -0.9488732 -0.95130956 -1.0124632
1.8123643 2.25155 1.4957179 0.18103838 -0.95239836 1.984785 -0.5494083 2.904578
-2.4312696 1.50521 0.68286353 -0.5765146 -0.08650179 -2.2003329 -4.2347984 -0.19637954
2.6436622 -0.3618321 0.1336809 -0.23398721 1.7153276 1.2379675 -0.000600771 -0.41153586
2.0520751 -2.3154817 -3.0635152 -1.6676432 0.2086015 -1.9734397 1.5495142 1.7533184
1.649524 0.122839846 -3.669629 2.6542826 -2.3225117 1.7723626 1.5610538 1.6975917
00000000: ca7a 89bf 4d0c 533f 5b0a 8fbd 7af0 c63f
00000010: 21ef 91bf 24ca d43e 3297 203f fb8d 90be
00000020: e521 ddbe 6649 48bf e56d e2bf 208a 15bf
00000030: edaf 703f ec7b 91be fc73 98bd d815 0bbe
00000040: 4a1e da3e 6a5f f13e f65c 743e aa12 063f
00000050: c464 f63f 995d 0fc0 f725 3ec0 e6c5 b1bf
00000060: 0f75 9abd ceed e3bf 0d56 b63f b424 d83f
00000070: b448 b83f 84b6 883e b380 57c0 3523 2040
00000080: 161f 09c0 4a96 b33f d4c6 c03f 1712 bc3f
00000090: 2982 07c0 ba5f 07c0 38c6 40c0 f5ca 753d
000000a0: 6920 c33f 00d8 9ebe 6c06 f4bf 4368 4fbf
000000b0: 59d7 273d e76d 91bd f528 e43f 6b59 a33f
000000c0: 6681 ed3f f492 67bf aff7 25c0 af6c c6bd
000000d0: 4aae 0d3e faf4 1340 dd63 1940 d117 0140
000000e0: 5a33 9b3e 9459 0d3f 85b6 39c0 6d55 f5be
000000f0: 52cb ba3f 6bcb 65be 4ff7 06c0 810c 3e3f
00000100: 3556 95bf 2687 9abd c1a2 0540 8e8a 1640
00000110: adf0 e03f 280e dbbe add7 26c0 5105 8f3f
00000120: 6f29 eb3e f764 d63f 268b d63f 91ff e23f
00000130: dbc1 f2be 0604 7dbf df48 14c0 39ea e9be
00000140: 6894 f3bd 9285 0240 adc4 f63d e560 d03f
00000150: aafc 06c0 25dd d53f 4fb9 b53d 0be2 29bd
00000160: 4144 843e 6e61 11c0 7d08 70c0 258f dabf
00000170: 9cd9 1c40 b353 8c3e 066a 313f 1e78 b8be
00000180: 2000 dd3f 40aa f83f 2fb3 d33e 4327 00c0
00000190: 3ac6 3240 eb17 f3bf fc3b 37c0 f0c9 ccbf
000001a0: 3589 28be 63be ccbf 3901 a53f debd a43f
000001b0: 6f12 a03f 0bad d93d 1dea 2bc0 f2f4 a53f
000001c0: 6c8f b5bf 36e0 b13f 10fa a03f 0ef2 9a3f
000001d0: b456 c5bf 10d5 c7bf a392 0ec0 c285 2abe
000001e0: 82c8 0fbf 9c6c 9ebf 5cd3 7ebf ec6f 31bf
000001f0: 78a8 fabd dc87 54bf 5aec 43bf 404d fcbe
00000200: 0c79 2dbf f761 a8bd 5492 cc3e 8f4c 48bd
00000210: f45c 1fbf b3d5 68bf 0437 19bf 9ec5 0abf
00000220: 61ec 69bf 4edb 77bf 0fb6 33be aadf abbc
00000230: 0b3d 4ebf 4891 92bf f645 46bf c1cc 15bf
00000240: e470 73be ec49 03bf 3cff 91be 8638 9cbe
00000250: f542 2ebf cd84 00bf 0b2d 77be 7d71 83be
00000260: 145a edbe 7c53 eebe e903 1bbf 16d2 1abf
00000270: 3faf 11bf aedf 9abf be25 9bbe da31 c3be
00000280: 78ee b7bf e761 1b3f fd76 1bbf fdc6 0640
00000290: 003c 26c0 efe4 983f 2e28 813e 8511 d6bd
000002a0: 030c d0be 51bf 0fc0 0195 52c0 9513 863e
000002b0: 307d 1b40 ad6d c7be 26a6 ad3e afa3 37bd
000002c0: 7c18 0540 936d 803f 8d5e 0abe e39a c2be
000002d0: 3a48 e2bd 0b13 0640 05f9 003e e11d ea3f
000002e0: 1904 07c0 e733 c73f 267d 373e dd53 88bc
000002f0: 52d3 c93e 1ef5 19c0 092c 83c0 3da8 d6bf
00000300: 0645 1a40 f37d 0bbb 4e8a 643e 0e50 d0bd
00000310: 1594 ed3f d047 e73f 081f a93e 98f7 e0bf
00000320: cbb5 a2bf 0cd1 ce3f b32f 1f40 d51a b13f
00000330: 1939 343f 824a cc3f ca9d adbf 9079 bebf
00000340: 3f78 9abf f2a7 0a3f 7374 db3f 9aa3 f2bf
00000350: bbc9 a43f 5be9 72bf 0689 73bf 6598 81bf
00000360: 8efb e73f 6519 1040 af73 bf3f 2062 393e
00000370: 61d0 73bf 6f0d fe3f 06a6 0cbf 9be4 3940
00000380: ec99 1bc0 b9aa c03f 25d0 2e3f 7696 13bf
00000390: da27 b1bd 41d2 0cc0 7883 87c0 b817 49be
000003a0: c331 2940 0f42 b9be a5e3 083e 589a 6fbe
000003b0: db8f db3f b875 9e3f 0f7d 1dba d4b4 d2be
000003c0: 3355 0340 da30 14c0 a210 44c0 5575 d5bf
000003d0: a29b 553e ac99 fcbf 7b56 c63f bd6c e03f
000003e0: 9a23 d33f 7593 fb3d 34db 6ac0 c4df 2940
000003f0: 08a4 14c0 c7dc e23f 9cd0 c73f af4a d93f

layer.bias f4 [20]
-0.80634147 -2.8642495 -2.4849675 -2.5884352 -1.8458514 -2.4061472 -0.16990685 -0.573501
-0.85828984 -1.7818772 1.0483253 -2.0717583 -3.4536982 -1.080926 0.97851664 -1.1813649
-2.4750524 -3.0248432 -1.7869755 1.4133
00000000: 656c 4ebf dd4f 37c0 b509 1fc0 eca8 25c0
00000010: dc44 ecbf 51fe 19c0 10fc 2dbe f6d0 12bf
00000020: e2b8 5bbf 8d14 e4bf 862f 863f b097 04c0
00000030: 6409 5dc0 c85b 8abf 1180 7a3f f736 97bf
00000040: 4267 1ec0 0897 41c0 9dbb e4bf 04e7 b43f

classify.weight f4 [1, 20]
0.4862916 -12.383192 -12.164725 -10.603223 6.123904 -12.211585 0.21886049 0.19687991
2.0135837 6.0350103 4.93006 5.2982945 -13.171745 -0.092771545 2.0667691 3.495272
-11.648458 -12.24535 5.0618925 -7.7037463
00000000: 36fb f83e 8e21 46c1 b7a2 42c1 cda6 29c1
00000010: 06f7 c340 a762 43c1 f71c 603e e39a 493e
00000020: 8ede 0040 ce1e c140 0dc3 9d40 a18b a940
00000030: 78bf 52c1 02ff bdbd f245 0440 89b2 5f40
00000040: 1560 3ac1 f4ec 43c1 06fb a140 1785 f6c0
