07-翟文嘉-南京/week_02/model.pth (torch, 6619 bytes, 4 tensors)

embedding.weight f4 [38, 20]
1.7278587 1.757716 0.05014784 -0.57133216 0.37457347 -0.36089978 -1.1613357 -1.2354599
0.3550661 -0.5819722 -0.017287072 -1.6137322 0.5989936 1.95967 2.6886733 0.35605145
-1.1393924 -0.2135259 -1.2612501 0.3759989 1.4953023 -0.15187958 0.18191335 0.810484
-1.4551252 1.0117121 1.913003 0.69493514 -0.9642194 0.6804209 0.41826457 -0.18404059
0.4031847 0.9050905 -0.17461938 -0.12833476 0.7589872 0.33193985 -0.06591314 0.9018332
1.4654394 1.1750098 -0.50011456 -1.9540906 1.6612953 -0.92230886 1.7207997 -1.0314835
-0.19575332 -1.1239641 -0.7092528 -0.7875189 1.3414253 -0.38756257 -0.4818307 -0.3758421
-0.25006053 -0.74834365 -1.6156709 0.9263339 -0.6223966 -1.1449054 0.11203059 -0.45136255
0.43814906 -1.4903002 0.066052824 0.111639164 0.029521538 0.3760382 1.8022759 -0.77201486
-1.9415082 -0.2447945 1.4891467 0.64730537 0.01056104 0.44451466 0.62347054 1.064863
-0.40931007 -1.2159336 2.812141 -1.6619601 -1.200124 -0.012333544 -0.56662923 1.5762295
-0.3714725 0.055440024 -0.35885534 0.03416832 -0.7350017 0.072379515 0.62385434 -1.4146053
0.7230577 1.1613181 -0.4201138 -0.08645406 -1.8722144 -0.33689213 0.7606303 0.19653541
0.45895866 0.10804766 -0.52477705 -0.57064474 -0.20354533 0.6460622 -0.87897635 0.10442987
-2.3061256 -2.264784 1.429607 -0.8944515 -0.13555516 -0.0871652 0.7595256 0.28505853
0.40087762 -1.1904658 -0.53342044 1.3771373 -1.538456 0.19099867 1.1612862 0.039885815
0.147147 -0.19600752 1.0812184 -1.4891859 -1.0275122 -0.79059315 1.0220499 -0.46020362
0.029829193 0.41036925 -0.9288047 1.9568671 0.36807457 1.149531 1.1512631 0.7564897
-0.7024564 0.013931522 1.6544837 -1.185998 -0.16836531 0.18108729 0.8675818 -1.2984269
-1.4481392 2.5268843 0.1555482 0.12949185 -0.5171136 -0.7543627 -0.47944662 1.6525681
1.210983 -0.774454 0.017740963 0.009642961 0.886708 -0.32997832 0.07591163 0.41721812
-0.73522216 0.5386637 -0.20024125 1.7029101 -0.4168084 -1.5925355 -0.5415431 -0.3211114
1.6334544 0.9945412 -1.3936949 0.92377436 0.8580045 -0.31567144 -0.8404366 -1.6992573
1.8932837 -0.2842579 -0.7454127 0.58312833 -0.41118866 1.1690425 1.1086658 -1.4996998
-0.791973 1.6915643 -0.45322433 -1.4465404 0.33012304 0.2935619 -0.08180422 1.7362127
1.0329387 0.4945263 -0.21649946 -1.512356 1.0106516 -0.84799933 0.9317299 0.38715923
0.80818695 -0.6638323 0.32360736 -1.5549597 -0.5043476 1.5915008 0.37396866 0.7954052
0.5895302 0.59201485 -0.14612542 0.6841985 0.5303706 0.08634802 0.014707694 0.4368326
-1.1081895 0.21740277 0.22929844 1.3547349 0.048338875 -0.48935577 -0.33354113 -2.1343298
-1.09787 -1.4294196 0.1038252 0.8865639 -2.374954 -0.43875796 -1.5281091 0.45386028
0.07670915 -0.51141673 1.1556401 -1.2389574 0.861386 -0.5939979 0.6058964 -2.4650998
-0.14137845 -0.34003052 -0.94749874 -1.7775198 0.82494676 -0.64531225 -0.9208086 -1.423217
00000000: 792a dd3f d6fc e03f d267 4d3d d342 12bf
00000010: 18c8 bf3e dbc7 b8be a6a6 94bf 8d23 9ebf
00000020: 39cb b53e 21fc 14bf 9e9d 8dbc c78e cebf
00000030: a557 193f 77d6 fa3f 3913 2c40 604c b63e
00000040: 9cd7 91bf 89a6 5abe a570 a1bf ee82 c03e
00000050: 1166 bf3f 5286 1bbe 7e47 3a3e e17b 4f3f
00000060: 8b41 babf c87f 813f 48dd f43f 45e7 313f
00000070: 15d7 76bf 1030 2e3f c626 d63e 2375 3cbe
00000080: 3a6e ce3e 03b4 673f 6ccf 32be 306a 03be
00000090: fc4c 423f 05f4 a93e 78fd 86bd 8ade 663f
000000a0: 8593 bb3f b966 963f 8207 00bf a41f fabf
000000b0: 53a5 d43f 6f1c 6cbf 2a43 dc3f a707 84bf
000000c0: 8f73 48be 0ede 8fbf 9791 35bf d79a 49bf
000000d0: d3b3 ab3f 9a6e c6be 83b2 f6be 606e c0be
000000e0: ef07 80be 7393 3fbf 4ece cebf 3824 6d3f
000000f0: 6255 1fbf 438c 92bf 4b70 e53d fe18 e7be
00000100: 1355 e03e 28c2 bebf b446 873d 13a3 e43d
00000110: 27d7 f13c 1488 c03e fab0 e63f c4a2 45bf
00000120: 5783 f8bf 69ab 7abe 5c9c be3f ceb5 253f
00000130: 3608 2d3c 6d97 e33e c49b 1f3f 6e4d 883f
00000140: 1791 d1be b6a3 9bbf 1efa 3340 1cbb d4bf
00000150: aa9d 99bf a212 4abc 9d0e 11bf e3c1 c93f
00000160: a531 bebe 1415 633d e3bb b7be 15f4 0b3d
00000170: 1229 3cbf b63b 943d ebb4 1f3f c911 b5bf
00000180: 4f1a 393f 12a6 943f 2819 d7be d40e b1bd
00000190: b9a4 efbf 207d acbe abb8 423f 9440 493e
000001a0: a1fc ea3e 1748 dd3d ca57 06bf c615 12bf
000001b0: 306e 50be 5564 253f 9804 61bf 54df d53d
000001c0: 9097 13c0 39f2 10c0 5dfd b63f c6fa 64bf
000001d0: f9ce 0abe ab83 b2bd 4570 423f 31f3 913e
000001e0: d53f cd3e 2f61 98bf 3e8e 08bf 0946 b03f
000001f0: 20ec c4bf 2895 433e 07a5 943f 4f5f 233d
00000200: b4ad 163e 32b6 48be 5d65 8a3f a59d bebf
00000210: 8585 83bf 5064 4abf 88d2 823f cf9f ebbe
00000220: 5a5c f43c eb1b d23e 25c6 6dbf 9f7a fa3f
00000230: 4574 bc3e d523 933f 975c 933f 4fa9 413f
00000240: 2fd4 33bf 0a41 643c 1fc6 d33f c8ce 97bf
00000250: f567 2cbe f26e 393e d719 5e3f da32 a6bf
00000260: a05c b9bf 79b8 2140 0748 1f3e 8399 043e
00000270: 8f61 04bf ea1d 41bf 077a f5be 5a87 d33f
00000280: 7e01 9b3f 9e42 46bf 7f55 913c 83fd 1d3c
00000290: 4cff 623f ebf2 a8be 8f77 9b3d 9d9d d53e
000002a0: 8537 3cbf dde5 093f 0b0c 4dbe f5f8 d93f
000002b0: e967 d5be 34d8 cbbf 92a2 0abf b768 a4be
000002c0: 0915 d13f 419a 7e3f 9864 b2bf 7a7c 6c3f
000002d0: 2fa6 5b3f b09f a1be da26 57bf 4381 d9bf
000002e0: 1f57 f23f 408a 91be 5ed3 3ebf e647 153f
000002f0: 5287 d2be 2fa3 953f c3e8 8d3f 2af6 bfbf
00000300: bebe 4abf 2e85 d83f 050d e8be 3c28 b9bf
00000310: e305 a93e bf4d 963e f988 a7bd 383c de3f
00000320: 5637 843f 8d32 fd3e 09b2 5dbe e294 c1bf
00000330: 085d 813f 7c16 59bf da85 6e3f bc39 c63e
00000340: 57e5 4e3f eaf0 29bf ddaf a53e eb08 c7bf
00000350: ed1c 01bf 4cb6 cb3f d278 bf3e ad9f 4b3f
00000360: 74eb 163f 498e 173f e7a1 15be a227 2f3f
00000370: 5ec6 073f 3bd7 b03d 8af8 703c 86a8 df3e
00000380: 27d9 8dbf d59e 5e3e 36cd 6a3e f467 ad3f
00000390: fcfe 453d d78c fabe e7c5 aabe dc98 08c0
000003a0: 0187 8cbf 39f7 b6bf 4ea2 d43d daf5 623f
000003b0: 3fff 17c0 e2a4 e0be 1499 c3bf 6060 e83e
000003c0: b019 9d3d 35ec 02bf 04ec 933f 2896 9ebf
000003d0: cb83 5c3f 3f10 18bf 071c 1b3f 32c4 1dc0
000003e0: 83c5 10be 7b18 aebe 478f 72bf c585 e3bf
000003f0: b62f 533f 2f33 25bf 1dba 6bbf fa2b b6bf

layer.weight f4 [20, 20]
-0.5963443 0.20581107 -0.57178384 0.26673034 0.23671702 -0.23939788 -0.40918377 0.025719212
0.26872385 -0.55930865 0.16067325 0.6686116 0.51831585 0.26873946 -0.26748046 0.33253172
-0.09931175 0.15542123 0.58360875 -0.56431377 -0.48313254 0.15464036 -0.656276 0.31844354
-0.098896146 -0.16259614 -0.2001115 0.26673988 0.079882674 -0.4443519 0.008844652 0.19229782
0.37785995 0.20881425 -0.10277705 0.0655541 -0.04672358 0.19672172 0.2364028 -0.4950836
-0.44266638 0.13174349 -0.44492745 0.24198914 -0.21593879 -0.0283317 -0.12324437 0.19749077
-0.096709386 -0.6602049 0.06560904 0.2845922 0.42581323 -0.011239031 -0.041390665 0.02835033
0.10596344 0.023306664 0.42468873 -0.5456246 0.43304384 -0.3350287 0.5681058 -0.2859486
0.08000092 0.02892109 0.13305408 -0.16758338 -0.092706606 0.5792411 -0.17830692 -0.5845862
-0.46570185 0.018977543 0.008331857 -0.098159686 -0.11737918 0.10154732 -0.44804046 0.44404143
-0.5224101 0.43559948 -0.6000064 0.2702989 0.008614743 -0.3151128 -0.14506072 0.22692633
0.18848257 -0.5917308 0.15667051 0.66196954 0.41017118 0.300818 -0.16506965 0.055157255
0.055519775 0.11424419 0.4481928 -0.9135607 -0.5676183 0.42627752 -0.6038226 0.16843426
0.122703046 -0.044884056 -0.17607364 0.22356524 -0.104534596 -0.3270447 -0.10005167 0.37290257
0.22995049 -0.031934366 -0.035544492 0.0446077 -0.06673102 0.0059486968 0.44539395 -0.5766411
-0.6892347 0.47319007 -0.7157604 0.23167427 0.17447823 -0.049230598 -0.22655606 0.079948336
0.021645552 -0.40182108 -0.054443207 0.56946105 0.21372828 0.25550523 -0.21523085 0.030485101
-0.07626446 -0.012577982 0.3686075 -0.48503903 -0.40271914 0.24215719 -0.4325852 0.17509751
0.027913269 -0.30091432 -0.29970396 0.18049395 -0.06579254 -0.5415787 0.07996938 0.44515583
0.14913273 0.26813397 -0.059472535 0.3029199 -0.016378626 0.2766841 0.47351232 -0.40911627
-0.55654347 0.09254959 -0.47776926 0.10600362 -0.11993617 -0.104783915 -0.113725275 0.1739043
0.046029318 -0.6109268 0.16626118 0.19868772 0.3364952 0.09379391 -0.09949588 0.004773867
-0.12532312 0.040622666 0.22367202 -0.60737336 -0.7437406 -0.04101533 -0.49674392 0.31424865
0.25702524 -0.19269577 -0.07563166 0.036350496 0.092329815 -0.4411325 -0.04626903 0.34625813
-0.0007983752 -0.119330876 0.015055558 0.32375428 -0.18304808 0.17435446 0.81676435 -0.24334086
-0.2936471 0.3117284 -0.6731055 0.24695015 -0.016052278 -0.35864162 -0.33231637 0.44170585
-0.039577052 -0.38148445 0.084683694 0.22392023 0.37099952 0.20196357 -0.043099664 0.24472654
-0.19873513 0.039277576 0.40837362 -0.36905387 -0.5424694 0.41353086 -0.69691795 0.044820167
-0.054434326 -0.032362744 -0.27291313 0.2734887 0.039525826 -0.44418088 -0.03726448 0.32741302
0.32506254 0.16186553 -0.06511757 0.13857305 0.043997727 -0.045430887 0.44681922 -0.5879337
-0.33879957 0.37853116 -0.6548145 0.16167673 -0.17309839 0.076591484 0.017766077 0.43288738
0.21496809 -0.36956796 0.1237349 0.32572392 0.42019868 0.02577573 -0.14112958 0.0049516778
00000000: 05aa 18bf 23c0 523e 6d60 12bf e190 883e
00000010: f265 723e b824 75be 8980 d1be 19b1 d23c
00000020: 2c96 893e da2e 0fbf 8787 243e 212a 2b3f
00000030: 59b0 043f 3898 893e 33f3 88be 9941 aa3e
00000040: f563 cbbd be26 1f3e 6267 153f de76 10bf
00000050: 265d f7be 0b5a 1e3e b401 28bf 080b a33e
00000060: 108a cabd 9a7f 26be 07ea 4cbe 2192 883e
00000070: 8799 a33d 1882 e3be 29e9 103c b8e9 443e
00000080: dc76 c13e 67d3 553e c67c d2bd 3a41 863d
00000090: 3a61 3fbd 6b71 493e 9313 723e 997b fdbe
000000a0: 2ba5 e2be c4e7 063e 88cd e3be 00cc 773e
000000b0: 0f1f 5dbe e217 e8bc 8b67 fcbd 053b 4a3e
000000c0: 920f c6bd 3003 29bf 085e 863d 12b6 913e
000000d0: 3104 da3e ea23 38bc 4289 29bd f43e e83c
000000e0: 5c03 d93d 9eed be3c cd70 d93e 0eae 0bbf
000000f0: ecb7 dd3e e288 abbe 626f 113f db67 92be
00000100: 86d7 a33d eceb ec3c 543f 083e fa9a 2bbe
00000110: f6dc bdbd 2549 143f 1796 36be 71a7 15bf
00000120: 7970 eebe cb76 9b3c 5782 083c f207 c9bd
00000130: 7f64 f0bd 0bf8 cf3d 8f65 e5be 6659 e33e
00000140: abbc 05bf e506 df3e 059a 19bf 9e64 8a3e
00000150: da24 0d3c 7756 a1be cc8a 14be 605f 683e
00000160: 9301 413e ab7b 17bf 3c6e 203e d676 293f
00000170: f501 d23e d104 9a3e 0508 29be 93ec 613d
00000180: b468 633d dcf8 e93d 8779 e53e 1ddf 69bf
00000190: 6f4f 11bf 0c41 da3e 1e94 1abf 087a 2c3e
000001a0: bc4b fb3d 58d8 37bd a64c 34be 49ee 643e
000001b0: 3c16 d6bd 6772 a7be e4e7 ccbd 16ed be3e
000001c0: 2478 6b3e 9ccd 02bd 1a97 11bd 90b6 363d
000001d0: 46aa 88bd 49ed c23b ad0a e43e c09e 13bf
000001e0: af71 30bf f845 f23e 133c 37bf 053c 6d3e
000001f0: 6caa 323e 06a6 49bd 50fe 67be f4bb a33d
00000200: 0352 b13c 7ebb cdbe d7ff 5ebd 33c8 113f
00000210: 96db 5a3e 95d1 823e 7a65 5cbe e4bb f93c
00000220: 8b30 9cbd e113 4ebc 1fba bc3e 0957 f8be
00000230: 3431 cebe 0ef8 773e cf7b ddbe c34c 333e
00000240: 5eaa e43c 7111 9abe cc72 99be 68d3 383e
00000250: 3dbe 86bd e7a4 0abf fcc6 a33d 77eb e33e
00000260: 40b6 183e db48 893e 7999 73bd 5118 9b3e
00000270: 782c 86bc 8aa9 8d3e 3570 f23e b077 d1be
00000280: a279 0ebf a48a bd3d 2c9e f4be 6d18 d93d
00000290: 18a1 f5bd f398 d6bd cce8 e8bd f813 323e
000002a0: 3d89 3c3d b365 1cbf 5f40 2a3e cb74 4b3e
000002b0: 1949 ac3e 0617 c03d 7fc4 cbbd 196e 9c3b
000002c0: b454 00be f463 263d 470a 653e d27c 1bbf
000002d0: c965 3ebf b1ff 27bd 3855 febe 33e5 a03e
000002e0: d098 833e 0a52 45be c6e4 9abd 42e4 143d
000002f0: 6a17 bd3d 1edc e1be 9884 3dbd bf48 b13e
00000300: 0d4a 51ba bf63 f4bd 96ab 763c 1fc3 a53e
00000310: f570 3bbe fa89 323e 7817 513f 592e 79be
00000320: ea58 96be dd9a 9f3e a450 2cbf 80e0 7c3e
00000330: 1180 83bc e09f b7be 5f25 aabe 4527 e23e
00000340: 8c1b 22bd ee51 c3be a56e ad3d 584b 653e
00000350: a6f3 bd3e 8acf 4e3e 4689 30bd 9899 7a3e
00000360: 3981 4bbe 86e1 203d 5916 d13e a1f4 bcbe
00000370: 46df 0abf 51ba d33e 3769 32bf 5a95 373d
00000380: 87f6 5ebd cc8e 04bd 45bb 8bbe b606 8c3e
00000390: d5e5 213d ad6b e3be a4a2 18bd aea2 a73e
000003a0: 996e a63e 14c0 253e 5c5c 85bd 18e6 0d3e
000003b0: f636 343d bd15 3abd 7dc5 e43e d382 16bf
000003c0: 2377 adbe d6ce c13e eca1 27bf 968e 253e
000003d0: b440 31be ffdb 9c3d 2a8a 913c 6aa3 dd3e
000003e0: 9820 5c3e 0338 bdbe b968 fd3d 49c5 a63e
000003f0: 4824 d73e a027 d33c 4684 10be af41 a23b

layer.bias f4 [20]
-0.3704644 -0.2217066 -0.35432532 0.18826823 -0.62097627 -0.43278062 -0.23759523 -0.18416212
-0.250242 -7.583806e-05 -0.32144478 -0.37440082 -0.27624232 -0.14724277 -0.28694785 -0.21070543
-0.2785903 -0.26808926 -0.035562668 -0.32846063
00000000: 83ad bdbe 0e07 63be 216a b5be 63c9 403e
00000010: 4df8 1ebf 6c95 ddbe 2a4c 73be ff94 3cbe
00000020: b81f 80be 400b 9fb8 6994 a4be 77b1 bfbe
00000030: a26f 8dbe cfc6 16be d4ea 92be 2ac3 57be
00000040: 63a3 8ebe ff42 89be 29aa 11bd fe2b a8be

classify.weight f4 [1, 20]
0.39441127 0.46556014 0.35382095 -0.3287761 0.3651996 0.44605875 0.33362222 0.5611445
0.5615142 0.4880939 0.55749935 0.35443267 0.57188135 0.51299703 0.3745508 0.4773914
0.4436775 0.49275142 0.442834 0.4326287
00000000: 46f0 c93e e65d ee3e 0528 b53e 5755 a8be
00000010: 71fb ba3e d061 e43e 88d0 aa3e 2aa7 0f3f
00000020: 65bf 0f3f 72e7 f93e 47b8 0e3f 3378 b53e
00000030: d166 123f c653 033f 1fc5 bf3e a56c f43e
00000040: b329 e33e ea49 fc3e 23bb e23e 8281 dd3e
