05-白晓东-北京/week2/homework2_Demo2/model.pth (torch, 23819 bytes, 9 tensors)

embedding.weight f4 [50, 20]
0	0x3f616aa5	0.8805335
1	0xbf698cf8	-0.91230726
2	0x3f0c7566	0.54866636
3	0x3f58bbd2	0.8466159
4	0x3f75034a	0.95708144
5	0xbf8b0215	-1.086001
6	0xbefee0bb	-0.4978083
7	0x3f9a54c0	1.2057114
8	0x3f35ace2	0.70966923
9	0xbf9e742f	-1.2379206
10	0x3e5ab39b	0.21357577
11	0xbe171125	-0.14752634
12	0x3ff563b8	1.9171057
13	0x3e27db04	0.16392142
14	0x3dd820ee	0.10553156
15	0x3f8fdc98	1.1239195
16	0x3fa4c2f0	1.287199
17	0xbfcf1cf7	-1.6180714
18	0x3e454a52	0.19266632
19	0xbee8a970	-0.4544177
20	0x3f70bfa2	0.9404241
21	0x402baf84	2.6825876
22	0xbf9058b2	-1.1277068
23	0xbd36e840	-0.044655085
24	0xbfcd322f	-1.603094
25	0xbf336f22	-0.7009145
26	0xbd6c3d82	-0.057675846
27	0xbe2e1b46	-0.17002591
28	0x400ce14f	2.2012517
29	0x3e8029f2	0.25032002
30	0xbf8f2cbb	-1.1185526
31	0xbf97cb2b	-1.1858877
32	0xbf83898e	-1.0276353
33	0x3fc6d7e6	1.5534637
34	0x3e913744	0.28362477
35	0xc085f1c2	-4.1857615
36	0xc0195059	-2.395529
37	0x3ef181c3	0.47169313
38	0x3fcf66c6	1.6203239
39	0xbf46b4ee	-0.77619827
40	0x3f279d0e	0.6547402
41	0x40720d1b	3.78205
42	0xbe29ddc9	-0.1658851
43	0x4036b536	2.8548102
44	0xbfa554a0	-1.291645
45	0xc03a5ba1	-2.9118426
46	0xbf4441ae	-0.7666272
47	0xbf5a1f80	-0.85204315
48	0x4027a98f	2.619724
49	0xbdee9377	-0.116492204
50	0xbf03939f	-0.51397127
51	0xbeed386f	-0.46332118
52	0xbf166991	-0.5875483
53	0x3f71c2e3	0.94438
54	0xbf2ce050	-0.67529774
55	0xc0104e3b	-2.2547748
56	0xbf988aee	-1.1917398
57	0xbea26779	-0.31719568
58	0x4016cdf9	2.3563216
59	0x3fdf23df	1.7432822
60	0x3ec0c5cf	0.37650916
61	0x4035725e	2.8351054
62	0xc020c29d	-2.5118783
63	0xbefaebd5	-0.4900805
64	0xbfaca67b	-1.3488306
65	0xbee4d1a7	-0.44691202
66	0xbd0ca819	-0.034339998
67	0x3dc0e2dd	0.09418271
68	0x40282c67	2.62771
69	0x3e989521	0.29801276
70	0xbfa98875	-1.3244768
71	0xbf8156c9	-1.010461
72	0xbf8dd1ed	-1.1079689
73	0xbe82f624	-0.25578415
74	0x3fa3d346	1.279885
75	0xc0079a8c	-2.1188078
76	0xc00304b7	-2.0471628
77	0xbfaa3346	-1.3296897
78	0xbc962ec0	-0.018332839
79	0x3f764032	0.96191704
80	0xbe3b8bbc	-0.18315023
81	0xbf81324b	-1.0093473
82	0xbe10e91f	-0.14151429
83	0xc019da94	-2.403966
84	0xbf8d052d	-1.1017205
85	0xbfb1d27a	-1.3892357
86	0x3f6be615	0.9214795
87	0xc0049cd8	-2.072073
88	0x3fd4bf03	1.6620792
89	0x3ecb2b1b	0.39681324
90	0x3f567d0a	0.83784544
91	0x3eecff74	0.46288645
92	0x3fb2e87c	1.3977199
93	0xbfba5f3a	-1.4560311
94	0xbfd110a5	-1.6333205
95	0xbefab9af	-0.4896979
96	0xbf51f192	-0.8200923
97	0x3f00a6dc	0.5025461
98	0xbf5927d5	-0.84826404
99	0x3f5dcdb9	0.8664203
100	0x3ea36b5f	0.31917855
101	0xbf2439af	-0.6415052
102	0xbecf403d	-0.40478697
103	0xbc2bb4d5	-0.010480125
104	0x3d1d0ef9	0.038344357
105	0x4052cd8c	3.2937956
106	0x3e33bcdd	0.17552514
107	0xbe924fa5	-0.2857639
108	0x3f390648	0.7227521
109	0x3faf9e57	1.3720196
110	0x3facd632	1.3502867
111	0x3f4fc607	0.8116154
112	0x3efa9004	0.48938
113	0xbf9a8414	-1.2071557
114	0x3d447d3d	0.047971
115	0xbf2ef95a	-0.6834923
116	0xbec16932	-0.3777557
117	0x3f3e49e2	0.74331486
118	0xc0142be8	-2.3151798
119	0x3f88d6d2	1.0690558
120	0xbfc69950	-1.5515537
121	0xbf105ec8	-0.56394625
122	0x3f061b0a	0.5238501
123	0xc000cadb	-2.0123813
124	0x3f179005	0.5920413
125	0xbe4f1f54	-0.20226794
126	0x3f1d2860	0.6138973
127	0x3d251dbd	0.040311564
128	0x3fbf83a1	1.4962045
129	0xbfa7408b	-1.3066572
130	0x3ddf7c41	0.109123714
131	0x3f1e2b1a	0.6178452
132	0xbf65d8a3	-0.89783686
133	0x3f3c3168	0.7351289
134	0xc0141065	-2.3135006
135	0xbefce1a7	-0.4939091
136	0xbd3c3849	-0.045952115
137	0x402266d0	2.5375252
138	0x3e27af05	0.16375358
139	0x3f5053bf	0.81377786
140	0x3f1563e5	0.5835555
141	0xbfb72c95	-1.431048
142	0xbfd744d2	-1.6817877
143	0xbabf5ebc	-0.0014600377
144	0xc0067cb8	-2.1013622
145	0xbe71f969	-0.23630299
146	0x3f8acee7	1.0844392
147	0x3f6992fd	0.9123991
148	0xbf36fae1	-0.7147656
149	0x3f5e44ae	0.86823547
150	0xbeaac236	-0.33351296
151	0x3f55d090	0.83521366
152	0xbfa692bc	-1.301353
153	0x3eae5e47	0.34056303
154	0xbf81c0f7	-1.0137013
155	0xbef0b304	-0.47011578
156	0x3e0d7958	0.1381582
157	0x3f5a4f0c	0.85276866
158	0x3f8660f4	1.0498338
159	0x3fefcfb1	1.8735257
160	0xbf72dc8c	-0.9486778
161	0x3f02e37c	0.51128364
162	0xbf85cd93	-1.0453361
163	0x3e933ebe	0.28758806
164	0x3ea64dbd	0.32481185
165	0xbe991e6b	-0.2990602
166	0xbf16b29c	-0.58866286
167	0xbf863f63	-1.0488094
168	0xbd5ba9f2	-0.05362887
169	0xbf83b4e8	-1.0289583
170	0x3ebc2b16	0.36751622
171	0x3e838f90	0.25695467
172	0x3e0b0e11	0.13579585
173	0x3e556ac5	0.2084151
174	0xbed34825	-0.4126598
175	0x3fae74d5	1.3629404
176	0xbf9fa2c1	-1.2471544
177	0xbc421e20	-0.011848003
178	0xbf010898	-0.5040374
179	0x3d76ab85	0.060222168
180	0xbfaf6d42	-1.3705218
181	0x3dde4b32	0.10854186
182	0x3ff9dc07	1.9520272
183	0x4008852e	2.1331286
184	0xbfcac53b	-1.584144
185	0x3fbc2106	1.4697578
186	0xbfa190f2	-1.2622359
187	0x3ffbeafc	1.9681087
188	0xbe940586	-0.28910464
189	0x3d4de47d	0.05026673
190	0xbe476fad	-0.19476195
191	0xbe89ae50	-0.26890802
192	0x3ed1e818	0.40997386
193	0xbe3af203	-0.18256383
194	0x3ec26a1f	0.3797159
195	0xbdf86ed6	-0.12130515
196	0xbe40088a	-0.18753257
197	0x3cba0af6	0.022710305
198	0x3de10629	0.10987503
199	0x3d816084	0.06317237
200	0x3f335149	0.70045906
201	0x3fa93892	1.3220389
202	0xbf22f1d8	-0.63650274
203	0x3f149f3f	0.5805549
204	0xbf5d4d73	-0.86446303
205	0x400a1cf1	2.1580164
206	0x3e2d3bc2	0.16917327
207	0x402cf0f8	2.7022076
208	0xbf908d01	-1.1293031
209	0x3e6fb5dc	0.23409218
210	0x3edee03f	0.4353046
211	0xbf8206c3	-1.0158314
212	0xc0320394	-2.7814684
213	0x3eb6062c	0.35551584
214	0xbecc002d	-0.39843884
215	0x3f586f0c	0.84544444
216	0xbef9cb07	-0.4878771
217	0xbe957380	-0.29189682
218	0xbf3ee6f2	-0.74571145
219	0x3fd7b0ca	1.6850827
220	0xbf5a1978	-0.8519511
221	0xbf695a51	-0.91153437
222	0xbf076200	-0.5288391
223	0x3f168ae6	0.5880569
224	0xbef81fde	-0.48461813
225	0x3f507432	0.814273
226	0xbfa9a86c	-1.3254523
227	0x3fac2a5b	1.3450426
228	0xbf23f062	-0.6403867
229	0xbf3d9c8d	-0.74067
230	0x3e718ea9	0.23589577
231	0x3f35be4d	0.709935
232	0xbfaa325b	-1.3296617
233	0xbf48bdbe	-0.78414524
234	0x3f395192	0.7239009
235	0x3dba05c1	0.09083129
236	0xbd78c72d	-0.060736824
237	0x3e0efa18	0.1396259
238	0xbfeb165e	-1.8366201
239	0x3f33f11a	0.70289767
240	0x3f6ac6eb	0.91709775
241	0xbfd420b8	-1.6572485
242	0xbdd46b20	-0.10371995
243	0xbd86133b	-0.06546637
244	0x3f0256b3	0.5091354
245	0x400adc60	2.1697006
246	0x3f8c09e8	1.0940523
247	0x3d09b482	0.03361941
248	0x401d061d	2.4534981
249	0xbe75f515	-0.24019273
250	0xbe52aae2	-0.20572999
251	0x3f01057e	0.50399005
252	0x3f7d4cdc	0.98945403
253	0xbfc73ccc	-1.5565429
254	0x3ee25826	0.44207877
255	0x3e25c615	0.16188844

layer.weight f4 [40, 20]
0	0xbda6dede	-0.08147977
1	0x3d307085	0.043076057
2	0x3e7b7251	0.24555327
3	0xbd639b3d	-0.05556797
4	0x3d9a7c6c	0.07543263
5	0x3e8c4162	0.27393633
6	0x3edc484b	0.43023905
7	0xbce6aaa0	-0.028157532
8	0xbe83c6d4	-0.2573763
9	0x3ca6cea0	0.020362198
10	0xbccff327	-0.025384499
11	0xbe41e101	-0.18933488
12	0x3ec70494	0.3887068
13	0x3e899ecf	0.26878974
14	0x3df13042	0.117767826
15	0x3e73fa5a	0.2382597
16	0x3f08b8ce	0.5340699
17	0xbe50aeec	-0.20379227
18	0x3e644fbf	0.22296046
19	0xbeaac9c1	-0.3335705
20	0xbd35fb3c	-0.04442905
21	0x3eca2638	0.39482284
22	0x3d614d4a	0.05500535
23	0xbdeba6c5	-0.11506418
24	0xbecaae91	-0.3958631
25	0xbe5a3e67	-0.21312867
26	0x3b4ab8a3	0.0030932806
27	0x3e5f441e	0.21803328
28	0x3e339bd1	0.17539908
29	0x3cc8cb81	0.0245111
30	0x3d80d0c8	0.06289822
31	0xbe80c3ad	-0.2514929
32	0x3d97ed49	0.074183054
33	0x3d1803c5	0.03711297
34	0xbe48451c	-0.19557613
35	0x3e81d680	0.25358963
36	0xbeb63624	-0.3558818
37	0x3ef6fc0e	0.48239177
38	0x3ddb59c8	0.10710484
39	0xbe2aa734	-0.16665345
40	0xbe6e050a	-0.2324411
41	0x3edd5069	0.4322541
42	0x3cb5b86d	0.022182668
43	0xbe418c64	-0.18901211
44	0xbea54951	-0.32282498
45	0xbdb1d75f	-0.08683657
46	0xbeb9518f	-0.36195037
47	0xbe0c36a9	-0.13692726
48	0x3e226ef4	0.15862638
49	0xbe2399c9	-0.15976633
50	0x3e02e163	0.1278129
51	0xbe7b0b2d	-0.24515982
52	0xbd011045	-0.031509656
53	0xbeb04ee7	-0.34435198
54	0xbb0af8f5	-0.002120552
55	0xbd18c271	-0.03729481
56	0xbe2828bb	-0.16421787
57	0xbebc5aec	-0.36788118
58	0x3e3cdb6a	0.18443075
59	0x3df6b5be	0.12046383
60	0xbdd910b2	-0.105988875
61	0xbd24dc00	-0.04024887
62	0xbe7c5337	-0.24641119
63	0x3c11bd14	0.008895177
64	0x3cdff95f	0.02734059
65	0x3d211f85	0.0393367
66	0x3d0c2332	0.034213252
67	0x3d343c9a	0.044003107
68	0x3e856725	0.26055256
69	0x3e4fd9eb	0.20297973
70	0xbed82ac7	-0.42220137
71	0xbec4d84d	-0.38446274
72	0xbe03e1a4	-0.12879044
73	0x3e386cb6	0.1801022
74	0x3d416b16	0.047221266
75	0xbe69c4e5	-0.22829016
76	0x3e6fe19e	0.2342591
77	0x3e131516	0.14363512
78	0x3f201ca5	0.6254371
79	0xbc9ea758	-0.019366905
80	0x3efe2b00	0.4964218
81	0x3eb124e3	0.34598455
82	0x3d3e83b5	0.046512324
83	0x3db5ad47	0.08870941
84	0x3db59c66	0.08867721
85	0xbed691fa	-0.41908246
86	0x3d96272b	0.073316894
87	0xbcf7a1aa	-0.030228455
88	0xbc1158e0	-0.008871287
89	0xbe3a0685	-0.1816655
90	0xbeaf0df2	-0.34190327
91	0xbe9ef788	-0.31048226
92	0x3da3cc81	0.079979904
93	0xbc66a4ea	-0.0140774045
94	0x3e895a04	0.2682649
95	0xbe562447	-0.20912276
96	0x3d54c88f	0.05194908
97	0xbec47433	-0.38369903
98	0x3e2d8b9e	0.16947791
99	0x3e563d37	0.20921789
100	0x3c994fe6	0.018714856
101	0x3e2c97bf	0.16854762
102	0x3d81e84a	0.06343134
103	0xbe411b98	-0.18858182
104	0x3e398372	0.18116549
105	0x3e246c90	0.16057038
106	0xbe09118a	-0.13385597
107	0x391b6590	0.00014819787
108	0xbea236c8	-0.3168242
109	0xbd85399a	-0.06505127
110	0xbcd91125	-0.026497433
111	0x3cdcd00d	0.026954675
112	0x3e5e2f74	0.2169779
113	0x3d5bf9eb	0.053705137
114	0xbe54df03	-0.20788197
115	0x3ec1c08e	0.3784222
116	0x3e70e76c	0.2352578
117	0xbe98cb74	-0.29842722
118	0x3e7e4f82	0.24835017
119	0xbecd3f92	-0.40087563
120	0x3ddf7f48	0.10912949
121	0x3e8922f1	0.2678447
122	0x3d7f8275	0.062380273
123	0xbd95abb4	-0.073081404
124	0xbcee9b99	-0.02912693
125	0xbe24870e	-0.16067144
126	0x3d54b759	0.051932666
127	0xbe4ee3ea	-0.2020413
128	0x3e59709a	0.2123436
129	0xbe06b7d4	-0.13156062
130	0xbeac1076	-0.3360631
131	0xbe3771e6	-0.17914543
132	0xbd8dd350	-0.0692507
133	0xbdf1a362	-0.11798741
134	0xbdf5b539	-0.11997456
135	0xbeabfee5	-0.33592907
136	0x3e7de35e	0.24793765
137	0xbea4b98b	-0.32172808
138	0xbc92769d	-0.017878825
139	0xbe65d9c2	-0.2244635
140	0x3dcaedd9	0.09908647
141	0x3d9187ef	0.071060054
142	0x3e169cc6	0.14708242
143	0xbe646848	-0.22305405
144	0xbe12acfc	-0.14323801
145	0x3cbe19fe	0.023205753
146	0x3ee6e967	0.45099947
147	0xbeea812b	-0.45801672
148	0xbd284611	-0.041082446
149	0x3e946903	0.28986368
150	0xbe9dcaf5	-0.30818906
151	0x3e0a1602	0.13484958
152	0x3daaa637	0.08332484
153	0xbeb7963d	-0.3585681
154	0xbc7f6201	-0.015587331
155	0x3ef7b850	0.48382807
156	0x3d81a419	0.06330127
157	0xbd1cb9c1	-0.038263086
158	0xbdce2d9e	-0.100672945
159	0xbe7c5d01	-0.24644853
160	0xbe1139a9	-0.14182152
161	0xbbba643b	-0.005688218
162	0x3e50ae95	0.20379098
163	0x3cd2cb13	0.025731599
164	0xbdca1eb2	-0.09869136
165	0x3da992fb	0.082799874
166	0xbe6366dc	-0.22207206
167	0x3d1d90d5	0.0384682
168	0xbec3a1e2	-0.38209444
169	0xbe995bc8	-0.29952836
170	0x3e3d8915	0.18509324
171	0xbe8f0b94	-0.2793852
172	0x3e749771	0.23885895
173	0x3d6eea3c	0.058328852
174	0xbe12cbf8	-0.1433562
175	0x3f0853ae	0.53252685
176	0x3e6be960	0.23038244
177	0x3e64969c	0.22323078
178	0x3ebaaf64	0.36461937
179	0xbecca29b	-0.39967808
180	0x3ebd3108	0.3695147
181	0x3e94d37b	0.29067597
182	0xbe9f3d1a	-0.31101304
183	0xbd15f95c	-0.03661476
184	0x3e8a5747	0.27019712
185	0xbbc70c21	-0.006074444
186	0xbd3a1fdd	-0.045440543
187	0x3db10856	0.08644168
188	0x3d3174f3	0.043324422
189	0x3d670418	0.05640039
190	0xbee47f45	-0.4462835
191	0xbea7b071	-0.32751802
192	0xbe0c9a97	-0.13730846
193	0x3e61bb1a	0.2204403
194	0xbd801841	-0.06254626
195	0x3bc91d65	0.0061375373
196	0x3da262ab	0.07928976
197	0xbdc58edf	-0.09646391
198	0x3eac418b	0.33643755
199	0x3e6e9098	0.23297346
200	0xbdca31b3	-0.098727606
201	0xbea23d12	-0.31687218
202	0xbd72e1ae	-0.059297256
203	0xbe477c7e	-0.19481084
204	0x3ddd6089	0.10809428
205	0x3e2b46a3	0.16726165
206	0x3e910e5a	0.28331262
207	0xbe243425	-0.16035517
208	0xbe31f08a	-0.17376915
209	0xbdab90b5	-0.0837721
210	0xbd86a2cf	-0.06574022
211	0x3be9136b	0.0071129105
212	0xbe89026b	-0.26759657
213	0xbd14e300	-0.036349297
214	0xbe8ee662	-0.27910143
215	0x3d9280c8	0.07153469
216	0x3e9d0e03	0.30674753
217	0xbda36507	-0.07978254
218	0x3f06cb01	0.5265351
219	0xbe91047c	-0.28323734
220	0x3e90aa5e	0.2825498
221	0x3e2d9a10	0.16953301
222	0x3e35a18b	0.17737405
223	0xbe99cef6	-0.3004071
224	0x3e88af2c	0.26696146
225	0xbe42265d	-0.18959947
226	0xbdb01356	-0.08597438
227	0xbe225417	-0.1585239
228	0x3f038a81	0.51383215
229	0x3e87ff04	0.2656175
230	0x3e109c8c	0.14122218
231	0xbd518297	-0.05114993
232	0xbd32b80d	-0.043632556
233	0x3e145ec3	0.14489274
234	0x3ccce6d9	0.02501242
235	0xbe5b0508	-0.21388638
236	0xbe8714ce	-0.2638306
237	0xbebdd9b4	-0.37080157
238	0x3d257b66	0.040400885
239	0xbea1108a	-0.3145793
240	0x3ec4576e	0.38347954
241	0x3defd893	0.1171123
242	0xbe14eea7	-0.14544164
243	0xbdeb9ca0	-0.11504483
244	0xbd46a0db	-0.048493247
245	0xbe97d018	-0.2965095
246	0x3d152da4	0.03642048
247	0xbdac6437	-0.08417552
248	0x3e7ac38a	0.24488655
249	0x3e5dc0ce	0.2165558
250	0x3b29eb4c	0.0025927601
251	0xbe4ad2a7	-0.1980692
252	0xbe39d72b	-0.18148486
253	0xbe26ff95	-0.16308434
254	0xbd1b2259	-0.037874553
255	0xbe38259c	-0.17983097

layer.bias f4 [40]
0	0xbedb91a1	-0.42884544
1	0x3c6650b7	0.01405733
2	0xbe66fa2a	-0.22556368
3	0xbf028319	-0.5098129
4	0xbee65f68	-0.44994664
5	0xbf1abd49	-0.60445076
6	0xbf11bf89	-0.56932884
7	0xbee51079	-0.4473913
8	0xbee20016	-0.4414069
9	0xbec4b2c5	-0.3841764
10	0xbeee1f1e	-0.46508116
11	0xbec2659f	-0.37968156
12	0xbf274cea	-0.65351737
13	0xbed5b811	-0.41741994
14	0xbed9f83c	-0.425722
15	0xbeba5491	-0.36392644
16	0xbf4d0b3f	-0.80095285
17	0xbf2f4c17	-0.6847548
18	0xbeab1fd0	-0.3342271
19	0xbe6d2737	-0.2315949
20	0xbef5b6ce	-0.4799103
21	0xbefa7ca0	-0.48923206
22	0xbef7ab9a	-0.4837311
23	0xbf277890	-0.6541834
24	0xbf127f66	-0.57225645
25	0xbf1ab8a7	-0.6043801
26	0xbf061d58	-0.52388525
27	0xbf30dd9b	-0.69088143
28	0xbf1db6fa	-0.61607325
29	0xbf532a2d	-0.8248623
30	0xbeae527f	-0.34047315
31	0xbecdb243	-0.40175065
32	0xbf08bd33	-0.53413695
33	0xbf36de97	-0.71433395
34	0xbeda9f7a	-0.42699796
35	0xbf09ad8e	-0.5378045
36	0xbec2edf9	-0.38072184
37	0xbe9ead8b	-0.30991778
38	0x3c8e89fa	0.017399777
39	0xbea4a6d4	-0.3215853

rnn.weight_ih_l0 f4 [40, 40]
0	0x3dcbcf28	0.09951621
1	0xbdabcfb5	-0.08389226
2	0xbe2696c3	-0.16268449
3	0x3df16253	0.11786332
4	0x3e967946	0.293894
5	0xbe0fc426	-0.14039668
6	0x3bd6df57	0.006557386
7	0xbc68ca6f	-0.01420842
8	0xbd271153	-0.040788006
9	0x3d48c467	0.04901543
10	0xbdc04a0b	-0.093891226
11	0x3dd5a322	0.10431506
12	0x3ace9474	0.0015760795
13	0xbbb7a34d	-0.0056041838
14	0xbdffd697	-0.12492102
15	0x3d1026d7	0.03519329
16	0x3d57eb6c	0.05271475
17	0x3d9f066f	0.07764899
18	0x3e43b2f6	0.19111237
19	0xbcf529e8	-0.029927209
20	0xbe907173	-0.28211555
21	0xbe51d8b0	-0.20492816
22	0xbe3a8d52	-0.18217972
23	0xbe052c41	-0.13005163
24	0x3df7bece	0.1209694
25	0xbd2f11de	-0.04274165
26	0x3e0f0fbc	0.13970846
27	0xbd51be7a	-0.051207043
28	0xbdc3af4f	-0.09554922
29	0xbe27011a	-0.16309014
30	0x3e02009e	0.12695548
31	0x3b8485a2	0.0040442506
32	0xbdd96965	-0.106158055
33	0xbd8121c0	-0.063052654
34	0xbd4484ff	-0.047978397
35	0xbddcfde9	-0.10790617
36	0xbcb38d21	-0.021917881
37	0xbe0f89a4	-0.1401735
38	0x3c4a6dd0	0.012355283
39	0x3dbc794c	0.09202823
40	0x3e4aefe3	0.19818072
41	0x3dd0394a	0.10167177
42	0x3d651f6f	0.05593818
43	0x3e7cd479	0.24690427
44	0x3de3c0f4	0.11120787
45	0x3cafcb92	0.021459375
46	0x3e815ade	0.2526464
47	0x3bede96b	0.0072604916
48	0x3d76cdd4	0.060254887
49	0x3e57c4cd	0.21071167
50	0xbc00fa7b	-0.007872219
51	0x3e3f84c1	0.18702985
52	0x3e6b6f0b	0.22991578
53	0x3d5b752b	0.053578537
54	0x3e301214	0.17194396
55	0x3cc8a674	0.024493434
56	0xbdf4e1d6	-0.11957137
57	0xbd6b44c0	-0.057438612
58	0x3d2b1aa7	0.041773465
59	0x3b63cafc	0.003475844
60	0xbcca364a	-0.02468409
61	0x3df6716c	0.12033352
62	0xbcae66a2	-0.021289174
63	0x3dc01ac4	0.09380105
64	0x3d66f07f	0.0563817
65	0x3e32e9d9	0.17472018
66	0x3e5a8db5	0.2134312
67	0x3dc7e6da	0.09760828
68	0x3d5189e9	0.051156912
69	0xbdf040ac	-0.11731085
70	0x3e1ff986	0.1562253
71	0x3df06364	0.11737707
72	0x3db85f9d	0.09002612
73	0x3cd57b9a	0.026059914
74	0x3d46a15e	0.048493735
75	0x3beca07f	0.007221281
76	0xbd3b145a	-0.045673706
77	0x3e77886d	0.24173136
78	0x3e80cab6	0.25154656
79	0x3dd026bf	0.1016364
80	0x3d9eec42	0.07759906
81	0xbcd020d1	-0.025406273
82	0xbcaa6beb	-0.020803412
83	0xbd3bd599	-0.045858
84	0xbd3a3aa4	-0.04546608
85	0x3e1ccf29	0.153134
86	0xbe003c85	-0.12523086
87	0xbdc9163d	-0.09818695
88	0xbdda92c7	-0.10672527
89	0xbe4b0a55	-0.1982816
90	0x3ddafc99	0.106927104
91	0x3cd65874	0.026165225
92	0x3d5a9bfe	0.053371422
93	0xbe3b35d9	-0.1828226
94	0x3b7aed8c	0.0038288562
95	0x3a6ff316	0.0009153349
96	0x3d13a356	0.03604444
97	0xbe9e007c	-0.30859745
98	0xbd44840f	-0.047977503
99	0xbd313584	-0.043263927
100	0xbdefb5ec	-0.11704621
101	0xbde0030f	-0.109380834
102	0xbdd3b17a	-0.10336585
103	0xbd904c39	-0.07045788
104	0x3ab0f85f	0.0013501755
105	0x3e00834a	0.12550083
106	0xbd3303c6	-0.04370477
107	0xbe5179d5	-0.20456631
108	0xbdaa324f	-0.08310377
109	0x3e13e20b	0.14441697
110	0xbb601d3e	-0.0034197117
111	0x3d9c7d0e	0.0764104
112	0xbddcbb5b	-0.10777923
113	0x3e0c04d9	0.13673724
114	0xbe3bab1d	-0.18326993
115	0xbe850ecb	-0.2598785
116	0x3de9728b	0.113988005
117	0x3e28c369	0.16480793
118	0xbe05c4ca	-0.1306335
119	0x3c27fbd2	0.01025291
120	0xbd99b57e	-0.0750532
121	0xbe31b87d	-0.17355533
122	0xbe44ac1c	-0.1920628
123	0xbe8dc2e9	-0.27687767
124	0x3d1da9ce	0.038492016
125	0x3e32fceb	0.17479293
126	0x3e1b3c60	0.1515975
127	0x3e62c9e2	0.22147325
128	0xbcc9e4f7	-0.024645312
129	0xbe6bdeef	-0.23034261
130	0xbd88a59f	-0.06672215
131	0xbe287729	-0.16451706
132	0x3d2e3782	0.042533405
133	0xbe73ca10	-0.2380755
134	0x3e5be4a5	0.2147394
135	0xbd9bae2e	-0.076015815
136	0x3d3ad053	0.04560883
137	0x3e2bd527	0.1678053
138	0xbd38aae4	-0.04508485
139	0xbd4b4ab3	-0.049631786
140	0x3db03c7e	0.08605288
141	0xbe3f7ddb	-0.18700354
142	0x3cf992b1	0.030465456
143	0x3d102733	0.035193633
144	0xbdf4c7fe	-0.11952208
145	0x3def0ce1	0.11672378
146	0xbe1b3d05	-0.15159996
147	0xbdb2c42d	-0.08728824
148	0xbdec0282	-0.11523916
149	0x3ac22d36	0.0014814499
150	0x3df493f1	0.1194228
151	0x3df6aa9f	0.12044262
152	0xbe888d46	-0.26670283
153	0x3e6942c2	0.22779372
154	0xbe4e299e	-0.20133063
155	0xbb800afa	-0.0039075585
156	0x3e3dcc63	0.18534999
157	0x3d87f40c	0.06638345
158	0xbc726ccf	-0.01479645
159	0xbdd8d2b4	-0.105870634
160	0x3e9ed27a	0.31019956
161	0xbdc92802	-0.09822084
162	0xbe02d83f	-0.12777804
163	0xbea966eb	-0.33086333
164	0xbe19e8b9	-0.15030183
165	0x3e11125e	0.14167163
166	0xbeb32ff9	-0.34997538
167	0x3e357cd9	0.17723407
168	0x3e99b76b	0.3002275
169	0xbeb6c574	-0.3569752
170	0x3e5d143c	0.2158975
171	0xbd51b857	-0.05120119
172	0xbeb9da15	-0.36299196
173	0xbe874e05	-0.26426712
174	0x3e49eb22	0.19718602
175	0x3ec01c43	0.37521562
176	0x3e8eab61	0.27865127
177	0x3e0164c0	0.1263609
178	0x3d8f9dc5	0.07012514
179	0x3e27aca4	0.16374451
180	0x3eb910ad	0.36145535
181	0x3e4b395d	0.19846101
182	0x3dfba1dc	0.122867316
183	0x3ebb6a68	0.3660462
184	0xbeab75e7	-0.3348839
185	0x3e8a4b9d	0.27010813
186	0xbeb803ef	-0.359405
187	0xbe552074	-0.20813161
188	0x3e8b222a	0.27174503
189	0x3e0659c0	0.13120174
190	0xbebf90e1	-0.3741522
191	0x3e04a905	0.12955101
192	0xbe05adea	-0.13054624
193	0x3e9e7f78	0.30956626
194	0xbeb09e2c	-0.34495676
195	0xbea720ae	-0.3264212
196	0x3e36ac36	0.17839131
197	0xbeedb3b0	-0.46426153
198	0xbd80558f	-0.06266319
199	0xbdf5be24	-0.11999157
200	0xbe0f86c9	-0.1401626
201	0xbe1f94e4	-0.15584141
202	0xbe14ae61	-0.14519645
203	0xbe78b169	-0.24286427
204	0xbe0ff6fc	-0.14059061
205	0xbceaaa74	-0.028645732
206	0xbdd1e45d	-0.10248635
207	0x3d24fdf8	0.040281266
208	0xbe213c7b	-0.15745728
209	0xbe53b027	-0.20672666
210	0xbdee94a7	-0.11649447
211	0x3c17eae2	0.009272309
212	0xbe2f570a	-0.17123047
213	0x3d213376	0.039355718
214	0xbd403f94	-0.046935633
215	0xbc16cf1f	-0.009204655
216	0xbde023f6	-0.10944359
217	0x3decca2d	0.115619995
218	0x3cec18a7	0.028820349
219	0xbe28ac8a	-0.16472068
220	0xbe4c782d	-0.19967718
221	0xbe49c2f2	-0.19703272
222	0x3c9f5dce	0.01945391
223	0x3de39408	0.11112219
224	0x3ceb0f6a	0.028693873
225	0xbdf0bd13	-0.11754813
226	0xbd65b898	-0.056084245
227	0xbddd6f0c	-0.10812196
228	0xbcd81652	-0.02637783
229	0xbe5f4f07	-0.2180749
230	0xbdc1c2e7	-0.09461003
231	0xbd3d1bc4	-0.046169057
232	0xbe837d0d	-0.25681344
233	0x3e0a4186	0.13501558
234	0xbe649f1a	-0.22326317
235	0xbde79ba3	-0.11308982
236	0x3d1878d0	0.03722459
237	0xbc35337f	-0.011059641
238	0xbe5da20f	-0.21643852
239	0xbd7e7337	-0.062121596
240	0xbe4ba1a3	-0.19885878
241	0xbe499253	-0.19684725
242	0x3e2dab23	0.16959815
243	0x3d8dbff4	0.06921378
244	0x3da64524	0.08118656
245	0xbdfe36f4	-0.12412825
246	0x3ea4bfbf	0.3217754
247	0xbe0176ac	-0.12642926
248	0xbe6937b1	-0.22775151
249	0x3d29783c	0.04137443
250	0xbe580ab4	-0.21097833
251	0xbd26e906	-0.040749572
252	0x3e030382	0.12794307
253	0x3e9a78a9	0.3017018
254	0xbe3e0179	-0.1855525
255	0xbda49b8d	-0.080374815

rnn.weight_hh_l0 f4 [40, 40]
0	0x3d985ff1	0.07440174
1	0xbe1c0280	-0.15235329
2	0x3c92c2f1	0.01791522
3	0x3e816742	0.25274092
4	0x3dbbad3c	0.09163901
5	0x3e890b21	0.26766303
6	0x3e3c5d97	0.18395077
7	0x3e02ec47	0.12785445
8	0x3d477176	0.04869219
9	0x3dde4613	0.10853209
10	0x3e021363	0.12702708
11	0xbe656812	-0.22402981
12	0x3e15cbd7	0.1462854
13	0xbe96d2cc	-0.294577
14	0x3aa001d1	0.0012207573
15	0x3e44701f	0.19183396
16	0x3ddc1a1f	0.1074717
17	0x3dd28559	0.1027934
18	0x3d0b31cf	0.033983048
19	0xbebd52c2	-0.36977202
20	0xbd3361cd	-0.043794442
21	0x3e4f4dca	0.20244518
22	0x3e6da804	0.23208624
23	0xbe1973f0	-0.14985633
24	0xbe5ceb16	-0.21574053
25	0x3e9a2683	0.30107507
26	0x3e22121f	0.15827225
27	0x3e3b9337	0.18317877
28	0x3e9563e2	0.29177767
29	0xbbaa34b6	-0.005194272
30	0xbe06d771	-0.13168122
31	0x3e89b759	0.26897696
32	0xbd28d212	-0.041215964
33	0xbc661db6	-0.01404517
34	0xbe1f14b2	-0.15535238
35	0x3c0255fb	0.00795507
36	0x3e1cd92f	0.15317224
37	0xbe9d367a	-0.30705625
38	0xbbdd0b2b	-0.006745716
39	0xbd0598d8	-0.032616466
40	0x3c4423fb	0.011971469
41	0x3d8944ff	0.06702613
42	0xbd886ba9	-0.066611595
43	0x3d1303cf	0.035892304
44	0x3e3d5330	0.18488765
45	0xbe0427a9	-0.12905754
46	0xbbf45690	-0.007456608
47	0xbe9e0654	-0.30864203
48	0xbdaf7214	-0.085666806
49	0xbbff6d40	-0.007795006
50	0x3c443345	0.011975114
51	0x3d956c2a	0.07296021
52	0xbe0aebe8	-0.13566554
53	0x3e509266	0.20368347
54	0xbe020eae	-0.12700912
55	0xbe1ba548	-0.15199769
56	0xbebd410b	-0.36963686
57	0xbd2c6aed	-0.04209416
58	0xbc6592d3	-0.014012056
59	0x3dd9f91d	0.10643218
60	0xbe113e70	-0.14183974
61	0x3d0e5a40	0.034754038
62	0xbdca6bff	-0.0988388
63	0xbdd48d1c	-0.10378477
64	0x3e0eacc2	0.1393309
65	0xbe7015b4	-0.23445779
66	0x3d26b0a6	0.04069581
67	0x3e30fbb0	0.17283511
68	0x3d0cf516	0.03441342
69	0x3d55b199	0.052171323
70	0x3e1855f1	0.14876534
71	0xbda78fec	-0.08181748
72	0xbd1ee4e5	-0.03879251
73	0xbe1247d0	-0.14285207
74	0x3da235d5	0.07920424
75	0xbd53f8e7	-0.051751044
76	0x3d0d5480	0.034504414
77	0x3e019f9d	0.12658544
78	0xbd1ba837	-0.03800222
79	0xbc72ff2e	-0.014831347
80	0x3e10b4c7	0.14131461
81	0x3d7f4c21	0.06232846
82	0xbeae1ac4	-0.34004796
83	0xbd635aa0	-0.05550635
84	0xbeb9362d	-0.36174145
85	0x3cdf7063	0.02727527
86	0x3eb759a5	0.3581058
87	0x3ee13829	0.4398816
88	0x3d80a72e	0.06281887
89	0x3d541c27	0.05178466
90	0xbdd78f99	-0.10525436
91	0xbe158e3d	-0.14605041
92	0x3e25db7e	0.16197011
93	0xbe9053ef	-0.28189036
94	0x3dc9cea2	0.09853865
95	0xbdb3c720	-0.087782145
96	0x3e3ef116	0.18646654
97	0xbdd1917b	-0.10232826
98	0xbdc0d1e0	-0.094150305
99	0xbc91ab13	-0.01778177
100	0x3e14547f	0.14485358
101	0xbe31ac4e	-0.17350885
102	0xbeca03f8	-0.39456153
103	0x3e4ec63b	0.20192806
104	0x3ce5bdfa	0.02804469
105	0x3e0b43f0	0.13600135
106	0xbf38e9b7	-0.7223162
107	0xbf2598c0	-0.64686203
108	0xbe2b7f1a	-0.16747704
109	0xbecfa9a0	-0.405591
110	0xbeccd00e	-0.40002483
111	0xbcf657db	-0.03007119
112	0xbe88af72	-0.26696354
113	0x3e847b6b	0.2587541
114	0xbe883fbb	-0.26611122
115	0xbe04e626	-0.1297842
116	0xbed3124a	-0.4122489
117	0xbe21303f	-0.1574106
118	0x3e29cd02	0.1658211
119	0x3e373938	0.17892921
120	0xbd450368	-0.04809895
121	0xbd8c9d99	-0.06865997
122	0xbc0621b9	-0.008186751
123	0x3dbccda7	0.092189126
124	0xbe9385f3	-0.28813133
125	0x3d789e2b	0.060697716
126	0x3eca5255	0.3951594
127	0xbcc4bf2c	-0.02401694
128	0xbd963749	-0.073347636
129	0x3efe4d2d	0.49668255
130	0x3e878aa7	0.2647297
131	0xbd11a983	-0.03556205
132	0x3e8ed4d5	0.27896753
133	0xbe33cb62	-0.17558053
134	0xbdfad360	-0.12247348
135	0x3da65040	0.08120775
136	0x3edf693d	0.43634978
137	0x3e55ccb2	0.20878866
138	0xbe94a0a9	-0.29028824
139	0xbe2a654d	-0.16640206
140	0xbd97a5d2	-0.074046746
141	0xbe409266	-0.18805847
142	0xbd9e0ff3	-0.07717886
143	0x3e1f82db	0.15577261
144	0xbdbd5098	-0.09243888
145	0x3eca65d4	0.39530814
146	0xbe20e5e1	-0.15712692
147	0xbdf80650	-0.12110579
148	0xbd77f77e	-0.06053876
149	0xbe21a1bd	-0.15784355
150	0xbda41460	-0.08011699
151	0x3e2653e7	0.16242944
152	0xbe33cb32	-0.17557982
153	0x3e418e31	0.18901898
154	0xbea9185b	-0.33026394
155	0xbe1258a7	-0.1429163
156	0xbe3815ff	-0.17977141
157	0xbd1084c2	-0.035282858
158	0x3d075090	0.033035815
159	0x3eeb107b	0.4591101
160	0xbdf6a694	-0.12043491
161	0x3e339770	0.17538238
162	0xbd15cd2d	-0.036572624
163	0x3c59cb7f	0.013293146
164	0x3e184d74	0.14873296
165	0xbdaeb50e	-0.08530627
166	0x3dcd8a39	0.100361295
167	0x3d6c8de7	0.057752516
168	0xbcbcb4a8	-0.023035362
169	0xbdc5e566	-0.09662895
170	0xbe01db62	-0.12681344
171	0x3cd8ac4a	0.026449341
172	0xbc8e6977	-0.017384274
173	0xbd969b79	-0.07353873
174	0x3c8b836e	0.017030444
175	0x3cded5ae	0.0272015
176	0xbe7e0327	-0.2480589
177	0xbc941de3	-0.018080657
178	0xbd92ab4b	-0.07161578
179	0x3d3f0bad	0.046641994
180	0x3e31b5eb	0.17354552
181	0xbe2b2ad6	-0.1671556
182	0x3db61828	0.08891326
183	0x3df2cdd6	0.11855666
184	0x3e376caf	0.17912553
185	0xbedcc57d	-0.43119422
186	0x3e540a0d	0.20706959
187	0x3d0c6d2d	0.034283806
188	0x3e04717f	0.1293392
189	0x3dd5d92a	0.104418114
190	0xbc997dac	-0.018736683
191	0xbd8968c3	-0.06709435
192	0x3c7f0c8f	0.015566959
193	0x3ce46257	0.027878923
194	0x3dbaa0e7	0.09112721
195	0x3e2725f7	0.16323076
196	0x3d252f01	0.04032803
197	0x3e208fa9	0.15679802
198	0xbc6ce4f8	-0.014458887
199	0xbe4c840d	-0.19972248
200	0x3d4d7a88	0.050165683
201	0xbd4de4c1	-0.050266985
202	0x3d15eff5	0.036605794
203	0xbd15c3d2	-0.036563702
204	0x3c7a57d0	0.015279725
205	0x3d784599	0.06061325
206	0x3e238dba	0.15972033
207	0xbc8e642a	-0.017381746
208	0x3d614e46	0.055006288
209	0x3e0c27e2	0.13687089
210	0x3e030417	0.12794529
211	0xbc8b8b79	-0.01703428
212	0x3df9bad9	0.121938415
213	0xbe848264	-0.2588073
214	0x3d64278b	0.055701774
215	0x3d9da886	0.07698159
216	0x3ccb1230	0.024788946
217	0x3d25a149	0.040437017
218	0xbe1f77fd	-0.15573116
219	0xbe671bef	-0.2256925
220	0xbe4df3bf	-0.20112513
221	0x3e4055b7	0.18782698
222	0x3df376bd	0.11887882
223	0xbe4ed4ee	-0.20198414
224	0xbdd2c335	-0.10291139
225	0x3cfff80b	0.031246206
226	0x3d5d89f3	0.054086637
227	0x3dc9b3da	0.09848757
228	0x3d467a02	0.0484562
229	0x3e16eb2d	0.1473815
230	0xbe14fc68	-0.1454941
231	0x3e2e66cc	0.17031401
232	0xbca4e33f	-0.02012789
233	0xbe274646	-0.16335401
234	0xbdd9c30f	-0.106329076
235	0x3db3627b	0.08759018
236	0x3e047ac0	0.1293745
237	0xbd08f3ad	-0.033435512
238	0xbe001a67	-0.12510072
239	0x3dd55cda	0.10418101
240	0x3c8ea9f0	0.017415017
241	0xbd19dfca	-0.037566938
242	0xbe357c52	-0.17723206
243	0xbdcaaff4	-0.09896842
244	0xbe98e248	-0.2986014
245	0x3e4c6d2f	0.19963525
246	0xbc91b247	-0.017785205
247	0x3e1a6105	0.15076073
248	0x3e13d7d6	0.14437804
249	0x3e641f4b	0.22277562
250	0xbcadea88	-0.021229997
251	0xbde56191	-0.1120025
252	0x3da46bef	0.08028399
253	0xbd09ce02	-0.03364373
254	0x3db270cc	0.087129205
255	0x3cdab399	0.026696967

rnn.bias_ih_l0 f4 [40]
0	0x3d04a34e	0.032382302
1	0x3e3f6df2	0.18694285
2	0x3e052703	0.13003163
3	0xbd47edc7	-0.048810747
4	0x3c0bd27c	0.00853407
5	0xbe2686ba	-0.16262332
6	0xbd3a9fe7	-0.04556265
7	0xbe65f72e	-0.22457573
8	0xbdf03ed8	-0.117307365
9	0x3d463510	0.048390448
10	0x3df19271	0.117955096
11	0x3e30b54f	0.17256664
12	0xbddba7d0	-0.10725367
13	0x3df89820	0.121383905
14	0xbe4c11ed	-0.19928713
15	0xbe993820	-0.29925632
16	0xbda35b6c	-0.07976422
17	0xbe1370ae	-0.14398453
18	0xbd8910d8	-0.06692666
19	0x3e4be0ef	0.19910024
20	0xbe5887a7	-0.21145497
21	0x3bb5864b	0.0055396906
22	0xbca644e5	-0.020296523
23	0xbdd2cb83	-0.10292723
24	0x3da490bc	0.080354184
25	0xbe1080e7	-0.14111672
26	0xbeaf996d	-0.34296742
27	0xbea3a5b0	-0.31962347
28	0x3d1aea80	0.037821293
29	0xbd991cba	-0.07476182
30	0x3d458f59	0.04823241
31	0xbe321ae6	-0.17393073
32	0xbd18b1c4	-0.037278906
33	0xbe490107	-0.19629298
34	0xbd52c82d	-0.051460434
35	0xbca33659	-0.019923376
36	0x3d3e9e06	0.04653742
37	0xbd756123	-0.05990709
38	0xbd2b7fec	-0.041870043
39	0xbc9e32b4	-0.019311287

rnn.bias_hh_l0 f4 [40]
0	0x3e336329	0.17518295
1	0x3e72cd13	0.23711042
2	0xbca06664	-0.019580074
3	0xbd1f7fe3	-0.03894032
4	0xbe6b3c66	-0.22972259
5	0xbe16d382	-0.14729121
6	0xbd9beab3	-0.07613125
7	0xbdbcead8	-0.092244804
8	0xbc672637	-0.014108232
9	0xbc08d6fd	-0.008352038
10	0xbd42b257	-0.04753336
11	0x3e49c8bb	0.19705479
12	0xbe0e1053	-0.13873415
13	0x3d27fa1b	0.041010004
14	0xbe5ed1bb	-0.21759693
15	0xbe923829	-0.28558472
16	0xbe2a3910	-0.1662333
17	0xbd1c913f	-0.038224455
18	0x3e0c9097	0.13727032
19	0x3e91e78f	0.28496978
20	0xbe271b1f	-0.1631894
21	0xbe80d218	-0.2516029
22	0xbd79a1bb	-0.060945254
23	0xbd6e716f	-0.058213647
24	0x3e15a9af	0.1461551
25	0xbdcdaf75	-0.100432314
26	0xbea1c486	-0.31595248
27	0xbe51a1f2	-0.20471933
28	0xbdb34441	-0.08753253
29	0xbd5130f8	-0.05107209
30	0x3e428b29	0.18998398
31	0xbe4bb428	-0.19892943
32	0xbc91c38a	-0.017793436
33	0x3d9f7627	0.07786208
34	0xbd618fbf	-0.055068728
35	0x3d5ae148	0.0534375
36	0xbe09228a	-0.13392082
37	0x3e2877e8	0.1645199
38	0x3de93427	0.113869004
39	0xbc90b92e	-0.017666426

classify.weight f4 [4, 40]
0	0x3de1fa9d	0.11034129
1	0xbe0c8e56	-0.13726172
2	0xbd3afe8f	-0.045652922
3	0xbdbfb54b	-0.09360751
4	0xbf7e15db	-0.992521
5	0x3e68a593	0.22719412
6	0x3eb1f1fc	0.34754932
7	0xbe333f3a	-0.17504588
8	0xbde5e18f	-0.112246625
9	0x3e8de075	0.2771031
10	0x3bd3a495	0.0064588287
11	0xbde457e3	-0.111495756
12	0x3f3123db	0.69195336
13	0xbe328e65	-0.17437132
14	0xbe026d1b	-0.12736933
15	0x3e34206b	0.17590491
16	0x3f222415	0.63336307
17	0x3db0375c	0.08604309
18	0xbe1a1ed2	-0.1505082
19	0xbd1b5d3e	-0.03793072
20	0x3baa3f86	0.005195561
21	0xbe92394c	-0.2855934
22	0xbe8b324e	-0.27186817
23	0xbdc23520	-0.09482789
24	0xbe61851d	-0.22023435
25	0x3f1ca2d7	0.61185974
26	0xbf008c2e	-0.502139
27	0xbf0b8018	-0.5449233
28	0xbe615df0	-0.2200849
29	0xbeda72eb	-0.426658
30	0xbe2b46f1	-0.16726281
31	0xbf0db8b5	-0.55359966
32	0xbeb852f0	-0.36000776
33	0x3c9a2edf	0.018821178
34	0xbec504e7	-0.38480303
35	0xbe872d7f	-0.26401898
36	0xbf3af3d6	-0.73028314
37	0xbe17aea2	-0.14812711
38	0xbe42def3	-0.19030361
39	0x3eb36e44	0.35045063
40	0xbdf8f518	-0.12156123
41	0xbd8841a5	-0.06653146
42	0xbd66c1c4	-0.056337133
43	0x3e239a23	0.15976767
44	0xbf4b44b9	-0.7940174
45	0xbe4b91f2	-0.19879892
46	0x3f08c860	0.5343075
47	0xbc5f943a	-0.01364618
48	0x3db11c35	0.08647958
49	0x3ec89364	0.3917495
50	0x3d959ed4	0.07305685
51	0xbd595db5	-0.05306788
52	0x3ec3ce83	0.38243493
53	0xbc332747	-0.010934657
54	0xbe079564	-0.13240582
55	0xbdf69fc7	-0.12042194
56	0x3f194cbf	0.5988273
57	0x3e8916fc	0.26775348
58	0xbe37f8b7	-0.17965971
59	0xbd44868c	-0.047979876
60	0x3cab5998	0.020916745
61	0xbed5318a	-0.41639358
62	0xbdee40eb	-0.11633476
63	0xbda45856	-0.08024661
64	0x3cbbaf09	0.022910612
65	0x3f2bf752	0.67174256
66	0xbeff182e	-0.49823135
67	0xbeebdeae	-0.4606833
68	0xbe7b076c	-0.2451455
69	0xbf5e23ef	-0.8677358
70	0xbde36ab3	-0.11104336
71	0xbf89b012	-1.0756857
72	0xbf2c6468	-0.6734071
73	0xbda1327c	-0.07870957
74	0x3cec116f	0.028816907
75	0xbe8de99e	-0.27717298
76	0xbf391b95	-0.7230771
77	0x3dfeee0b	0.12447747
78	0x3dff87a9	0.12477047
79	0x3e5958fd	0.21225353
80	0x3cf291e5	0.029610584
81	0xbe7df117	-0.24799
82	0xbe9ce060	-0.30639935
83	0x3e370fee	0.1787717
84	0x3ec57dd0	0.3857255
85	0x3e2e43b0	0.17018008
86	0xbd607465	-0.054798502
87	0xbdf78c97	-0.12087362
88	0xbdd6cc22	-0.10488154
89	0xbf3bd935	-0.73378307
90	0x3df9d077	0.12197965
91	0x3e81e7cb	0.25372157
92	0xbe284f90	-0.164366
93	0xbe4ad255	-0.19806798
94	0xbd0791c5	-0.033098
95	0x3e37e735	0.17959292
96	0xbf3ff0af	-0.7497663
97	0x3da9f01a	0.08297749
98	0x3e3bfad7	0.18357407
99	0xbe3eb1c9	-0.18622507
100	0xbe0ba0a3	-0.13635497
101	0x3e118d48	0.14214051
102	0x3f134df4	0.5754082
103	0xbe637693	-0.22213201
104	0xbe5a83c4	-0.21339327
105	0xbfc80de7	-1.5629243
106	0x3fb381ab	1.4023947
107	0x3f5fffa2	0.8749944
108	0x3d7e3bb4	0.062068656
109	0x3f14c0e2	0.58106816
110	0xbd2125be	-0.039342634
111	0x3f12e741	0.57384115
112	0x3e947f4e	0.29003376
113	0xbe385390	-0.18000627
114	0x3f27eec4	0.655987
115	0x3e06f269	0.1317841
116	0x3ee8a00e	0.45434612
117	0xbe39a7ac	-0.18130368
118	0xbe68d46d	-0.22737284
119	0xbe26e642	-0.16298774
120	0xbe95eed0	-0.29283762
121	0x3e87ef1b	0.2654961
122	0x3e0480f2	0.12939814
123	0xbe7b13c8	-0.24519265
124	0x3f4506a3	0.7696325
125	0xbe53f392	-0.20698383
126	0xbef54e86	-0.4791147
127	0x3e8cb6dc	0.2748326
128	0x3e7f8fb5	0.24957164
129	0xbe959caf	-0.29221103
130	0xbe795b8a	-0.24351326
131	0x3eaef75e	0.341731
132	0xbf0b8f1a	-0.5451523
133	0x3e72ac78	0.23698604
134	0x3ec60a2b	0.38679633
135	0xbeaceafe	-0.33773035
136	0xbedbc8f7	-0.42926762
137	0xbec7701c	-0.3895272
138	0x3e2f21b2	0.17102697
139	0x3e452f4d	0.19256325
140	0x3e9a10a8	0.30090833
141	0x3f08b5d8	0.5340247
142	0x3e0f6e06	0.14006814
143	0x3e7ee243	0.24891
144	0x3e96ecb2	0.2947746
145	0xbe14c0d7	-0.14526688
146	0x3ea756ca	0.32683402
147	0x3e9b98ed	0.3039011
148	0x3f06e0f4	0.52687
149	0x3f2a5a38	0.6654391
150	0x3e837bf7	0.25680515
151	0x3f24b0c7	0.6433224
152	0x3f357521	0.7088185
153	0x3e9fe1f2	0.3122707
154	0x3e1674f1	0.14693047
155	0x3f280822	0.6563741
156	0x3f629e65	0.8852294
157	0x3e511c6c	0.20420998
158	0x3e0e3b58	0.13889825
159	0xbeb1037a	-0.34572965

classify.bias f4 [4]
0	0x3ca7f3e2	0.020502035
1	0xbc12e147	-0.008964843
2	0xba8f80dd	-0.0010948438
3	0x3c9f5e96	0.019454282
