70-伍彬-深圳/Week1/model.pth (torch, 5787 bytes, 4 tensors)

embedding.weight f4 [28, 20]
-1.6085422 -0.18837868 -0.69993496 -1.4756092 1.074529 2.225855 -0.2770546 -0.4729638
-1.6299237 -0.08025538 -0.52430534 -0.2518487 0.6214676 1.2290442 0.6916735 -1.5462579
1.2611133 0.5908725 2.7217302 1.6612453 -2.4558342 0.7839322 0.32401767 -0.65286016
-1.0821636 -0.47850686 0.6943829 -1.1371834 0.48976374 -1.1406908 -1.2488501 2.70798
-0.12802866 0.7777101 -0.35968834 0.26992682 0.6584035 -0.106662646 1.0008873 -1.1268537
1.2217137 0.40728846 -1.3731468 -1.0910969 1.6022068 -0.2503851 -1.9900992 2.5999603
-1.7664814 1.9099814 1.5870334 -1.5106556 -0.35466486 -1.0057003 -1.8803912 -3.3639538
1.1551305 0.94697225 -1.4812827 -1.6701525 1.5644879 -0.27598393 0.72071415 1.069525
0.9415057 1.3462986 1.6619463 -0.17272362 1.6775045 0.36172542 0.8565854 1.2705271
-0.6825744 0.58238184 -0.2335033 -0.531754 -1.3343897 -0.017859066 -0.23278458 1.1327983
-0.21769238 0.5227315 -0.06816209 0.24423932 0.23682132 0.69015425 0.48861042 -0.2421281
-0.76146847 -0.120228685 0.36532304 0.16191135 -0.23824891 1.5913731 0.07846385 0.25180358
-0.81001747 -1.295035 1.655962 0.06592847 0.042156726 -0.7300947 0.6906757 -0.033927
-0.15762201 0.23774654 0.094684646 -0.35952124 -0.39034355 -0.836326 -0.38017493 -0.5279646
2.024715 -0.8570215 1.232159 -1.2063503 -1.154522 -0.66704714 0.33370268 0.6523797
0.1304144 -0.16858384 0.17851157 0.3570103 -0.43869826 -0.2067608 1.0586133 -1.3494695
-0.39552447 -0.019265221 0.3618981 0.06495302 0.48415682 0.19516632 1.6097103 -0.88956094
0.34433115 -1.141672 0.10953431 2.1913242 0.7426123 -0.8071112 0.04201338 -0.25154564
0.530748 -1.0964133 0.76586246 0.2911964 -0.63173497 -1.1640725 0.32666495 0.9414637
1.0938245 0.6877467 0.394036 -0.24233359 -1.2459533 1.0151385 1.4450544 -0.44904494
1.2275605 1.4966012 0.33507136 0.35172978 0.4772531 1.1623449 -0.71224236 -0.5013712
-1.4726963 0.61347026 -2.279946 -0.6111759 -0.2570112 0.87401915 -0.3977949 0.8088508
-0.24593277 0.75659543 1.5948327 1.3677998 -0.28760496 0.050060198 0.29784063 1.9338945
0.561508 -0.351086 0.3099785 -0.6072792 0.56428295 0.03947962 -0.029705964 0.33155462
-0.06347145 -0.76224583 1.3107251 1.2638884 0.032993317 0.87435234 2.5963473 -0.68489146
-0.72989833 -1.352867 0.29807466 0.6412791 -1.735422 -0.2756048 -0.8039518 -0.4064825
-0.52523047 0.10718112 -1.0771054 0.80770105 -0.6447105 1.1218603 0.4253381 -0.33207482
-0.6360867 -0.69833744 1.6450347 0.83811575 -0.19048569 -2.1294184 -1.3418478 -1.2558943
1.2496737 -0.0626055 -2.0498493 0.03714313 0.42789152 0.97600824 0.88747954 -1.1514758
-3.1324444 -2.041779 -2.0213938 0.58701617 -0.9731242 0.8228652 -1.0032003 -0.72299355
-0.5123771 -0.5110584 -0.4551587 0.65476954 -0.17379455 -0.45990908 2.2883205 0.43851042
0.74941546 0.356021 -0.63830197 1.1102293 1.3816488 0.73048186 -1.0457473 0.18178886
00000000: b6e4 cdbf 57e6 40be f02e 33bf c3e0 bcbf
00000010: 2b8a 893f 6974 0e40 1ada 8dbe 5028 f2be
00000020: 57a1 d0bf ef5c a4bd e038 06bf 50f2 80be
00000030: 8018 1f3f 5251 9d3f 8411 313f c7eb c5bf
00000040: 296c a13f 6c43 173f d430 2e40 b0a3 d43f
00000050: 632c 1dc0 c8af 483f a5e5 a53e d821 27bf
00000060: 5684 8abf dafe f4be 14c3 313f 3a8f 91bf
00000070: 50c2 fa3e 2802 92bf 52da 9fbf 8b4f 2d40
00000080: f219 03be 0218 473f 1229 b8be d933 8a3e
00000090: 228d 283f f271 dabd 131d 803f be3c 90bf
000000a0: 1d61 9c3f 1d88 d03e 46c3 afbf 10a9 8bbf
000000b0: 1d15 cd3f 7a32 80be 92bb febf c065 2640
000000c0: 101c e2bf 457a f43f e923 cb3f 2a5d c1bf
000000d0: a296 b5be caba 80bf a9b0 f0bf 054b 57c0
000000e0: 51db 933f c66c 723f ac9a bdbf 8fc7 d5bf
000000f0: 2441 c83f c44d 8dbe b980 383f 32e6 883f
00000100: 8406 713f 8353 ac3f a8ba d43f 76de 30be
00000110: 78b8 d63f 1334 b93e 2e49 5b3f a2a0 a23f
00000120: 32bd 2ebf fa16 153f 7d1b 6fbe 0821 08bf
00000130: 48cd aabf 2d4d 92bc 155f 6ebe 89ff 903f
00000140: c0ea 5ebe bbd1 053f 9198 8bbd df19 7a3e
00000150: 4a81 723e f3ad 303f 252b fa3e 6ef0 77be
00000160: 99ef 42bf 753a f6bd 9f0b bb3e 17cc 253e
00000170: 86f7 73be 1db2 cb3f a8b1 a03d 66ec 803e
00000180: 4e5d 4fbf b5c3 a5bf 90f6 d33f 8105 873d
00000190: 88ac 2c3d 7ce7 3abf 1fd0 303f 0af7 0abd
000001a0: aa67 21be d473 733e 06ea c13d 2b13 b8be
000001b0: 1cdb c7be 7619 56bf 4aa6 c2be b028 07bf
000001c0: ee94 0140 c365 5bbf 63b7 9d3f b069 9abf
000001d0: 60c7 93bf 9ac3 2abf 14db aa3e 5b02 273f
000001e0: 5a8b 053e 3ea1 2cbe bdcb 363e 0eca b63e
000001f0: 0f9d e0be 1ab9 53be a480 873f 6bbb acbf
00000200: 2f82 cabe 19d2 9dbc b54a b93e 1706 853d
00000210: 67e3 f73e aed9 473e fd0a ce3f 44ba 63bf
00000220: 2c4c b03e 4f22 92bf 8653 e03d a83e 0c40
00000230: d71b 3e3f d79e 4ebf 3916 2c3d 97ca 80be
00000240: 1adf 073f 4557 8cbf 900f 443f b217 953e
00000250: 62b9 21bf 5400 95bf a140 a73e c403 713f
00000260: 7102 8c3f 2b10 303f 16bf c93e 4c26 78be
00000270: 667b 9fbf 0ff0 813f 8bf7 b83f 38e9 e5be
00000280: b420 9d3f a190 bf3f 798e ab3e ed15 b43e
00000290: 855a f43e b8c7 943f 8455 36bf dd59 00bf
000002a0: 5081 bcbf 630c 1d3f a3ea 11c0 0676 1cbf
000002b0: f996 83be b8bf 5f3f c6ab cbbe d910 4f3f
000002c0: cdd5 7bbe 3db0 413f 7a23 cc3f 1014 af3f
000002d0: f540 93be ec0b 4d3d 917e 983e db89 f73f
000002e0: fdbe 0f3f 8bc1 b3be 80b5 9e3e a676 1bbf
000002f0: d974 103f 62b5 213d ec59 f3bc 87c1 a93e
00000300: 52fd 81bd 8b22 43bf d7c5 a73f 18c7 a13f
00000310: 0024 073d 8ed5 5f3f 8e2a 2640 0c55 2fbf
00000320: 9eda 3abf bf2a adbf 3e9d 983e de2a 243f
00000330: 4f22 debf 131c 8dbe c9cf 4dbf 791e d0be
00000340: 8175 06bf c681 db3d 97de 89bf 7fc5 4e3f
00000350: bf0b 25bf 1e99 8f3f eac5 d93e b605 aabe
00000360: 94d6 22bf 3ec6 32bf 7f90 d23f c18e 563f
00000370: ae0e 43be 6448 08c0 abc1 abbf 25c1 a0bf
00000380: 4ff5 9f3f 5037 80bd bb30 03c0 6523 183d
00000390: 9914 db3e addb 793f dc31 633f 8f63 93bf
000003a0: f879 48c0 82ac 02c0 845e 01c0 b146 163f
000003b0: ab1e 79bf 4ba7 523f de68 80bf 1b16 39bf
000003c0: 252b 03bf b9d4 02bf 900a e9be fa9e 273f
000003d0: 33f7 31be 3479 ebbe d873 1240 7084 e03e
000003e0: b1d9 3f3f 6248 b63e c267 23bf fe1b 8e3f
000003f0: ded9 b03f dc00 3b3f 0cdb 85bf dc26 3a3e

layer.weight f4 [20, 20]
-0.25427365 -0.32855994 -0.5742305 -0.45635527 0.22853446 -0.31188267 -0.36367685 0.24670961
-0.10765136 0.62287986 0.03969842 -0.48710355 -0.35107112 -0.6002286 0.005804268 -0.10912661
0.027990475 0.20453185 -0.51237905 -0.5212433 0.20597519 0.21990971 0.3430185 0.44447342
-0.31245115 0.3078643 0.29746616 -0.055243738 0.04582219 -0.7093304 -0.36454847 0.36786032
0.26356485 0.28768116 0.26268256 0.09792728 -0.13645093 -0.094691984 0.5193508 0.55475605
0.10144007 0.103407316 0.54875374 0.3392597 -0.17296039 0.26758835 0.615108 -0.3951895
0.08816645 -0.89047045 -0.08981627 0.3570179 0.3093262 0.4935864 0.14544146 -0.070835285
-0.03678442 -0.15925097 0.70868844 0.26241773 -0.089924864 0.10719598 0.33161253 0.44677398
-0.33715382 0.24963877 0.58736295 -0.22813164 0.18045874 -0.5453974 -0.24807866 0.2137289
0.38195297 0.53706986 0.22555742 -0.16531451 -0.14552717 0.056671083 0.5637491 0.26314557
0.18686266 0.1804831 0.45498243 0.23899142 -0.18862733 0.49110788 0.43400422 -0.44272065
-0.10121109 -0.5213228 -0.035496414 0.55113584 0.46593246 0.19325505 0.2593605 0.07724394
0.116969354 0.02892999 0.5075541 0.3182863 -0.04751704 0.28957322 0.5799377 0.3254672
-0.17574963 0.3821239 0.30575845 -0.34064296 0.06893082 -0.52218753 -0.15126422 0.3166843
0.37979862 0.6150002 0.19846426 -0.02460478 0.012613483 -0.27107865 0.71003616 0.4023731
-0.3577066 -0.37027654 -0.44774672 -0.545506 0.20377378 -0.37584543 -0.26860085 0.5404655
-0.1618087 0.8863351 0.30008876 -0.5507822 -0.45111242 -0.37912935 -0.14029971 0.0861883
0.07438216 0.014995369 -0.7320624 -0.52955663 -0.056662347 -0.12239599 -0.59396243 -0.48510355
0.15903512 -0.3436098 -0.52498764 0.3219619 0.063760966 0.6397193 0.4111158 -0.25697345
-0.36536312 -0.4282489 -0.14722173 -0.08870002 0.03496053 0.18290922 -0.4717298 -0.53771544
-0.24025026 -0.19451174 -0.528606 -0.26589903 0.25005284 -0.384526 -0.50230706 0.2417262
-0.1334883 0.72432524 0.20843418 -0.47038716 -0.39085448 -0.46358928 -0.17413275 -0.10709565
0.105610035 -0.0827068 -0.5006757 -0.6184168 -0.2705617 -0.111126415 -0.672758 -0.42683917
0.2809401 -0.23847151 -0.29327184 0.48910323 -0.032704957 0.7316758 0.1357372 -0.27886984
-0.456402 -0.61084086 -0.11035997 -0.10873735 -0.061414447 -0.10699804 -0.34703723 -0.5765066
-0.039580658 0.23506464 0.38992622 0.35414943 -0.18656845 0.36856702 0.5821254 -0.38735908
0.008603839 -0.60337526 -0.054563843 0.3255638 0.45027268 0.43565235 0.10037195 0.005089143
-0.09497647 0.05385054 0.7354788 0.35122025 0.17068943 0.11940628 0.41579413 0.14920019
-0.26226813 0.2579485 0.41055554 -0.43544203 0.017587125 -0.49169967 -0.21237415 0.25612643
0.5795417 0.31874195 0.028919179 0.13792571 0.030847581 -0.09740548 0.5181287 0.539602
-0.18744725 -0.25384197 -0.6437555 -0.10654783 0.32920256 -0.407766 -0.3963667 0.2769075
-0.00653994 0.76842654 0.05861112 -0.47041494 -0.49159667 -0.5710257 -0.09015501 -0.04494083
00000000: 2830 82be 0239 a8be c500 13bf 66a7 e9be
00000010: f004 6a3e 16af 9fbe da33 babe 72a1 7c3e
00000020: 5178 dcbd 0e75 1f3f cf9a 223d a365 f9be
00000030: 98bf b3be 95a8 19bf bb31 be3b c67d dfbd
00000040: 484c e53c cc70 513e 462b 03bf 3370 05bf
00000050: 29eb 523e 0330 613e 1fa0 af3e 0592 e33e
00000060: 99f9 9fbe 64a0 9d3e 7c4d 983e 4247 62bd
00000070: 0cb0 3b3d ad96 35bf 19a6 babe 3058 bc3e
00000080: f9f1 863e f24a 933e 547e 863e 198e c83d
00000090: cbb9 0bbe dfed c1bd 2df4 043f 7e04 0e3f
000000a0: d0bf cf3d 37c7 d33d 207b 0c3f 73b3 ad3e
000000b0: 871c 31be 5701 893e b877 1d3f 4756 cabe
000000c0: 9d90 b43d dff5 63bf 98f1 b7bd 0dcb b63e
000000d0: 0160 9e3e 5bb7 fc3e 9bee 143e 1712 91bd
000000e0: 43ab 16bd b012 23be 9b6c 353f 9e5b 863e
000000f0: 872a b8bd 9189 db3d 1ec9 a93e 8fbf e43e
00000100: 6d9f acbe 4ea1 7f3e 6b5d 163f 579b 69be
00000110: 2dca 383e 2a9f 0bbf 5508 7ebe c0db 5a3e
00000120: 578f c33e 697d 093f 86f8 663e 3548 29be
00000130: 1305 15be f01f 683d dc51 103f 04bb 863e
00000140: ed58 3f3e 90d0 383e 75f3 e83e 2bba 743e
00000150: 8627 41be 7e72 fb3e cd35 de3e 48ac e2be
00000160: c347 cfbd 6975 05bf b064 11bd 3d17 0d3f
00000170: b38e ee3e a7e4 453e e6ca 843e 1232 9e3d
00000180: a18d ef3d 96fe ec3c 11ef 013f 6cf6 a23e
00000190: 3aa1 42bd f142 943e cc76 143f a3a3 a63e
000001a0: b6f7 33be bea5 c33e 5f8c 9c3e c168 aebe
000001b0: 9a2b 8d3d 15ae 05bf 02e5 1abe 7224 a23e
000001c0: f774 c23e a770 1d3f 373a 4b3e f78f c9bc
000001d0: c8a8 4e3c d2ca 8abe eec4 353f d903 ce3e
000001e0: 5225 b7be e394 bdbe 0f3f e5be 48a6 0bbf
000001f0: 13aa 503e d06e c0be 0d86 89be f25b 0a3f
00000200: 2eb1 25be dbe6 623f 3ca5 993e 1000 0dbf
00000210: 35f8 e6be 3e1d c2be baaa 0fbe 7e83 b03d
00000220: ad55 983d 23af 753c 7168 3bbf 0691 07bf
00000230: c716 68bd c0aa fabd ec0d 18bf 7e5f f8be
00000240: 1ada 223e a0ed afbe 9765 06bf 31d8 a43e
00000250: 1c95 823d a5c4 233f c57d d23e 0692 83be
00000260: e010 bbbe 7143 dbbe 4bc1 16be 5ba8 b5bd
00000270: c632 0f3d 8e4c 3b3e 9186 f1be b8a7 09bf
00000280: 2a04 76be 162e 47be b952 07bf eb23 88be
00000290: ed06 803e 98e0 c4be 3297 00bf 1387 773e
000002a0: 28b1 08be 616d 393f c56f 553e 96d6 f0be
000002b0: 141e c8be 935b edbe db4f 32be f754 dbbd
000002c0: 134a d83d 2f62 a9bd 482c 00bf 9050 1ebf
000002d0: 1087 8abe 3f96 e3bd de39 2cbf aa8a dabe
000002e0: 61d7 8f3e e031 74be ba27 96be bd6b fa3e
000002f0: a2f5 05bd 1b4f 3b3f b1fe 0a3e 07c8 8ebe
00000300: 86ad e9be 1160 1cbf 6804 e2bd b0b1 debd
00000310: b78d 7bbd ca21 dbbd ddae b1be f095 13bf
00000320: 541f 22bd c9b4 703e 69a4 c73e 1353 b53e
00000330: cd0b 3fbe d1b4 bc3e 2c06 153f ee53 c6be
00000340: 1ef7 0c3c cd76 1abf 567e 5fbd 4cb0 a63e
00000350: 248a e63e d30d df3e cf8f cd3d d3c2 a63b
00000360: 0683 c2bd 6292 5c3d 5748 3c3f 24d3 b33e
00000370: 36c9 2e3e 488b f43d f8e2 d43e efc7 183e
00000380: 0248 86be d311 843e 5634 d23e 42f2 debe
00000390: e012 903c 0fc0 fbbe 9c78 59be 0123 833e
000003a0: d85c 143f 2532 a33e eae7 ec3c 663c 0d3e
000003b0: 11b4 fc3c 867c c7bd 15a4 043f 5b23 0a3f
000003c0: 2cf2 3fbe 93f7 81be 29cd 24bf c035 dabd
000003d0: 3d8d a83e b5c6 d0be 93f0 cabe d2c6 8d3e
000003e0: fe4c d6bb 9ab7 443f 3712 703d 3ada f0be
000003f0: 8fb2 fbbe be2e 12bf 31a3 b8bd e013 38bd

layer.bias f4 [20]
-0.37624943 0.4884576 0.3703031 0.4073405 0.32803237 0.39477435 -0.5598059 -0.56415373
-0.510284 -0.40979597 0.2884223 0.16691336 -0.5137364 -0.43070546 -0.37331706 0.12773077
-0.72646487 -0.39311343 -0.44474462 -0.30156147
00000000: c4a3 c0be 1d17 fa3e 5e98 bd3e ef8e d03e
00000010: dcf3 a73e dd1f ca3e 714f 0fbf 616c 10bf
00000020: f9a1 02bf c7d0 d1be 16ac 933e 56eb 2a3e
00000030: 3b84 03bf 6d85 dcbe 6a23 bfbe dbcb 023e
00000040: 9af9 39bf 2a46 c9be 91b5 e3be 4466 9abe

classify.weight f4 [1, 20]
1.207016 -0.37117568 -0.33701447 -0.47460783 -0.46419126 -0.28977227 1.1534997 1.1265414
1.1998068 1.1655705 -0.321596 -0.36642703 1.1749185 1.0142354 0.95098966 -0.4445312
1.0906689 1.0020682 1.1456537 1.0564017
00000000: 807f 9a3f bd0a bebe 298d acbe ccff f2be
00000010: 7aaa edbe 085d 94be e1a5 933f 8232 903f
00000020: 4593 993f 6a31 953f 3ba8 a4be 539c bbbe
00000030: bb63 963f 77d2 813f 0f74 733f 9899 e3be
00000040: 0a9b 8b3f c543 803f c8a4 923f 2c38 873f
