05-白晓东-北京/week2/homework1_Demo/model.pth (torch, 5915 bytes, 5 tensors)

embedding.weight f4 [28, 20]
000000 8b b7 b1 3f bf 84 4c bf be 02 82 3f ca 25 e5 bf
       1.3884138 -0.79890054 1.0157087 -1.7902157
000010 3e 64 1e be 59 14 cf bd b8 83 90 3f 3f 71 90 3f
       -0.15467927 -0.10111303 1.1290197 1.128456
000020 ff 78 98 3e 69 44 9a 3f 6a 5e 8d 3f f4 65 bc 3e
       0.29779813 1.2052127 1.1044438 0.36796534
000030 a6 68 2f 3f 65 02 1e be 51 f1 21 bf b1 a5 e5 3f
       0.68519056 -0.15430601 -0.63258845 1.794119
000040 d5 7e c0 3e a1 42 bd 3e 9a 8e 6d 3f fd d3 9e 3c
       0.37596765 0.36964896 0.9279572 0.019388193
000050 66 61 e9 bf 57 0e d5 3f 19 f6 ab bf d1 84 2e c0
       -1.8232849 1.6645001 -1.3434478 -2.7268565
000060 79 c7 67 bf cd 86 7d 3f af de 61 bf 68 b3 e2 3e
       -0.90538746 0.99033815 -0.88230413 0.442775
000070 77 af 64 3f 9d a4 26 c0 d0 1a 44 3f c9 a1 7c bd
       0.8933024 -2.6037972 0.7660341 -0.061677728
000080 5d eb ad 3e 05 72 d5 3f ea c7 1f 40 78 55 e7 bf
       0.3396863 1.6675421 2.4965768 -1.8072958
000090 67 3e 48 3f 8f d8 10 bf 02 3c bc be 56 3a 4c 3d
       0.7822022 -0.5658044 -0.36764532 0.04986032
0000a0 45 5c 04 c0 64 e7 41 3f fc c9 b5 bf ad 6f 53 bf
       -2.0681317 0.757437 -1.4202266 -0.8259228
0000b0 cc 0c a2 3d a7 ba 12 be 95 87 04 bf d8 c0 be 3e
       0.07912597 -0.14329015 -0.5176938 0.37256503
0000c0 74 55 3c 40 5c 9f 29 bf 8b 07 0c 40 e2 5d 22 40
       2.9427156 -0.6625879 2.1879604 2.5369802
0000d0 4a 12 83 40 92 c1 48 bf 33 48 0c bf 1d c9 4f bf
       4.0959826 -0.78420365 -0.5479767 -0.8116625
0000e0 a8 0a 1b 3f af c3 9a 3e c5 3e 51 3f 22 5a 82 bf
       0.60563135 0.3022742 0.81736404 -1.0183756
0000f0 89 70 02 c0 7f f9 89 3e cb f8 40 be f0 78 b4 be
       -2.0381186 0.26948163 -0.18844907 -0.35248518
000100 ae 9d f3 be a5 91 8c 3d 29 e3 c1 bf 82 35 b9 3f
       -0.47581238 0.06863717 -1.5147449 1.4469454
000110 f1 91 00 40 df 2b 40 c0 78 27 a3 3f 64 02 11 3e
       2.0089076 -3.0026777 1.274642 0.14161068
000120 34 d8 3a be 1e 65 60 3f b6 fa cd 3f 4b e2 f3 bf
       -0.18246537 0.8765429 1.6092136 -1.9053434
000130 78 36 74 40 f6 14 14 3e 73 10 61 bf 92 b6 71 bf
       3.8158245 0.14461121 -0.87915725 -0.94419205
000140 95 c2 1f 3f 8d 9f 52 bf e8 e8 9a 3f 34 b2 1e be
       0.62406284 -0.82274705 1.2102327 -0.15497667
000150 08 8f db be f8 04 7a 3f 61 3c 4e bf 57 93 ec 3f
       -0.42882562 0.9766383 -0.8056088 1.8482465
000160 b6 fe 84 bf cb 47 ac 3d 17 a1 e3 bf b6 b7 54 3f
       -1.0390232 0.08412131 -1.7783536 0.8309282
000170 86 a2 a7 3e 5a f5 cc bf 02 8f 87 bf 25 8d b6 be
       0.32741183 -1.6012375 -1.0590518 -0.3565456
000180 a8 60 6f 3f f5 39 86 3f aa ca 7b bf fd 66 7c 3e
       0.9350686 1.0486437 -0.98356116 0.24648662
000190 7b 8c a2 3e 74 7b 62 bf 0e fd 3d bf 09 31 d8 be
       0.31747803 -0.88469625 -0.74214256 -0.4222491
0001a0 c9 8c 37 be 2e 36 65 bf 4d 13 88 be f3 6b 6d 3f
       -0.17924799 -0.89535797 -0.26577225 0.9274284
0001b0 c7 80 06 be 52 15 fb 3f 22 c9 4b 3f 2a ae c1 3e
       -0.13135062 1.9615881 0.7960378 0.3782819
0001c0 ae 8e 15 c0 3d 30 43 bf 45 3e ef 3f 05 e8 91 3f
       -2.3368335 -0.7624548 1.8690878 1.1398932
0001d0 21 09 af 3e af d7 0c 3f 38 90 4c bf 30 30 02 bf
       0.34186652 0.5501661 -0.7990756 -0.5085478
0001e0 de dc 00 3f 93 40 f5 3f 7d 3b 66 3f a6 34 a6 3f
       0.50337017 1.9160331 0.8993452 1.2984817
0001f0 c1 c5 bd bf 18 b5 5a 3f 47 fc a3 3d db 57 89 bf
       -1.4825975 0.8543258 0.080071025 -1.0729936
000200 54 c1 37 c0 a4 03 37 3f 08 d6 71 3f 2e af 04 3f
       -2.8711748 0.7148993 0.9446721 0.51829803
000210 bb 91 03 3f 39 58 18 3f 40 7f b3 bf 7a 7e 3b be
       0.5139424 0.5950962 -1.4023209 -0.18309966
000220 79 3f 60 bf 80 76 f3 3f db e1 b8 3f ec af b3 bf
       -0.8759685 1.9020538 1.4443926 -1.4038062
000230 75 b5 e3 3f 70 6c 88 3f b9 b2 2a bf ce bd 80 3f
       1.7789751 1.0658092 -0.6667896 1.0057924
000240 dc 8e 9d 3e 11 8b 40 3d 4f e3 b4 3f 12 0a 8c 3f
       0.30773056 0.047007624 1.4131869 1.0940573
000250 54 a5 15 bf 61 db 87 3d 7c 95 4e bf b3 07 3d bf
       -0.58455396 0.0663364 -0.80696845 -0.73839873
000260 64 be 91 bf 8a f3 c9 be 0a b0 78 3f c8 bc 85 bf
       -1.1386228 -0.39443618 0.97143614 -1.0448236
000270 ae 07 1b 3f da ef 95 3f ba fd e5 be 3b 9b 06 40
       0.60558593 1.1713822 -0.4492014 2.1032245
000280 de 2e 85 3f 6b 36 e0 3f 79 d0 de 3e e4 08 6f be
       1.0404928 1.7516607 0.43518427 -0.23343235
000290 00 ce 2d be 53 6f 67 3e 5e c7 b1 3f 06 82 aa bf
       -0.16973114 0.2260106 1.3888967 -1.332093
0002a0 61 7c 2e c0 3a c4 a0 3b 9a cc 29 3d 5f 69 19 bf
       -2.7263415 0.0049062045 0.04145489 -0.5992641
0002b0 b0 42 60 bf e9 6d af 3f 6f 87 f2 be 56 19 94 3f
       -0.8760176 1.3705417 -0.47368953 1.1570232
0002c0 8a b4 00 40 44 a0 b2 3f c6 00 08 bf 92 6e da 3b
       2.0110192 1.3955159 -0.5312618 0.006666013
0002d0 4d 77 86 be b0 3e c4 3e 3a ab 9a bf f2 03 6c bf
       -0.26262894 0.38329077 -1.2083504 -0.9219352
0002e0 46 d0 06 be 00 91 40 3d 97 ff fa 3d c5 73 96 3f
       -0.13165388 0.047013283 0.12255781 1.175408
0002f0 de ea d9 bf 1b b9 14 3f 1d 58 da bf 18 2f 72 3d
       -1.7024801 0.5809495 -1.705814 0.059126943
000300 fa bb 2c 3f bf cf ac 3f ff ae a1 bf 67 ab b5 3f
       0.6747433 1.3500899 -1.263153 1.4192933
000310 ea a6 98 bd 15 3b c4 bf ee a1 54 bf 3d 84 00 40
       -0.07453711 -1.533053 -0.83059585 2.0080712
000320 95 62 5c bf 2f 2f 06 be 0b cb 0e bf 89 97 15 3f
       -0.86087924 -0.13103937 -0.5577857 0.5843435
000330 88 f4 aa 3f bc 30 b4 3f 28 e8 3b 3f a9 66 5f 3f
       1.3355875 1.4077373 0.7340112 0.8726602
000340 22 46 39 bf f5 23 c7 be 06 35 17 c0 d4 ca 95 3f
       -0.7237264 -0.3889462 -2.3626113 1.1702523
000350 7c 5b 66 bf fd 91 5e be 57 48 25 3e 8f 8d fd be
       -0.89983344 -0.21735378 0.16140877 -0.49522063
000360 11 b5 66 3f dc 18 63 bd 63 0f b8 be 96 9e fe be
       0.90120035 -0.05544363 -0.3594924 -0.49730366
000370 e9 cb 46 3e 83 d2 17 bf 6d 2a c9 bf b8 92 9d 3f
       0.19413723 -0.5930559 -1.5716072 1.23104
000380 c6 68 70 be 69 a3 4c 3f e0 4b 3e 3f bb 8d 7b 3f
       -0.23477468 0.79936844 0.74334526 0.9826314
000390 dc da 3d 3f 5a 24 2c 3f 39 ea c8 be b1 fb 14 3f
       0.7416208 0.6724297 -0.39241198 0.5819655
0003a0 0a a9 4e bf 39 9d 9e bf b0 00 84 3f cb 80 8f be
       -0.80726683 -1.239173 1.031271 -0.2802795
0003b0 a3 5f 33 be 84 73 2b 3f 87 ef 9c bf a8 d6 b2 bf
       -0.17516951 0.6697314 -1.2260598 -1.3971758
0003c0 43 29 bf 3f 2f 22 bf be b3 08 d2 bf c6 bb 72 3e
       1.4934467 -0.37330768 -1.6408905 0.23704442
0003d0 b7 9f 18 bf e9 0c 92 3e bd bb a9 3f 07 5f 0e bf
       -0.59618706 0.28525475 1.3260418 -0.5561375
0003e0 43 94 80 3e a7 2a a1 3f f5 78 56 bd 20 c2 ad be
       0.25113115 1.2591141 -0.052361447 -0.33937168
0003f0 f1 39 05 3e 9c 7d 3e 3f 55 86 e2 bf bb 75 5b bf
       0.13010384 0.74410415 -1.7697245 -0.8572652

layer.weight f4 [20, 20]
000000 82 52 91 be 9c 70 09 3e f4 77 32 bc 3a 17 fe be
       -0.2838326 0.13421863 -0.010892857 -0.49627095
000010 96 c3 a4 bc f9 d1 54 bd 2d 9b 76 be 82 49 2b 3d
       -0.020112794 -0.051958058 -0.24082632 0.04181815
000020 0f 58 f2 3e 87 52 0b bf 15 e8 05 3f c7 46 ed 3d
       0.47332808 -0.544228 0.52307254 0.11585765
000030 86 dd d6 3e 81 f5 b2 3d 82 a7 29 3e 63 c4 39 3d
       0.41965884 0.087382324 0.16567805 0.045353305
000040 d5 82 80 3e 9d 26 64 bd d0 72 15 3e 8a db 1f be
       0.25099817 -0.055700887 0.14594579 -0.15611091
000050 dc 1b 20 3e ec 93 a5 bd 16 2d f1 3e fb 76 82 3e
       0.15635628 -0.080848545 0.4710471 0.254814
000060 cc e6 bb 3e 85 4c 8d 3d 26 1e b8 be a6 56 ff be
       0.36699522 0.068993606 -0.359605 -0.49870795
000070 4d 71 c7 3e 12 02 0f be 6c 2e 0d be e4 22 c7 be
       0.3895363 -0.13965634 -0.1378724 -0.38893807
000080 6b eb e4 3d 79 01 0f 3d 5f 97 24 3e 63 86 96 3e
       0.11177715 0.034913514 0.16073368 0.29399404
000090 4d a1 7d be 06 20 b6 be c6 bf d2 3d 51 03 9c 3d
       -0.24768563 -0.35571307 0.10290484 0.0761782
0000a0 18 2d 8e 3e 5f 9a 43 bd e3 8b e9 3e d7 2a 83 3e
       0.2776878 -0.04775464 0.45614538 0.25618622
0000b0 13 7b ad 3e 20 6e e5 3d 66 48 a5 be c5 17 04 bf
       0.3388296 0.11202645 -0.32281798 -0.5159877
0000c0 55 95 cc 3e 99 70 42 3c 0d 0d 5a bd 15 d9 c5 be
       0.3995768 0.011867666 -0.053235102 -0.38642183
0000d0 cf e9 bc 3d 42 63 ec 3c 15 19 bc 3d 47 77 5e 3e
       0.09224283 0.028855924 0.091844715 0.21725188
0000e0 f0 46 15 be 17 d1 f3 be 83 9d 60 3d 99 3c d5 bb
       -0.14577842 -0.4762046 0.054837715 -0.006507468
0000f0 3b fc 92 be e7 c5 c7 3e 3b d8 0e be 34 85 c0 be
       -0.28708062 0.39018175 -0.13949673 -0.37601626
000100 b2 9e 9c 3c eb bf dc bc 7c 90 c0 be f9 b8 8c 3d
       0.01911864 -0.026946982 -0.37610233 0.06871218
000110 ba d6 ec 3e 45 57 eb be d0 81 ff 3e bf 2e f0 3c
       0.46257573 -0.4596502 0.49903727 0.029319165
000120 08 6f d2 3e 91 b6 b1 3c f3 13 14 3e ed 7e df bd
       0.41100335 0.0216935 0.14460735 -0.10912881
000130 6e 8e 9c 3e 63 6e ae bd 80 67 04 3e 13 b3 a4 bd
       0.30577415 -0.08517148 0.12930107 -0.08041968
000140 73 a8 53 3e 2c f8 06 bb f4 85 e1 3e 34 4e 2b 3e
       0.20669727 -0.00205947 0.4404751 0.16729051
000150 55 b9 67 3e e9 43 3c 3d 43 fe ae be e2 f9 10 bf
       0.22629292 0.0459632 -0.3417836 -0.5663129
000160 61 92 d9 3e c1 fc 7d 3d 48 15 ef bd e1 6e e4 be
       0.4249449 0.062008623 -0.11673981 -0.44615844
000170 a2 08 c1 3d 2e 12 7e 3c 4d 01 3e 3d d7 43 03 3e
       0.09425475 0.015507264 0.04638796 0.12818848
000180 32 8a 37 be de 05 f3 be 37 e9 ad bd b3 07 84 bc
       -0.17923811 -0.47465414 -0.08491748 -0.016116953
000190 61 c2 f5 be 39 a7 bb bc b5 33 1f bc bc 89 d5 be
       -0.47999862 -0.022906886 -0.009716918 -0.41706645
0001a0 48 e8 69 bd 1c 66 cd bd 8e e0 a4 be 6b 0d 2c bd
       -0.057106286 -0.100292414 -0.32202572 -0.042004984
0001b0 94 67 c2 3e 52 f9 2a bf 10 3f 19 3f 93 01 32 bc
       0.3796965 -0.6678668 0.5986185 -0.010864633
0001c0 09 09 01 3f cd 6f 94 3e 09 c3 92 3e ed 75 d4 bd
       0.5040441 0.28991547 0.28664425 -0.10374055
0001d0 77 53 7a 3e d5 5a 8a bc 94 eb f8 3d 6d 55 0b be
       0.24445902 -0.016889015 0.12154308 -0.13606806
0001e0 9b cf 7a 3c fa 18 ba bd bf 07 b9 3a ca a8 99 bd
       0.015308286 -0.09086795 0.0014116688 -0.07502897
0001f0 63 13 ab 3e 02 8e b9 3e 07 aa 01 be d6 ab 1e bd
       0.33413228 0.36241156 -0.12662517 -0.038738094
000200 3b 67 88 bd 26 29 41 3e 3a 69 51 bc 0d a0 90 be
       -0.06660315 0.18863353 -0.012781436 -0.2824711
000210 99 a1 8d bc f5 7e e8 bc 87 bb 66 be 0c 89 24 3e
       -0.01728897 -0.02838085 -0.22532474 0.16067904
000220 b4 d4 15 be 1f 1d 0a bf 3f c8 40 3e bf e2 8c 3e
       -0.14631921 -0.53950685 0.18826388 0.27516744
000230 84 9b c8 3e 3a f0 54 3d 2e 54 f7 3e c0 38 3d 3e
       0.3918115 0.05198691 0.48306412 0.1847868
000240 37 7c bd 3e e1 ed e0 3d eb 14 c2 be c6 d9 1e bf
       0.3700883 0.10982872 -0.37906584 -0.62051046
000250 d5 b9 ff 3e 4b d3 2c 3d 59 7e 1e bd 98 38 c6 be
       0.49946466 0.042193692 -0.038694713 -0.38715053
000260 52 6b 26 bc 01 29 88 bd 39 ed 24 bd a1 1b 01 3e
       -0.010157423 -0.06648446 -0.040265296 0.12608196
000270 e8 33 16 be 68 db 13 bf eb 55 e6 bd 46 9f 8f bd
       -0.14668238 -0.5775666 -0.11246856 -0.07012801
000280 79 a2 f0 be bf 8d 87 3b b7 f2 d8 bd 39 1e ca be
       -0.46998957 0.0041367705 -0.10593169 -0.39476183
000290 e8 c4 f9 bd 39 27 92 bc 3a 31 ba be 9a 28 85 bc
       -0.1219576 -0.017840968 -0.36365682 -0.016254712
0002a0 cd f5 8c 3e 42 54 0d bf b4 9d f5 3e ee 4a 55 be
       0.2753128 -0.5520669 0.4797188 -0.20829365
0002b0 12 eb a0 3e 33 0e 03 3e 8f 50 38 3e d1 22 52 be
       0.31429344 0.12798385 0.1799948 -0.20521094
0002c0 bf 7c 0a 3e cd b7 0e be 54 7c 3b 3e dd 77 0f be
       0.1352415 -0.13937302 0.18309146 -0.14010568
0002d0 1b a8 d0 be 8a 50 2e 3c 4d 2f 94 3b fd 06 6f be
       -0.40753254 0.010639319 0.0045222403 -0.2334251
0002e0 60 d6 e8 bd 1b 74 db bd 62 f4 b8 be 08 29 f0 b9
       -0.11369014 -0.10715505 -0.3612395 -0.00045806938
0002f0 ec fe 8e 3e 93 c3 0a bf ff cc b6 3e 58 c0 4c bd
       0.27928865 -0.5420467 0.35703275 -0.04998812
000300 24 fc 76 3e 11 1c 94 3e 90 b9 05 3e d3 b4 3c be
       0.24119622 0.28927663 0.13059068 -0.18428354
000310 9b cf 56 3e 21 af d7 bd 83 89 66 bc cb 38 24 be
       0.20977633 -0.1053145 -0.014070871 -0.1603729
000320 7a 5b de be d6 2f 87 3d b8 da 1e bc 02 e1 94 be
       -0.43429166 0.06600921 -0.009695701 -0.29077917
000330 1c c0 e4 bd d1 17 87 3d 81 94 b6 be a5 f0 21 3d
       -0.111694545 0.065963395 -0.35660174 0.039536137
000340 d8 90 c4 3e 35 bc 03 bf 4b 76 d9 3e f4 24 91 3b
       0.38391757 -0.51459056 0.42473063 0.004429454
000350 90 13 b3 3e 9a f8 57 3e e3 49 37 3e 84 03 35 be
       0.34975863 0.21090928 0.1789928 -0.17677122
000360 db b7 97 3e 0c 7f 16 bc 7e e4 17 3e e8 0e 46 bd
       0.29632458 -0.009185564 0.14833257 -0.04835406
000370 cb eb e8 be a0 8d 2f 3d b2 15 29 3d 9a 6a bb be
       -0.45492396 0.042859674 0.041280456 -0.36604768
000380 bb 37 00 be 4e 02 a1 3d ae 6e c2 be 3b 5c d8 3c
       -0.1252126 0.07861768 -0.37975067 0.026411166
000390 34 c9 d5 3e 31 b3 08 bf 9a 20 28 3f d1 38 81 bd
       0.41755068 -0.53398424 0.65674746 -0.06309665
0003a0 c7 41 56 3e 09 62 86 3e 7a c9 01 3e 79 1c a0 be
       0.2092353 0.2624667 0.12674513 -0.31271723
0003b0 47 92 68 3e 8c d0 77 be 15 e5 cc 3d 4e e5 9e bd
       0.2271205 -0.24200648 0.100046314 -0.0775858
0003c0 60 35 d1 3e 4c 51 47 bd 7e be c4 3e 5b d2 ca 3d
       0.40861034 -0.048661515 0.38426584 0.09903403
0003d0 f5 49 d9 3e 9e bc 70 3d 39 c2 a8 be c2 cf a6 be
       0.42439237 0.05877363 -0.3296068 -0.32580382
0003e0 f3 4b 96 3e 7c ae 53 be c4 3a a2 bc 27 9f e1 be
       0.2935482 -0.2067203 -0.019803412 -0.44066736
0003f0 73 da 4e 3d 38 a8 0b be 69 3e 52 3d 15 e9 85 3e
       0.0505013 -0.13638389 0.05132905 0.2615439

layer.bias f4 [20]
000000 c4 09 ca be 51 35 07 bf eb 8b 14 bf 61 78 c5 be
       -0.39460576 -0.5281573 -0.58026 -0.38568404
000010 a3 33 bc be 7c 25 0b bf b0 62 2d bd ad bd 3e bf
       -0.36758146 -0.5435407 -0.042330444 -0.7450817
000020 7a 1c 98 be b4 d5 1b be dd 6a ed be 59 4f f4 be
       -0.29709226 -0.1521824 -0.46370593 -0.47716787
000030 b8 10 0e bf 4d f5 86 be 8b 20 e5 be 86 03 3b be
       -0.5549426 -0.26359025 -0.4475139 -0.18263063
000040 a3 fd 0c bf 31 58 1c bf 6b f2 25 3e f3 c7 08 bf
       -0.5507452 -0.6107207 0.16205756 -0.534301

classify.weight f4 [3, 20]
000000 c2 6c 57 3f b9 d4 ab bf ef 73 b5 bf e0 3f 7d 3f
       0.84150326 -1.3424293 -1.4176005 0.9892559
000010 56 22 c0 bf b1 53 78 3f 92 5b 06 bf e1 a9 99 bf
       -1.5010478 0.970027 -0.52483475 -1.2004968
000020 f3 51 6b 3f 3d b8 4e 3f e8 4d 67 3f 24 f8 79 3f
       0.9192192 0.80749875 0.9035325 0.9764426
000030 79 9f a1 bf 5c 65 88 3f 24 79 52 3f 06 9c 2a 3f
       -1.2626792 1.0655932 0.82216096 0.6664432
000040 03 d8 a2 bf 11 9c 9d bf 2f c9 8d bd 5c d7 c4 bf
       -1.2722172 -1.2313253 -0.06923138 -1.5378222
000050 6d a9 84 bf b9 67 7b 3f b8 ce 64 3f 31 7c b0 bf
       -1.0364205 0.98205143 0.8937793 -1.37879
000060 4a ab 9e 3f 19 99 86 bf bf bd a7 3e c3 2f 9a 3f
       1.2396023 -1.0515472 0.32761952 1.2045826
000070 cf 5e 67 bf 30 d3 76 bf 5a 01 ab bf ba eb af bf
       -0.9037904 -0.96415997 -1.3359787 -1.3743813
000080 91 dc 84 3f 62 c3 87 bf 40 00 73 bf 03 07 6e bf
       1.0379812 -1.0606501 -0.94922256 -0.9297945
000090 1d 60 7f 3f d3 8c 8e 3f 31 99 8f 3d 22 24 8d 3f
       0.9975603 1.1136726 0.07011641 1.1026652
0000a0 50 60 c3 bc 3a be 0a bc 51 9a 87 be 85 e7 bb 3e
       -0.023849636 -0.008468205 -0.26484922 0.36700073
0000b0 1b 69 12 3d d4 0e 03 3e a1 5d 04 3f c5 7f 58 3d
       0.035744768 0.12798625 0.51705366 0.052856226
0000c0 3e 61 81 3d 35 9d 9c 3e 40 36 fe bb b4 54 08 3d
       0.063173756 0.3058869 -0.007757932 0.033283904
0000d0 42 2d c2 3d 9c c5 af 3e 95 29 94 bb 5b 0d c4 3e
       0.094812885 0.3433045 -0.0045215585 0.3829144
0000e0 1e 73 3d be 23 44 68 39 01 01 c7 3e 88 a8 9f bd
       -0.18500945 0.00022150627 0.38867953 -0.07795817

classify.bias f4 [3]
000000 6b 96 a3 3d 3e e3 4e be 86 95 c4 3e
       0.07987674 -0.20203874 0.38395327
