88-房飞越-河南/week1/model.pth (torch, 5787 bytes, 4 tensors)

embedding.weight f4 [28, 20]
0	0x3fa40167	1.2812928
1	0x3f96fa74	1.1795182
2	0x3f02c912	0.5108806
3	0xbeaa64fc	-0.3328017
4	0x3e599992	0.21249989
5	0xbf1de361	-0.6167508
6	0x3e9aca1f	0.3023233
7	0xbea7ade8	-0.32749867
8	0x3ec03c0f	0.3754582
9	0xbf6c95b0	-0.92415905
10	0x3f8a6231	1.0811216
11	0x3ec3db9c	0.38253486
12	0x3f0bf57c	0.54671454
13	0x3e257e50	0.16161466
14	0x3f1e8d88	0.6193471
15	0xbf911d20	-1.1337013
16	0xbeff8eb0	-0.4991355
17	0xbedae2b9	-0.427511
18	0x3f62f7ae	0.8865918
19	0x3f2b69ff	0.6695861
20	0x400a91ee	2.1651568
21	0x3f099ff8	0.5375972
22	0xbf33a325	-0.70170814
23	0x3fb5a0bf	1.4189681
24	0x3eb4e007	0.3532717
25	0x3fbf1a34	1.4929872
26	0xc0469df2	-3.1033902
27	0xbe2f6dcb	-0.17131726
28	0xbebb3495	-0.36563554
29	0x3f1e3d97	0.6181273
30	0x3fc37262	1.5269282
31	0xbe3daa6d	-0.18522044
32	0xbed429a4	-0.4143802
33	0x4003b002	2.0576177
34	0x3e3bdd88	0.18346226
35	0xbd7598a8	-0.059960037
36	0x3f13ba36	0.5770601
37	0xbf2a30e5	-0.6648086
38	0xc00e4602	-2.223023
39	0x3ef7217e	0.4826774
40	0xbf92ff4b	-1.1484159
41	0xbed8a6e2	-0.4231482
42	0x3eb1fad5	0.34761682
43	0x3f236e99	0.63840634
44	0xc03b0c82	-2.9226384
45	0x3ed28097	0.4111373
46	0xbf83a997	-1.028613
47	0x3fa1ea24	1.2649579
48	0xbe0890e6	-0.13336524
49	0xbf2122f1	-0.6294394
50	0x3ff0617a	1.8779747
51	0x3e54487d	0.20730777
52	0xbfdf62fb	-1.7452081
53	0x4009182c	2.1421003
54	0xbf9e3db0	-1.2362576
55	0xbf911bf2	-1.1336653
56	0x3f2a4fe8	0.6652818
57	0xbdae5aae	-0.085133895
58	0x3f331c0c	0.6996467
59	0x3f14d5c1	0.5813866
60	0x3f9141cf	1.1348208
61	0x3fa6823a	1.3008492
62	0xbfe6ad26	-1.8021591
63	0x3fa8a233	1.3174499
64	0x3f752a65	0.95767814
65	0x40102f32	2.2528806
66	0x3f5cbe35	0.8622773
67	0x3f688025	0.90820533
68	0xbf595975	-0.84902126
69	0x3f8c76d1	1.097376
70	0x3fda5afa	1.7059014
71	0xbfaf02f0	-1.3672771
72	0x3ed939fa	0.42427045
73	0x3f85c867	1.0451783
74	0x3bdddf02	0.0067709694
75	0x3f04858b	0.5176627
76	0x3bfae702	0.007656933
77	0xbee18cca	-0.44052726
78	0xbe1900a5	-0.14941652
79	0xbec8b570	-0.39200926
80	0x3f36bf06	0.7138523
81	0xbe14a004	-0.14514166
82	0xbf6d3fa1	-0.92675215
83	0xbc0ea301	-0.008705855
84	0xbfd0a48c	-1.6300216
85	0xbd926e81	-0.07149983
86	0x3f84fe36	1.0390079
87	0x3f2311c7	0.63699
88	0x3f2e2170	0.6801977
89	0x3f0e1b04	0.5550997
90	0x3f318724	0.69346833
91	0xc02f14a7	-2.7356355
92	0x3f80f563	1.0074886
93	0xbfc0450b	-1.502107
94	0x3fd5c781	1.6701509
95	0xc054acf1	-3.3230555
96	0x3f29813e	0.6621283
97	0x3eb64288	0.35597634
98	0x3f0c5dae	0.54830444
99	0xbf1dadeb	-0.615935
100	0xbf08530e	-0.5325173
101	0xbec7174e	-0.38884968
102	0x3f98ed9b	1.1947511
103	0x4029e3a1	2.6545184
104	0x40101eff	2.2518919
105	0xbf94ec49	-1.1634609
106	0x3e4b0d5a	0.19829312
107	0xbfce0a17	-1.6096829
108	0x3f6070af	0.8767194
109	0xbd290e7a	-0.04127357
110	0xbf73aec2	-0.95188534
111	0xbfa69e92	-1.3017142
112	0x3f389b1c	0.7211168
113	0x3ed7b4b3	0.4213005
114	0x3fe1e5ed	1.7648293
115	0x3fa9d898	1.3269224
116	0xc03aef17	-2.920843
117	0xbf767629	-0.9627405
118	0x3f60dd84	0.87838006
119	0x3f822c0b	1.0169691
120	0x3f0b016c	0.54299045
121	0xbf6a27b3	-0.91466826
122	0xbf44c008	-0.76855516
123	0xbf5a36f5	-0.8524011
124	0xbecbbc49	-0.39792088
125	0xbf9dbe51	-1.2323705
126	0xbfcefdc1	-1.617119
127	0x400adf82	2.1698918
128	0xc039a077	-2.900419
129	0xbe9aa88c	-0.30206716
130	0xbd90e7bf	-0.07075452
131	0xc03bae82	-2.932526
132	0xc00896d5	-2.134206
133	0xbf16c71b	-0.5889756
134	0xbea12d0f	-0.3147969
135	0x3f931fdc	1.1494098
136	0x3e157673	0.14595966
137	0xbf9a54fb	-1.2057184
138	0xbf5d4bf5	-0.86444026
139	0x3fe3b8d8	1.7790785
140	0xbfa48605	-1.28534
141	0xbed41063	-0.41418752
142	0xc01588cd	-2.3364747
143	0xc01b2691	-2.424229
144	0xbffee6a6	-1.9914138
145	0x3f6220e4	0.8833144
146	0xbebbc3f7	-0.36672947
147	0xbf2641ec	-0.6494434
148	0x3fae6958	1.3625898
149	0x3e90cecc	0.28282773
150	0x3e0f46a0	0.13991785
151	0x3d76d3da	0.06026063
152	0xbef5c87b	-0.48004517
153	0xbedef63e	-0.43547243
154	0x3f4c9fba	0.79931223
155	0xbfab463f	-1.3380812
156	0x3f1a6c25	0.60321265
157	0xbfde4d62	-1.7367365
158	0x3f79d29c	0.9758699
159	0xbfd45fb9	-1.6591712
160	0xbdc5a3ce	-0.09650384
161	0x3fb523fc	1.4151607
162	0xbe470726	-0.1943632
163	0xbe7a56d8	-0.24447191
164	0xbea82d00	-0.32846832
165	0x3fbc6ad2	1.4720099
166	0x3e3ea6ae	0.18618271
167	0x3f4f10de	0.8088511
168	0xbf482a38	-0.7818942
169	0x3dba0c4a	0.09084375
170	0x3fda3b30	1.7049313
171	0x3f355dc4	0.708462
172	0xbf9066e8	-1.1281404
173	0xbfde6b0d	-1.7376419
174	0xbf4ddbcb	-0.804135
175	0xbf1385f6	-0.57626283
176	0xbf4d3543	-0.80159396
177	0x3f94bf76	1.1620929
178	0xbd8537ec	-0.06504807
179	0xbf051c05	-0.5199588
180	0xbf87c2ca	-1.060632
181	0xbf9232d4	-1.1421762
182	0x402db377	2.7140787
183	0x3f9c0e4f	1.2191867
184	0xbfc91dfd	-1.5712277
185	0xc01f9f94	-2.4941149
186	0x3e54dd90	0.20787644
187	0xbdf7aa40	-0.120930195
188	0x3fcd3547	1.6031884
189	0xbf7cbc3b	-0.98724717
190	0xbfaa6ebc	-1.3315043
191	0x3fd82205	1.6885382
192	0x3fe6b2de	1.8023336
193	0x3f9b760c	1.21454
194	0x3f0fbed4	0.56150556
195	0x3ef3ccda	0.47617227
196	0xbfd82389	-1.6885844
197	0x3f3d634a	0.7397963
198	0x3fb15056	1.3852642
199	0xbeb41a37	-0.3517625
200	0x3f418235	0.75589305
201	0xbe882660	-0.26591778
202	0x3e20770f	0.15670417
203	0xbf8e955d	-1.1139332
204	0xbf1907c2	-0.5977746
205	0x3d9144c2	0.07093193
206	0xbf5ce1dd	-0.8628214
207	0x3e1b7181	0.15180017
208	0x3fcffc3c	1.6248851
209	0xbf2c3b8b	-0.67278355
210	0x3e889279	0.2667425
211	0x3dab2314	0.083563
212	0xbfe1386a	-1.7595341
213	0x3e9031b5	0.28162923
214	0xbe8760e0	-0.26441097
215	0xb9f9e64c	-0.00047664565
216	0x40494ef8	3.1454449
217	0xbe7aca85	-0.24491318
218	0x3f5f175f	0.87145036
219	0xbe6eb097	-0.23309551
220	0xbecb9c25	-0.39767566
221	0x3f15bd3f	0.5849189
222	0xbd8a92c2	-0.06766273
223	0x3f3b7d12	0.7323772
224	0xbf9051a3	-1.1274914
225	0x3f87b916	1.0603359
226	0xbfab6f2c	-1.3393302
227	0x3f829f47	1.0204858
228	0xbf0f333f	-0.5593757
229	0x3e9fd891	0.31219915
230	0x3f1b5960	0.6068325
231	0xbf043ce0	-0.5165539
232	0x3f076feb	0.5290515
233	0xbffe799e	-1.9880865
234	0xbf7bf74b	-0.98424214
235	0x3f02e339	0.51127964
236	0xbdea77ae	-0.11448608
237	0xbf835755	-1.0261027
238	0x3ed50618	0.41606212
239	0xbfa4f38f	-1.2886828
240	0xbfdfbbd4	-1.7479196
241	0xbf73ec71	-0.95282656
242	0xbf27bbe4	-0.65521073
243	0xbf6a2715	-0.91465884
244	0x400405b3	2.0628479
245	0xbfd0cbc1	-1.6312181
246	0x3f736894	0.9508145
247	0xc0165a74	-2.3492708
248	0x3f8d3637	1.103217
249	0xbee45c45	-0.44601646
250	0xbf2dc787	-0.6788258
251	0x3f7e22b9	0.9927173
252	0x3f42d4e5	0.761061
253	0x3f85a153	1.0439857
254	0x3f27fc7f	0.65619653
255	0x3f8e692a	1.1125844

layer.weight f4 [20, 20]
0	0x3e836d80	0.2566948
1	0xbe01e997	-0.12686764
2	0xbdb9174b	-0.09037646
3	0xbe674418	-0.2258457
4	0xbe546227	-0.20740567
5	0x3f4c0ab4	0.7970383
6	0xbda56f69	-0.080778904
7	0x3ef78917	0.4834678
8	0xbe8cd7c1	-0.27508357
9	0x3e17d79c	0.14828342
10	0x3e8092cf	0.25112006
11	0xbea3856e	-0.31937736
12	0xbf123ed1	-0.571271
13	0xbe550fd8	-0.20806825
14	0xbea4784f	-0.32123038
15	0xbebcdb8f	-0.3688626
16	0x3e74586e	0.23861858
17	0xbeac132c	-0.33608377
18	0xbe86e4be	-0.2634639
19	0xbf14c8b5	-0.58118755
20	0xbe84958b	-0.25895342
21	0x3db6dad1	0.08928455
22	0x3e855afd	0.2604598
23	0x3e0b33fa	0.13594046
24	0x3dc5e5c1	0.09662963
25	0xbf4e97fe	-0.8070067
26	0x3e85f12e	0.26160568
27	0xbecddb69	-0.4020646
28	0x3e8f4b9f	0.27987382
29	0xbd90c85d	-0.07069466
30	0xbe4a1529	-0.19734634
31	0x3e9f7d1c	0.31150138
32	0x3ec030fa	0.37537366
33	0x3e7ce0d6	0.24695143
34	0x3ef5fe65	0.4804565
35	0x3f3cddd1	0.73775965
36	0xbf0ab398	-0.5418029
37	0x3ef382f1	0.47560838
38	0x3e89f622	0.26945597
39	0x3ef07beb	0.46969542
40	0x3e9c9912	0.30585533
41	0xbe1b4576	-0.15163216
42	0xbe793a25	-0.24338587
43	0xbe6e44ad	-0.23268385
44	0xbe3483f3	-0.1762846
45	0x3f0cd0e1	0.55006224
46	0xbd2089ef	-0.039194044
47	0x3f119091	0.56861216
48	0xbe852cb4	-0.26010668
49	0x3d6c9ae9	0.05776492
50	0x3ed57e88	0.41698098
51	0xbe8b072e	-0.27153915
52	0xbf014506	-0.50495946
53	0xbcd7c845	-0.026340613
54	0xbeda590b	-0.4264606
55	0xbf308178	-0.68947554
56	0x3eec305c	0.46130645
57	0xbe552a48	-0.2081691
58	0xbe5c70d2	-0.21527413
59	0xbe8b30f9	-0.271858
60	0xbe60bea3	-0.21947722
61	0x3d9409f1	0.07228459
62	0x3e071392	0.13191059
63	0xbd772080	-0.06033373
64	0x3dabac71	0.083825
65	0xbf36f9eb	-0.71475095
66	0x3dc4f549	0.09617097
67	0xbf2aad2b	-0.66670483
68	0x3ea434ff	0.32071683
69	0x3d125aa3	0.03573097
70	0xbf142033	-0.5786163
71	0x3e6f5e3c	0.23375791
72	0x3f26f233	0.65213317
73	0x3e3fbf0d	0.18725224
74	0x3ec85548	0.39127564
75	0x3f316540	0.6929512
76	0xbf1b8c98	-0.60761404
77	0x3eb229e2	0.3479758
78	0x3e3d2d00	0.18474197
79	0x3e9bb87d	0.3041419
80	0xbe30a003	-0.1724854
81	0x3b96c0be	0.0046006134
82	0x3e3685a7	0.17824422
83	0x3e6180f1	0.22021843
84	0x3e7ddde3	0.24791674
85	0xbf0acfe6	-0.5422348
86	0x3eaf3a44	0.3422414
87	0xbeca9216	-0.3956458
88	0x3e166014	0.14685088
89	0xbcd3e396	-0.025865357
90	0xbf0d9ceb	-0.5531756
91	0x3f00f1ea	0.5036913
92	0x3f2c6936	0.6734804
93	0x3e40240e	0.18763754
94	0x3f1d299c	0.61391616
95	0x3ed787eb	0.42095885
96	0xbef56b05	-0.47933212
97	0x3e6025e4	0.21889454
98	0x3eaaa99b	0.33332524
99	0x3f1bcad9	0.60856396
100	0xbe921851	-0.28534177
101	0x3e5891bd	0.21149345
102	0x3ea5722b	0.32313666
103	0x3e475b86	0.19468507
104	0x3e69a9b0	0.22818637
105	0xbf363a90	-0.7118311
106	0x3ebe9baa	0.37228137
107	0xbf149722	-0.5804311
108	0x3e72f639	0.23726739
109	0xbdd1269a	-0.10212441
110	0xbee301f0	-0.44337416
111	0x3ecf44b5	0.40482107
112	0x3ef8993d	0.48554412
113	0x3e2dc9f8	0.16971576
114	0x3f1395a3	0.576502
115	0x3f38b347	0.72148556
116	0xbf0b616f	-0.54445547
117	0x3f1dcdcd	0.6164215
118	0x3ed11556	0.4083659
119	0x3f216893	0.6305019
120	0xbde48ce3	-0.111596845
121	0x3d6cf647	0.057852056
122	0x3e93f7a7	0.2889988
123	0x3e3633a3	0.17793135
124	0x3d57ca95	0.05268343
125	0xbf2af523	-0.667803
126	0x3ec716f7	0.38884708
127	0xbf0b765b	-0.5447747
128	0x3e7573a4	0.23969895
129	0x3d670356	0.056399666
130	0xbf028ad2	-0.50993073
131	0x3ecbca14	0.3980261
132	0x3f1ca5d4	0.61190534
133	0x3e454cd9	0.19267596
134	0x3f0faf72	0.56127083
135	0x3f00b730	0.5027952
136	0xbef8a58a	-0.48563796
137	0x3e803062	0.25036913
138	0x3df0839e	0.11743854
139	0x3f14c2c5	0.58109695
140	0xbe6838a6	-0.2267786
141	0x3deb1f5f	0.11480593
142	0x3e8341ef	0.2563624
143	0x3e44fcc8	0.19237053
144	0x3e7f5b21	0.24937107
145	0xbf39bfe4	-0.72558427
146	0x3e2f99dc	0.17148536
147	0xbf29f809	-0.66394097
148	0x3e6f9472	0.23396471
149	0xbdd213a2	-0.10257651
150	0xbf114ada	-0.5675484
151	0x3e9902d0	0.29884958
152	0x3f035a22	0.51309407
153	0x3dc2db31	0.09514464
154	0x3f0d7e2b	0.5527064
155	0x3f150bd3	0.5822117
156	0xbeb1abd0	-0.34701395
157	0x3e895885	0.26825348
158	0x3e1f3dbe	0.15550897
159	0x3ed1a406	0.40945452
160	0xbe1f981b	-0.15585367
161	0x3ea9f04a	0.33191139
162	0x3eaf3497	0.3421981
163	0x3e33cf88	0.17559636
164	0x3eb2d478	0.34927726
165	0xbf752464	-0.9575865
166	0x3ed9e57b	0.42557892
167	0xbf1740cc	-0.5908325
168	0x3eb44b39	0.3521364
169	0xbd7edf9e	-0.062224977
170	0xbf2667ed	-0.6500233
171	0x3e936505	0.2878801
172	0x3ee91d01	0.4552994
173	0x3e8c9a27	0.2746136
174	0x3f0679a1	0.5252934
175	0x3ed55d6b	0.41672835
176	0xbf1b4138	-0.6064639
177	0x3efe2323	0.49636182
178	0x3e746299	0.23865737
179	0x3f1ac725	0.6046012
180	0xbd9057de	-0.07048009
181	0x3e324ea0	0.17412806
182	0x3e69af7e	0.22820851
183	0x3e35c1da	0.1774973
184	0x3e166dba	0.14690295
185	0xbf1831c3	-0.5945093
186	0x3e634f7a	0.22198287
187	0xbf17e2bb	-0.5933034
188	0x3eb2e55d	0.34940615
189	0xbd952a34	-0.0728344
190	0xbedc9c53	-0.43088016
191	0x3ed42832	0.41436917
192	0x3f2fc3aa	0.68657935
193	0x3d958074	0.07299891
194	0x3f0c8621	0.54892164
195	0x3f4983f5	0.78716975
196	0xbf1c0510	-0.60945225
197	0x3ef99bdb	0.4875172
198	0x3ec9fdbe	0.39451402
199	0x3f2a3964	0.6649382
200	0xbe0d7db9	-0.1381749
201	0x3c470081	0.012146116
202	0x3e7c9134	0.24664766
203	0x3e87b325	0.26503864
204	0x3d623c91	0.055233542
205	0xbf25b1ac	-0.6472423
206	0x3e80f4ba	0.25186712
207	0xbf1adc6b	-0.6049258
208	0x3e483730	0.19552302
209	0xbb764545	-0.003757791
210	0xbe84199d	-0.2580079
211	0x3ef504ca	0.47855216
212	0x3f03b124	0.5144217
213	0xbd744e35	-0.059644897
214	0x3ef80851	0.48443845
215	0x3f190dbb	0.59786576
216	0xbf175e6c	-0.5912845
217	0x3f03b9ba	0.5145527
218	0x3e2f1f6e	0.17101833
219	0x3f031c5d	0.51215154
220	0x3e08cd0d	0.1335947
221	0xbd4ed3e8	-0.05049506
222	0xbe913285	-0.28358856
223	0xbd907482	-0.07053472
224	0xbd6fd45a	-0.058552124
225	0x3f1cf152	0.61305726
226	0xbe446acb	-0.19181363
227	0x3f0e732b	0.5564448
228	0xbea17ec0	-0.31542015
229	0x3e0436d6	0.12911543
230	0x3dcc8348	0.099859774
231	0xbe560307	-0.20899592
232	0xbecf2654	-0.4045893
233	0xbe823299	-0.25429228
234	0xbf0fe80f	-0.5621347
235	0xbf2789c8	-0.6544461
236	0x3f0c04cc	0.5469482
237	0xbe7cac73	-0.24675159
238	0xbe996f69	-0.29967812
239	0xbeb8994a	-0.3605445
240	0xbd6d2547	-0.05789688
241	0xbc48c249	-0.012253352
242	0x3e5f497f	0.2180538
243	0x3da55a2e	0.08073841
244	0x3d87a45a	0.066231444
245	0xbf1e09f2	-0.61733925
246	0x3e977bb7	0.29586574
247	0xbf1a9551	-0.6038409
248	0x3e078488	0.1323415
249	0xbd2dac85	-0.042400856
250	0xbee913be	-0.45522875
251	0x3ecca1dc	0.3996724
252	0x3f27b5e6	0.6551193
253	0x3dd7121e	0.105015025
254	0x3eea599e	0.45771497
255	0x3f300bff	0.68768305

layer.bias f4 [20]
0	0x3df73ba0	0.120719194
1	0xbe9ca498	-0.30594325
2	0x3eacc8b4	0.33746874
3	0xbea6fa06	-0.32612628
4	0xbe40eb1f	-0.18839692
5	0xbf123b04	-0.571213
6	0xbeac21ff	-0.33619687
7	0xbeb07831	-0.344667
8	0xbee36688	-0.44414163
9	0xbf187577	-0.5955424
10	0xbe9ef6d0	-0.31047678
11	0x3ea72818	0.32647777
12	0xbeb2d6a2	-0.34929377
13	0x3ecb496c	0.39704454
14	0x3e9ea6b5	0.30986562
15	0x3d620212	0.055177756
16	0xbdb684a7	-0.0891202
17	0xbe8ff780	-0.28118515
18	0xbe8a1fc1	-0.2697735
19	0xbea12fd6	-0.31481808

classify.weight f4 [1, 20]
0	0xbeef2ba8	-0.46712995
1	0x3f75e592	0.9605342
2	0xbf02c5a2	-0.51082814
3	0x3f878271	1.0586683
4	0x3f820898	1.0158873
5	0x3f7ef184	0.99587274
6	0x3f8948dc	1.072536
7	0x3f9575f5	1.1676623
8	0x3f7feeac	0.9997356
9	0x3f6340ae	0.8877057
10	0x3f7a675c	0.97813964
11	0xbed8d7db	-0.42352185
12	0x3f8fdef5	1.1239916
13	0xbee2a854	-0.4426905
14	0xbec5c7d6	-0.38629025
15	0xbecddc53	-0.40207157
16	0x3f8d275d	1.1027638
17	0x3f8b50a6	1.0883987
18	0x3f7e78ca	0.9940306
19	0x3f849030	1.0356503
