99-谢睿尧-西安/week 2/model.pth (torch, 5979 bytes, 5 tensors)

embedding.weight f4 [28, 20]
-0.3019507 0.33041835 -0.81458884 1.5514495 -0.0065320595 -0.015992016 0.6509109 0.5778326
-0.32268408 -0.6495715 0.8023652 1.5432312 -0.7276691 0.16108862 0.5219425 -0.3116425
0.5805163 -1.3908805 1.1322054 1.840788 -1.7499048 1.5473782 -0.42640558 0.73404425
1.6002455 0.46502 -0.8006929 0.84032255 -1.1851094 1.268763 -2.0395865 -0.07377252
1.6884316 0.2615992 2.0145404 -0.62529445 -1.0938696 1.5423123 0.13211066 0.45773715
1.7009519 -1.3365659 1.2345527 0.9849068 2.0950902 0.67107505 0.34563115 -0.06604644
-2.0583594 0.23091114 0.55228597 -0.17666003 1.0791895 -2.2347183 2.2741718 1.474008
-1.776356 -0.90787756 0.5514595 2.0458632 -0.7150521 0.41647068 -0.056050796 -2.321313
0.793158 1.224652 -0.14275432 0.56278014 -1.0034499 1.6817975 -1.7729418 0.8685881
-0.4341198 -0.3931026 1.925423 -0.4127724 -0.0058939606 0.54466236 0.18587184 3.3001974
0.5978479 -1.6965222 -0.724459 -0.24817736 -0.6422125 0.9050582 1.2561071 -1.0505136
0.36531055 0.6336292 -2.1901834 -2.4536278 -0.7974902 0.8428827 -0.62155807 -0.6633815
1.8322632 -1.0685065 0.90748334 0.2376606 -1.1558747 -1.4388375 0.038637497 0.41808954
1.6743581 0.74165225 -1.4325448 0.55457824 0.006484097 -0.19706713 1.9007981 -0.44700798
0.3437977 1.0431331 -0.09725879 -0.46894133 -2.2888997 0.7039119 -0.858006 -0.6891593
-1.6301131 -0.7148524 0.44455898 -1.0687311 1.2391654 0.3831065 0.14337668 1.0961605
1.0904428 -0.63469654 0.24619952 0.051647216 0.14686483 0.32214114 1.1146986 0.23596317
0.5785402 -0.048312165 -1.1886086 0.90984863 0.696212 0.40101498 -0.8990949 0.52941173
1.1865999 -0.54000044 -0.44961968 1.3497434 -1.4397773 -1.2808746 0.6348225 0.95273197
-0.58905756 -0.5856521 -0.24097845 -1.0540416 1.6166595 0.37019765 -1.5729377 0.58628094
-0.00972558 0.5436052 -2.626639 0.013322884 -0.4126851 0.3028081 -0.13750097 1.2173177
-0.11975174 -0.8768094 1.5213206 0.057095163 -0.437241 0.3133497 -2.1017876 0.89113754
-1.0296538 -0.29458898 -0.07512144 2.2197633 0.4304782 0.49472404 -0.622583 0.1667177
-0.09353301 0.83214504 0.31522983 -0.46538877 1.4646231 0.22878341 -0.7495654 -1.2957535
-0.70856297 -0.6635767 0.24394657 -0.9038664 1.0326794 -0.70778745 0.7984848 -0.1358081
0.09356501 0.16497588 -1.4005594 0.07773151 -1.2654214 -0.5385837 -0.106742375 1.0399481
0.974722 0.3913935 -0.8536217 -0.26091358 2.0068634 0.7287635 0.67879266 0.51658195
0.4028709 1.0600916 -0.46652484 0.2453115 0.8846553 0.44764856 -1.5392306 -0.7742165
0.32683504 -0.6312203 -1.0576242 0.8793201 -0.21587238 -0.89075 1.242219 0.41716745
0.4200652 -0.83871114 0.17950672 0.46872386 0.83685076 0.6592914 0.0809647 0.60661566
-0.61742514 -1.3379195 0.46105957 -0.7577263 -0.020449 -0.15393788 0.7506334 -0.48698288
0.015352708 -0.79834694 -0.43551707 0.2794794 -0.05202955 0.5045851 0.77478546 -0.106044486
00000000: 4899 9abe 982c a93e e588 50bf e695 c63f
00000010: e30a d6bb b001 83bc 19a2 263f d6ec 133f
00000020: d936 a5be 514a 26bf ce67 4d3f 9a88 c53f
00000030: 8648 3abf 6af4 243e 069e 053f 9b8f 9fbe
00000040: b79c 143f 5f08 b2bf 1bec 903f f19e eb3f
00000050: e1fc dfbf 7d10 c63f d551 dabe 53ea 3b3f
00000060: d8d4 cc3f 1a17 ee3e 36fa 4cbf 611f 573f
00000070: aab1 97bf d366 a23f 9688 02c0 0c16 97bd
00000080: 871e d83f 55f0 853e 3bee 0040 4c13 20bf
00000090: eb03 8cbf 7d6a c53f 0448 073e 865c ea3e
000000a0: cbb8 d93f 9714 abbf d305 9e3f da22 7c3f
000000b0: f515 0640 93cb 2b3f 91f6 b03e 5b43 87bd
000000c0: 29bc 03c0 f873 6c3e 9d62 0d3f 5ee6 34be
000000d0: e222 8a3f a005 0fc0 088c 1140 4bac bc3f
000000e0: a25f e3bf aa6a 68bf 732c 0d3f 6cef 0240
000000f0: a80d 37bf a53b d53e 8595 65bd 6490 14c0
00000100: 670c 4b3f 66c1 9c3f 302e 12be 5c12 103f
00000110: 0c71 80bf 2445 d73f c2ef e2bf ca5b 5e3f
00000120: f344 debe be44 c9be 4374 f63f e756 d3be
00000130: 2022 c1bb fe6e 0b3f 3055 3e3e 6f36 5340
00000140: 8f0c 193f a427 d9bf 2576 39bf 3522 7ebe
00000150: 0a68 24bf e5b1 673f 1ec8 a03f 3b77 86bf
00000160: fc09 bb3e 8635 223f f72b 0cc0 3d08 1dc0
00000170: 5128 4cbf 29c7 573f 6e1e 1fbf 5fd3 29bf
00000180: 9a87 ea3f d2c4 88bf d450 683f 4d5d 733e
00000190: b4f3 93bf d42b b8bf 5a42 1e3d d50f d63e
000001a0: 5e51 d63f ecdc 3d3f a15d b7bf d7f8 0d3f
000001b0: 8c78 d43b f7cb 49be 5a4d f33f 3bde e4be
000001c0: 4106 b03e 6385 853f 9e2f c7bd 1419 f0be
000001d0: 557d 12c0 9233 343f 48a6 5bbf be6c 30bf
000001e0: 8ca7 d0bf 9100 37bf 3c9d e33e 2ecc 88bf
000001f0: f99c 9e3f 8926 c43e 56d1 123e fd4e 8c3f
00000200: a193 8b3f 797b 22bf ba1b 7c3e 088c 533d
00000210: bc63 163e afef a43e 72ae 8e3f 54a0 713e
00000220: 361b 143f fae2 45bd 5424 98bf d7eb 683f
00000230: f33a 323f d651 cd3e 152b 66bf 8787 073f
00000240: 81e2 973f 783d 0abf 8d34 e6be 64c4 ac3f
00000250: 9f4a b8bf b3f3 a3bf ba83 223f 3ee6 733f
00000260: 7acc 16bf 4ced 15bf 0ec3 76be d6ea 86bf
00000270: b3ee ce3f 8c8a bd3e 0656 c9bf 8216 163f
00000280: 0a58 1fbc b629 0b3f da1a 28c0 3a48 5a3c
00000290: 764b d3be aa09 9b3e 0ecd 0cbe 11d1 9b3f
000002a0: 6640 f5bd 9576 60bf a2ba c23f 9edc 693d
000002b0: 0dde dfbe 5f6f a03e b083 06c0 9721 643f
000002c0: b2cb 83bf 5ed4 96be 45d9 99bd 9a10 0e40
000002d0: a367 dc3e 784c fd3e 9961 1fbf 0bb8 2a3e
000002e0: 3c8e bfbd 7507 553f ce65 a13e 7047 eebe
000002f0: c578 bb3f 3346 6a3e 85e3 3fbf 40db a5bf
00000300: 6264 35bf 2ae0 29bf 21cd 793e ca63 67bf
00000310: d72e 843f 8f31 35bf 8069 4c3f 4711 0bbe
00000320: 039f bf3d 70ef 283e 8845 b3bf b331 9f3d
00000330: 54f9 a1bf 9fe0 09bf bf9b dabd 051d 853f
00000340: 6287 793f bb64 c83e f486 5abf 7796 85be
00000350: 7370 0040 3f90 3a3f 5bc5 2d3f b73e 043f
00000360: 1845 ce3e 15b1 873f 58dc eebe f032 7b3e
00000370: c578 623f 3132 e53e 8205 c5bf 0d33 46bf
00000380: ec56 a73e a797 21bf 3b60 87bf 1f1b 613f
00000390: a60d 5dbe 3108 64bf 0801 9f3f f996 d53e
000003a0: c912 d73e c6b5 56bf 9cd0 373e 93fc ef3e
000003b0: da3b 563f 52c7 283f d2d0 a53d 2a4b 1b3f
000003c0: 930f 1ebf f240 abbf 0010 ec3e 5afa 41bf
000003d0: a984 a7bc e4a1 1dbe 8329 403f d255 f9be
000003e0: ed89 7b3c 7760 4cbf 18fc debe ed17 8f3e
000003f0: f01c 55bd 7d2c 013f 5758 463f da2d d9bd

layer.weight f4 [20, 20]
-0.18404016 0.17981617 -0.0053815874 0.18214217 -0.1063139 0.021047212 0.100142546 0.23926936
0.106706195 -0.18371384 0.15990122 0.01618012 -0.15986015 -0.25349504 0.21871425 -0.07584484
0.18177545 0.18321311 -0.115804926 -0.093797326 -0.21737863 0.2206997 0.13538784 -0.11499506
-0.045530304 -0.20647666 -0.081859596 0.03523892 -0.6376887 0.055410035 -0.25958422 -0.06326707
-0.016405173 0.0447423 0.23770861 0.18524484 -0.2537324 -0.31435075 0.083526336 0.02326802
0.50687575 0.19022778 0.15565555 0.2216781 -0.5372624 -0.44213465 -0.4259712 -0.029643416
0.09102325 -0.069306165 0.0183404 -0.29447567 -0.08883196 0.061995212 -0.29500732 -0.1471398
0.019697072 -0.29452732 -0.22423105 -0.5922161 0.3850212 0.24689054 0.43928644 -0.046630017
-0.5971388 -0.3651679 -0.45877245 -0.27313855 -0.012254465 -0.124077536 0.30212194 -0.40719795
-0.2302512 0.007225366 -0.4785465 -0.059499513 0.052631132 -0.27652878 -0.3463022 -0.3765745
0.20580713 -0.033858582 0.30936354 0.28688496 0.5605665 0.13736683 -0.014301714 0.12248059
-0.5301595 0.43026745 -0.26723468 -0.08001242 0.21211797 -0.33737606 0.7742552 0.20971693
-0.17669277 -0.08652411 0.37020305 0.28186676 0.014867069 0.15784536 0.030114375 -0.035875425
0.11524238 0.10256185 -0.2286038 0.12014414 -0.25391316 0.22803746 -0.2755453 0.18090816
0.041205246 -0.23956874 0.48653683 -0.23794785 0.11063395 0.08469759 0.00618146 0.3948543
-0.45964244 0.3947785 0.10975423 -0.1552768 0.12146629 0.3617556 -0.07625934 -0.018216437
-0.8283408 0.18363221 -0.5177912 -0.07308112 -0.11021687 0.07507755 0.21059583 -0.31918526
-0.15000217 0.4887925 0.18718629 0.4463457 0.3696854 0.26042143 0.43290958 0.04707046
-0.29260638 -0.6136269 -0.43064988 -0.16919124 0.13827957 -0.16361107 0.2670144 -0.4054752
-0.5336784 0.054592703 -0.17293675 0.08653785 -0.09428098 -0.005931398 -0.20291558 -0.2369173
0.100620195 0.016609196 0.09487326 -0.14846873 -0.11301499 -0.101862594 -0.056594696 0.19153932
0.05560061 -0.24470694 -0.09187228 -0.38605225 0.104928605 0.2605191 -0.14946267 0.18254538
0.019302886 -0.09061512 -0.33964613 -0.122140445 -0.0069518825 0.38981897 0.21018061 -0.2119737
-0.16267177 -0.347931 -0.44245282 0.044799875 -0.005945863 -0.4513525 -0.19239773 -0.38502115
0.16820253 0.2676209 -0.024565993 0.21182245 0.18353751 -0.43371534 -0.39244336 -0.17647116
0.24370272 0.14347501 0.3653946 -0.019358266 -0.29712787 -0.58157706 -0.4822133 -0.14234869
-0.29456195 -0.19183166 0.009318915 -0.40179145 -0.07462068 0.24926461 -0.36561275 0.096972406
-0.06360369 -0.41980684 -0.38435727 -0.28073016 -0.07333569 -0.056330867 -0.055309862 0.2844635
0.029883236 0.0040233806 -0.06607739 0.078437224 0.29079813 0.0874487 -0.14365695 -0.012634338
0.20381251 0.090298295 -0.1195539 -0.2648001 0.23666485 -0.19497858 -0.09825148 0.2949364
-0.17232175 0.34138992 0.11571522 -0.087972075 0.33963543 0.30603707 -0.2715579 -0.014946839
-0.5576239 0.4693916 -0.38442478 0.17908074 0.06911059 -0.028606325 0.53321123 -0.14314385
00000000: 0675 3cbe bb21 383e 0758 b0bb 7a83 3a3e
00000010: 1abb d9bd 346b ac3c 8917 cd3d 0703 753e
00000020: c788 da3d 7b1f 3cbe 25bd 233e 2c8c 843c
00000030: 61b2 23be 1aca 81be a1f6 5f3e 8a54 9bbd
00000040: 5823 3a3e 389c 3b3e 222b edbd d018 c0bd
00000050: 8198 5ebe 1aff 613e 1ca3 0a3e 8882 ebbd
00000060: fc7d 3abd 9e6e 53be 01a6 a7bd b056 103d
00000070: 913f 23bf a2f5 623d 39e8 84be 2a92 81bd
00000080: 2464 86bc b443 373d e369 733e d3b0 3d3e
00000090: 37e9 81be 95f2 a0be db0f ab3d 939c be3c
000000a0: 9cc2 013f 12cb 423e 2b64 1f3e 95ff 623e
000000b0: 078a 09bf 795f e2be e618 dabe c0d6 f2bc
000000c0: 666a ba3d 64f0 8dbd 9b3e 963c 84c5 96be
000000d0: 88ed b5bd b1ee 7d3d 330b 97be d1ab 16be
000000e0: c15b a13c 49cc 96be d39c 65be 799b 17bf
000000f0: 8021 c53e e0d0 7c3e 27ea e03e 1eff 3ebd
00000100: 17de 18bf 49f7 babe 39e4 eabe d1d8 8bbe
00000110: f4c6 48bc 5d1c febd baaf 9a3e 407c d0be
00000120: f8c6 6bbe c3c2 ec3b 0c04 f5be c3b5 73bd
00000130: be93 573d 2e95 8dbe 864e b1be 5fce c0be
00000140: 1bbf 523e 4caf 0abd e664 9e3e 96e2 923e
00000150: 4981 0f3f e4a9 0c3e bc51 6abc 1bd7 fa3d
00000160: 88b8 07bf 044c dc3e fcd2 88be 8ddd a3bd
00000170: 7435 593e 8ebc acbe 9735 463f 09c0 563e
00000180: f3ee 34be 8d33 b1bd 418b bd3e d750 903e
00000190: 0295 733c 37a2 213e 6cb2 f63c 1cf2 12bd
000001a0: 3204 ec3d f20b d23d 1d17 6abe 220e f63d
000001b0: e800 82be a782 693e 4614 8dbe fd3f 393e
000001c0: d5c6 283d 8251 75be 5b1b f93e 9aa8 73be
000001d0: 0d94 e23d ee75 ad3d d88d ca3b 582a ca3e
000001e0: 4156 ebbe 6820 ca3e d3c6 e03d e200 1fbe
000001f0: 51c3 f83d 0838 b93e db2d 9cbd a33a 95bc
00000200: 250e 54bf 150a 3c3e f78d 04bf 8eab 95bd
00000210: 62b9 e1bd 42c2 993d 6fa6 573e 406c a3be
00000220: 2b9a 19be 0343 fa3e c3ad 3f3e 6c87 e43e
00000230: 6847 bd3e f555 853e 53a6 dd3e f4cc 403d
00000240: 81d0 95be a716 1dbf 247e dcbe 7840 2dbe
00000250: 2999 0d3e a989 27be 1db6 883e 729a cfbe
00000260: 269f 08bf 999c 5f3d 5516 31be c23a b13d
00000270: 6316 c1bd 2c5c c2bb 1ac9 4fbe 739a 72be
00000280: f611 ce3d 0210 883c e94c c23d 3008 18be
00000290: 6774 e7bd 569d d0bd d7cf 67bd e222 443e
000002a0: 77bd 633d 7594 7abe 8927 bcbd a4a8 c5be
000002b0: cfe4 d63d c262 853e be0c 19be 2ded 3a3e
000002c0: 1621 9e3c 6c94 b9bd 19e6 adbe c524 fabd
000002d0: 9ecc e3bb 5a96 c73e 9639 573e a20f 59be
000002e0: 6e93 26be 0324 b2be 2d89 e2be 1380 373d
000002f0: 84d5 c2bb ad17 e7be e903 45be 7e21 c5be
00000300: 493d 2c3e 9b05 893e 9f3e c9bc fce7 583e
00000310: 42f1 3b3e f00f debe 56ee c8be dbb4 34be
00000320: 358d 793e 1deb 123e 0015 bb3e 3a95 9ebc
00000330: 2521 98be 3ce2 14bf a9e4 f6be dbc3 11be
00000340: d3d0 96be 856f 44be 5dae 183c 9cb7 cdbe
00000350: bad2 98bd 393f 7f3e 9831 bbbe 7899 c63d
00000360: a742 82bd ecf0 d6be 7aca c4be ddbb 8fbe
00000370: 0631 96bd 32bb 66bd 988c 62bd 33a5 913e
00000380: b0cd f43c 90d6 833b 9553 87bd b2a3 a03d
00000390: 7ee3 943e 4e18 b33d cf1a 13be 4100 4fbc
000003a0: 3ab4 503e 50ee b83d add8 f4bd e193 87be
000003b0: 4558 723e 77a8 47be 1238 c9bd e701 973e
000003c0: 1d75 30be a9ca ae3e 1afc ec3d b42a b4bd
000003d0: b2e4 ad3e e4b0 9c3e a309 8bbe 96e3 74bc
000003e0: 71c0 0ebf 1954 f03e 53d3 c4be f160 373e
000003f0: da89 8d3d d057 eabc 8880 083f 4d94 12be

layer.bias f4 [20]
-0.09070751 0.079006046 0.3302351 -0.018171731 -0.023953477 0.24625632 -0.2724975 -0.19679949
0.3703597 -0.04833849 -0.06160395 -0.022322355 -0.06912868 -0.23999998 -0.21296212 0.08085743
0.37293348 -0.09466486 -0.08533952 0.13444884
00000000: dcc4 b9bd eccd a13d 9314 a93e e2dc 94bc
00000010: 153a c4bc 9e2a 7c3e cb84 8bbe ce85 49be
00000020: c99f bd3e 95fe 45bd 6c54 7cbd 5fdd b6bc
00000030: 5693 8dbd 8ec2 75be be12 5abe 9598 a53d
00000040: 23f1 be3e a6df c1bd 7cc6 aebd f5ac 093e

classify.weight f4 [3, 20]
0.0051989025 -0.21379949 0.0613294 -0.11882589 -0.20161362 -0.048579395 -0.08736688 0.014200283
-0.0124109825 -0.17645343 -0.20933722 0.10731432 -0.08352141 -0.06866675 -0.070934236 -0.024323652
-0.1387083 0.003846348 0.095143415 -0.2717164 0.050374992 0.15845 0.3755439 0.37166643
-0.8068889 -0.45795825 -0.8003661 0.45802027 0.26446003 0.35160592 0.32375222 -0.003406202
-0.7966886 -0.6402997 -0.52295154 -0.4847561 0.4196786 0.36286137 0.4731343 -0.024750004
0.14760967 -0.23588341 0.26884538 0.1492629 -0.14641279 0.13944307 -0.19270493 0.22671573
0.32873708 0.23176809 0.11823845 0.18963093 -0.1600066 -0.11813861 -0.116075255 0.057240795
0.23468387 0.28045627 0.21791585 0.20390356
00000000: 8e5b aa3b 41ee 5abe 8934 7b3d fd5a f3bd
00000010: cd73 4ebe 30fb 46bd 68ed b2bd 4ea8 683c
00000020: 6f57 4bbc 35b0 34be 7f5c 56be 9cc7 db3d
00000030: 460d abbd 27a1 8cbd f845 91bd 6542 c7bc
00000040: 8c09 0ebe 0313 7c3b 8dda c23d 691e 8bbe
00000050: 0256 4e3d b840 223e 4a47 c03e 104b be3e
00000060: 4590 4ebf 8179 eabe cbe4 4cbf a281 ea3e
00000070: 4e67 873e b105 b43e dac2 a53e 963a 5fbb
00000080: c9f3 4bbf aeea 23bf 27e0 05bf f431 f8be
00000090: 1de0 d63e f7c8 b93e a93e f23e 85c0 cabc
000000a0: fd26 173e 6c8b 71be 1aa6 893e 60d8 183e
000000b0: 3ced 15be 2aca 0e3e 7154 45be 2b28 683e
000000c0: 3a50 a83e 9d54 6d3e 0027 f23d 9c2e 423e
000000d0: c5d8 23be a8f2 f1bd ddb8 edbd 5375 6a3d
000000e0: f850 703e f797 8f3e 5525 5f3e 18cc 503e

classify.bias f4 [3]
-0.03976619 -0.27083412 0.22155245
00000000: dfe1 22bd c5aa 8abe a5de 623e
