99-谢睿尧-西安/week 2/model.pth (torch, 5979 bytes, 5 tensors)

embedding.weight f4 [28, 20]
-1.3315513 -1.3488166 0.6354848 -0.3622497 0.38795695 -1.7201061 -2.3906517 -0.23537405
0.37518132 -0.3157593 -0.38141114 -1.8232461 0.39667144 -0.6153937 0.18282473 -0.23095739
-0.7710377 -0.49545175 -0.15952462 0.38505924 -1.580195 2.3042617 1.1590269 -1.2451606
-0.5009553 -0.29068547 -0.18125437 1.8460672 1.6451145 2.1622155 1.0237564 -1.0668557
-1.068968 -0.22791971 0.16819777 -0.9679216 0.36774656 2.1253462 -2.1229699 -0.8044992
-1.5460255 1.0699342 3.2140353 0.5947442 0.477026 0.20443365 -1.9920837 0.51664615
0.25778168 2.3691227 1.8558419 -3.0895128 -0.7130369 1.5793451 0.882531 -2.2616549
2.3366213 0.91106486 -0.969933 0.46868587 -1.8015877 0.7013219 0.3696985 -1.6078875
-2.9983623 2.7787127 -2.081412 -0.7498972 1.5230705 1.3994662 0.89295816 -0.7910004
-1.2944313 -0.2882274 -0.22087315 -2.0902083 -0.48696098 1.4223626 -1.9069316 -0.34272686
-0.72222966 -0.62328595 -0.6101626 1.5559001 -0.87684846 -0.0055240057 0.516946 1.3435014
-1.6841527 -0.19688736 -1.6767523 0.24944034 0.39641172 -0.78786075 -0.29394388 0.6680349
1.6762832 -0.9275754 0.58221173 -1.3134468 0.36037427 0.06697169 0.4571139 0.7859117
-1.316218 -1.1311213 0.9091861 0.07343723 -0.17469832 0.8578924 0.030483674 -1.0621556
-0.31087926 -1.1084495 -0.80613345 0.9806594 -0.06065721 -0.63517255 1.1939448 -0.2794174
-0.42795163 -0.32784116 -0.010438877 -0.22452664 1.1811551 -0.9197468 0.8717725 -0.622023
-2.2546568 1.4488512 -0.86007005 -1.2321763 0.6733484 0.6082547 1.0921484 0.8996661
-0.22226474 -0.50138605 -1.2038591 1.2112187 0.7910818 -0.8305656 -0.43102375 -0.59722024
-1.767291 -0.33145377 -0.044529613 -0.122411594 -0.14312147 2.6467094 -0.6101862 0.30136842
1.2209501 1.3572024 0.82309586 -0.12114359 -1.14354 -1.2095155 0.058500577 0.24554022
0.4719457 0.75036484 1.2728783 -1.756479 0.34950855 -1.89092 -0.48107412 0.78378016
0.76237005 -0.35032123 0.45308328 0.9305791 -1.590866 0.14388315 -0.15179788 0.05367495
0.3774597 -0.98924184 -1.124419 -1.1497962 1.6623818 0.701911 -0.22333014 -1.1751715
-1.5857555 -0.58706576 -0.46882308 1.2344718 0.5994724 -0.6136439 -0.753053 0.10605886
0.78863275 -0.28301367 0.293693 0.66311496 -0.47929844 -1.0852959 0.21782382 1.3813919
-0.331741 -0.36624748 0.66338736 0.57414794 0.96424305 0.4667336 1.5587109 -1.6764257
0.53085893 1.2652292 -0.67173994 0.7767838 -1.1236334 -0.97517926 0.85792375 -0.45711905
0.9942654 -1.4759626 0.62973934 0.1702542 2.279211 -1.0216143 1.842302 -0.421623
-0.0922453 1.1043822 1.7923565 -0.5831032 0.5211453 -1.0626943 -0.9583074 0.07633818
0.79344213 1.6734487 -0.0801759 -0.32090458 0.028428404 -0.815566 0.4565981 0.420968
-1.1879224 0.9090529 -0.7362367 0.9490023 -2.016075 -0.10900384 1.199759 0.89687604
-0.14030834 -0.6960427 -0.086043656 0.3201322 0.56999755 -0.4708092 0.92902035 1.6522167
00000000: 4670 aabf 06a6 acbf 22af 223f cb78 b9be
00000010: 4ba2 c63e 702c dcbf 7000 19c0 e505 71be
00000020: c417 c03e 34ab a1be 5248 c3be 2160 e9bf
00000030: 8518 cb3e 718a 1dbf 6836 3b3e 1880 6cbe
00000040: ba62 45bf daab fdbe 6c5a 23be 7c26 c53e
00000050: d443 cabf 0679 1340 fe5a 943f 6c61 9fbf
00000060: 9b3e 00bf bad4 94be bf9a 39be ee4b ec3f
00000070: 1d93 d23f bd61 0a40 730a 833f ba8e 88bf
00000080: f2d3 88bf c963 69be 093c 2c3e b6c9 77bf
00000090: 4749 bc3e ac05 0840 bdde 07c0 a9f3 4dbf
000000a0: 2ae4 c5bf 9bf3 883f c1b2 4d40 2841 183f
000000b0: c03c f43e 0e57 513e 99fc febf ec42 043f
000000c0: f6fb 833e b59f 1740 3a8c ed3f 94ba 45c0
000000d0: 9689 36bf fb27 ca3f 8ded 613f f4be 10c0
000000e0: 348b 1540 8c3b 693f 874d 78bf 98f7 ef3e
000000f0: 6d9a e6bf d589 333f 1f49 bd3e 42cf cdbf
00000100: 2be5 3fc0 6ed6 3140 db35 05c0 43f9 3fbf
00000110: f9f3 c23f b521 b33f e898 643f 017f 4abf
00000120: edaf a5bf 8b92 93be 922c 62be f9c5 05c0
00000130: f352 f9be fa0f b63f 5616 f4bf e579 afbe
00000140: 0be4 38bf ab8f 1fbf 9e33 1cbf bc27 c73f
00000150: 2479 60bf b802 b5bb 9356 043f dbf7 ab3f
00000160: 5192 d7bf d79c 49be d29f d6bf 4a6d 7f3e
00000170: 7af6 ca3e 3eb1 49bf d07f 96be 5604 2b3f
00000180: 7390 d63f 9575 6dbf d40b 153f 061f a8bf
00000190: fa82 b83e 7428 893d d50a ea3e 8231 493f
000001a0: d579 a8bf 95c8 90bf 6cc0 683f 4266 963d
000001b0: 1ee4 32be d69e 5b3f e6b8 f93c b7f4 87bf
000001c0: 912b 9fbe ace1 8dbf c35e 4ebf 7f0c 7b3f
000001d0: b273 78bd ab9a 22bf 2fd3 983f cc0f 8fbe
000001e0: 7a1c dbbe ccda a7be d307 2bbc 50ea 65be
000001f0: 1730 973f 8774 6bbf 7c2c 5f3f e63c 1fbf
00000200: 4c4c 10c0 f573 b93f 8d2d 5cbf f4b7 9dbf
00000210: 9060 2c3f 94b6 1b3f 85cb 8b3f 8450 663f
00000220: 5e99 63be d65a 00bf 0e18 9abf 3709 9b3f
00000230: 5684 4a3f f29f 54bf 25af dcbe 6de3 18bf
00000240: 9736 e2bf 4fb4 a9be af64 36bd eeb2 fabd
00000250: 6f8e 12be b063 2940 2a35 1cbf f64c 9a3e
00000260: 1848 9c3f cfb8 ad3f 69b6 523f 211a f8bd
00000270: 855f 92bf 67d1 9abf 4d9e 6f3d e56e 7b3e
00000280: dea2 f13e e917 403f aded a23f 4ed4 e0bf
00000290: c9f2 b23e ab09 f2bf 594f f6be d1a5 483f
000002a0: af2a 433f 4e5d b3be 88fa e73e 6f3a 6e3f
000002b0: 7fa1 cbbf 1b56 133e e770 1bbe 44da 5b3d
000002c0: 6642 c13e f43e 7dbf f6ec 8fbf 862c 93bf
000002d0: edc8 d43f 70b0 333f a8b0 64be 056c 96bf
000002e0: 09fa cabf f149 16bf 9409 f0be 2c03 9e3f
000002f0: 0677 193f c417 1dbf 15c8 40bf 6335 d93d
00000300: d6e3 493f 2be7 90be ee5e 963e e7c1 293f
00000310: 9b66 f5be faea 8abf 350d 5f3e 73d1 b03f
00000320: f5d9 a9be ca84 bbbe c1d3 293f 5cfb 123f
00000330: a2d8 763f b5f7 ee3e d783 c73f 1e95 d6bf
00000340: 5fe6 073f 08f3 a13f 26f7 2bbf 4edb 463f
00000350: 38d3 8fbf 59a5 79bf e4a0 5b3f 820b eabe
00000360: 2d88 7e3f 58ec bcbf 9936 213f 1e57 2e3e
00000370: 98de 1140 42c4 82bf 8dd0 eb3f f8de d7be
00000380: 1beb bcbd 655c 8d3f f06b e53f 4046 15bf
00000390: c769 053f 5e06 88bf a253 75bf 3157 9c3d
000003a0: 061f 4b3f 9133 d63f 4333 a4bd 9b4d a4be
000003b0: afe2 e83c efc8 50bf 3ac7 e93e 1e89 d73e
000003c0: d70d 98bf b1b7 683f 027a 3cbf d1f1 723f
000003d0: 5f07 01c0 683d dfbd b491 993f ab99 653f
000003e0: fdac 0fbe db2f 32bf a837 b0bd 5ee8 a33e
000003f0: 5ceb 113f e70d f1be 47d4 6d3f d67b d33f

layer.weight f4 [20, 20]
0.09485788 -0.21105236 0.1817832 0.17975478 -0.0040222625 -0.10469732 0.2567816 -0.16632704
-0.0064099804 0.17251235 -0.074036025 -0.23742035 0.11392396 -0.09322263 -0.0628894 -0.15788715
-0.023681046 -0.17433012 0.10804214 -0.11675933 0.05115517 -0.5432986 0.1909136 -0.49253187
0.1496506 -0.46780547 0.32765612 0.022727933 -0.50307417 -0.5731599 0.5243924 0.3284722
0.22828016 -0.48348898 0.11728938 0.79241335 0.018423561 -0.018462682 0.51011205 0.028659996
0.25342262 -0.030116376 -0.60722953 0.62958336 -0.04210018 0.23197988 0.03162093 0.18887538
0.2944142 -0.50560623 0.7122661 -0.23516339 -0.38112426 0.1553755 -0.4931238 0.23041588
0.23410405 -0.31223685 -0.5638126 0.27974573 -0.6367546 0.5595399 0.38622183 0.1554609
-0.10018616 0.2998327 -0.3967808 0.07424776 0.2196086 0.5816612 0.39053887 -0.6702134
-0.16135901 0.10135967 -0.046398267 -0.7816025 0.17013462 0.43132308 -0.5448023 0.04979912
-0.106050946 0.33671293 -0.1219332 0.14394519 0.026996301 0.23950437 -0.071219 0.09091228
0.36218995 0.11348756 0.2338783 -0.19800593 -0.15880327 0.1388927 -0.2677325 0.039687928
0.13001412 0.11419434 -0.24210511 0.2066921 0.4547238 -0.08467135 -0.8481356 0.51796615
0.16619879 0.30463946 0.03479634 0.082155235 0.024937205 -0.35016376 0.66537726 -0.46584898
-0.6184796 0.07097103 -0.273346 0.010572758 0.120388165 -0.47978425 -0.5648617 0.3269255
-0.6705385 0.5107587 0.15081535 0.10752012 -0.20223199 0.3408873 -0.10035788 0.02382642
0.57720166 0.5629216 0.2715743 -0.49808225 -0.19053885 -0.0061497036 -0.08053164 -0.4845388
0.051035095 0.49193588 -0.6332774 -0.096828155 -0.35986426 0.14153908 0.047295544 -0.13357952
-0.1508522 0.20461322 -0.16394746 0.2475038 0.17821242 0.26317096 0.15891387 -0.3153041
-0.14150569 0.10279621 0.10914973 -0.44153124 0.17189407 0.25140074 -0.21373573 -0.11191034
0.4200556 -0.07671071 -0.44964573 0.5585091 0.043373086 0.2667853 -0.151432 0.10216727
0.08855647 -0.26944977 0.5146733 -0.052351773 -0.33194765 -0.09252124 -0.29834378 0.02088079
0.19755824 -0.30604956 -0.37192446 0.24397868 0.3516342 -0.060227357 -0.8679327 0.62232554
-0.12263169 0.19086482 0.23389184 0.144048 0.21233763 -0.20796798 0.63383436 -0.47332242
-0.28797394 0.29036766 -0.3841807 -0.062398612 0.17537403 -0.46330982 -0.62280655 0.26023537
-0.694765 0.7006609 0.2985212 0.15585269 -0.41981047 0.2837976 -0.43933576 0.2156994
0.079027 0.3792263 0.30165094 -0.54909354 0.018294316 0.1899656 0.1058248 -0.82618344
0.20146063 0.39785972 -0.5697902 -0.06934077 -0.43176255 0.16841598 0.38483205 -0.22743618
-0.45974913 0.22464962 -0.31149507 0.24913266 0.119712286 0.27310002 0.27064028 -0.44992334
-0.3081232 0.076999746 0.2734049 -0.48937148 0.0884032 0.5432085 -0.17012359 0.0023327796
-0.2825496 0.27815643 0.34277812 -0.022856269 -0.31076875 0.38032797 -0.19148006 -0.03574927
0.062557794 0.31219682 0.14439657 -0.24622504 -0.21108206 -0.08949182 0.08713836 -0.3958005
00000000: d944 c23d 1c1e 58be 6025 3a3e a311 383e
00000010: 2fcd 83bb 8c6b d6bd e178 833e a351 2abe
00000020: d00a d2bb 14a7 303e 33a0 97bd 521e 73be
00000030: f750 e93d 82eb bebd 28cc 80bd 2bad 21be
00000040: c1fe c1bc 9883 32be 3345 dd3d 841f efbd
00000050: 1588 513d 9e15 0bbf db7e 433e 232d fcbe
00000060: 023e 193e 3384 efbe 8bc2 a73e ee2f ba3c
00000070: 78c9 00bf 9bba 12bf 953e 063f 822d a83e
00000080: 46c2 693e de8b f7be 6a35 f03d 9adb 4a3f
00000090: 02ed 963c 0d3f 97bc b496 023f 5ec8 ea3c
000000a0: 9cc0 813e 9eb6 f6bc 6573 1bbf 602c 213f
000000b0: 3d71 2cbd 228c 6d3e f384 013d 8c68 413e
000000c0: 75bd 963e 696f 01bf 1257 363f acce 70be
000000d0: b822 c3be c11a 1f3e b97a fcbe 24f2 6b3e
000000e0: f9b8 6f3e 82dd 9fbe 0656 10bf d53a 8f3e
000000f0: 5902 23bf 023e 0f3f debe c53e 2431 1f3e
00000100: 672e cdbd ac83 993e da26 cbbe 360f 983d
00000110: 14e1 603e c0e7 143f b6f4 c73e 1b93 2bbf
00000120: 4c3b 25be a995 cf3d 1c0c 3ebd 1a17 48bf
00000130: c537 2e3e 61d6 dc3e 2a78 0bbf 29fa 4b3d
00000140: 3d31 d9bd a365 ac3e 1db8 f9bd 5e66 133e
00000150: 5927 dd3c a240 753e 44db 91bd 3830 ba3d
00000160: f670 b93e 2a6c e83d cb7d 6f3e 11c2 4abe
00000170: 539d 22be e339 0e3e 3c14 89be cf8f 223d
00000180: 6c22 053e b9de e93d 67ea 77be 18a7 533e
00000190: 8fd1 e83e 2c68 adbd 6a1f 59bf 6e99 043f
000001a0: 0430 2a3e b4f9 9b3e 9b86 0e3d 0141 a83d
000001b0: 1c49 cc3c aa48 b3be 2a56 2a3f c283 eebe
000001c0: ae54 1ebf 4259 913d 02f4 8bbe 5c39 2d3c
000001d0: 128e f63d 48a6 f5be c79a 10bf c762 a73e
000001e0: 69a8 2bbf 15c1 023f 576f 1a3e 8233 dc3d
000001f0: e715 4fbe c888 ae3e 6f88 cdbd a02f c33c
00000200: 7dc3 133f a11b 103f c90b 8b3e a304 ffbe
00000210: 9e1c 43be 7483 c9bb c6ed a4bd 7815 f8be
00000220: 2d0a 513d 05df fb3e 781e 22bf d74d c6bd
00000230: 2140 b8be 9fef 103e f9b8 413d 12c9 08be
00000240: 0079 1abe 2186 513e d8e1 27be a371 7d3e
00000250: 517d 363e 58be 863e 51ba 223e 8a6f a1be
00000260: dee6 10be d286 d23d e589 df3d 6210 e2be
00000270: 0005 303e 99b7 803e 8add 5abe 4031 e5bd
00000280: 8711 d73e 811a 9dbd f737 e6be 74fa 0e3f
00000290: faa7 313d 1598 883e fd10 1bbe 133d d13d
000002a0: 185d b53d 52f5 89be a1c1 033f d06e 56bd
000002b0: 0bf5 a9be c77b bdbd 84c0 98be 310e ab3c
000002c0: b54c 4a3e 87b2 9cbe e26c bebe 8cd5 793e
000002d0: 6609 b43e f6b0 76bd d630 5ebf ba50 1f3f
000002e0: 5326 fbbd 1172 433e 5881 6f3e 5281 133e
000002f0: 096f 593e 8ff5 54be f842 223f 5157 f2be
00000300: 5271 93be 12ab 943e 55b3 c4be b095 7fbd
00000310: 4095 333e f236 edbe 4070 1fbf 923d 853e
00000320: 1edc 31bf 835e 333f c5d7 983e d997 1f3e
00000330: 66f1 d6be eb4d 913e 9ef0 e0be 4ee0 5c3e
00000340: e8d8 a13d f329 c23e fe71 9a3e 6591 0cbf
00000350: f6dd 953c 5886 423e acba d83d c280 53bf
00000360: b24b 4e3e 45b4 cb3e c5dd 11bf 8902 8ebd
00000370: fb0f ddbe 3d75 2c3e b508 c53e 08e5 68be
00000380: 3d64 ebbe 8d0a 663e 487c 9fbe a21c 7f3e
00000390: b72b f53d c4d3 8b3e 5d91 8a3e 5a5c e6be
000003a0: 53c2 9dbe 0bb2 9d3d bafb 8b3e e68e fabe
000003b0: bd0c b53d b60f 0b3f e134 2ebe 8ce1 183b
000003c0: 57aa 90be 856a 8e3e 9d80 af3e 123d bbbc
000003d0: 151d 9fbe 59ba c23e 5913 44be d46d 12bd
000003e0: 4d1e 803d 43d8 9f3e b2dc 133e 6b22 7cbe
000003f0: e525 58be 7d47 b7bd 9975 b23d 5da6 cabe

layer.bias f4 [20]
0.23563395 0.044960435 -0.048371565 0.0091798175 0.06983619 -0.1089654 -0.036419004 -0.24325693
-0.14071088 -0.24139649 -0.056780394 0.5108719 -0.038899552 -0.086068444 0.026854962 0.5111737
-0.21938588 0.010548571 -0.08902574 0.23949029
00000000: 074a 713e 6f28 383d 4321 46bd f266 163c
00000010: 4706 8f3d 4029 dfbd 182c 15bd 5818 79be
00000020: 8316 10be a430 77be 8f92 68bd 80c8 023f
00000030: 2355 1fbd a744 b0bd f0fe db3c 48dc 023f
00000040: b1a6 60be ead3 2c3c 2153 b6bd f13c 753e

classify.weight f4 [3, 20]
0.07948221 -0.3342413 -0.78122187 0.34713194 0.18722267 -0.76407945 0.5145007 0.2186445
-0.6424687 -0.55977476 0.3838541 0.38255203 0.36324683 -0.119238116 0.14792898 0.28125417
-0.57285386 -0.68927556 0.36274466 0.4436083 0.022813732 0.6912276 0.20682389 -0.74125034
0.2566606 0.17266905 -0.5831031 -0.63670266 0.47819415 0.28857538 -0.4766428 -0.438268
-0.6888874 0.6460744 -0.0044109207 -0.35555547 0.47231752 0.25762162 -0.81398505 -0.38302204
0.30188355 0.45559463 0.041191977 0.21584581 -0.12314244 -0.007992333 0.34438723 -0.0030721002
0.26505873 0.166511 0.24838251 0.21300769 0.16163361 -0.15520206 0.27338415 0.17981881
0.2536513 0.06628297 0.11097764 0.30806223
00000000: 92c7 a23d ad21 abbe 28fe 47bf 47bb b13e
00000010: 4db7 3f3e b69a 43bf 51b6 033f 58e4 5f3e
00000020: d478 24bf 664d 0fbf 8688 c43e dcdd c33e
00000030: 7dfb b93e 1d33 f4bd b27a 173e 8c00 903e
00000040: 8da6 12bf 5d74 30bf abb9 b93e a120 e33e
00000050: dde3 ba3c 4bf4 303f a4c9 533e 95c2 3dbf
00000060: 0569 833e 28d0 303e 3f46 15bf f2fe 22bf
00000070: ddd5 f43e 27c0 933e 860a f4be aa64 e0be
00000080: ed5a 30bf 2265 253f 7c89 90bb 5e0b b6be
00000090: 9ad3 f13e fbe6 833e 5361 50bf 771b c4be
000000a0: 7b90 9a3e b343 e93e ebb8 283d af06 5d3e
000000b0: 1b32 fcbd 46f2 02bc 8653 b03e 4a55 49bb
000000c0: c7b5 873e dc81 2a3e fc57 7e3e b01e 5a3e
000000d0: 4883 253e 4aed 1ebe 02f9 8b3e 6c22 383e
000000e0: 95de 813e 5ebf 873d 3f48 e33d 55ba 9d3e

classify.bias f4 [3]
0.08073791 -0.1817394 0.68725693
00000000: eb59 a53d e519 3abe 12f0 2f3f
