37-林继叠-广州/week1/demoand_result/model.pth (torch, 5787 bytes, 4 tensors)

embedding.weight f4 [28, 20]
0	0xbf9add3a	-1.2098763
1	0x4021fd9b	2.5311038
2	0xc0182e09	-2.3778098
3	0xbff8ad20	-1.9427834
4	0x3f37f24a	0.7185408
5	0xbf1e250d	-0.61775285
6	0xbfbf5011	-1.4946309
7	0xbe7b3d8e	-0.245352
8	0x3f450dc5	0.76974136
9	0xc0037631	-2.0540888
10	0x3f4006d2	0.75010407
11	0xbf0f7520	-0.56038094
12	0x3e2fa544	0.17152888
13	0xbf70f5b1	-0.94124895
14	0x3f53373d	0.8250616
15	0xbf02fd7f	-0.51168054
16	0x3f527dee	0.82223403
17	0x3d928f17	0.071561985
18	0x3faad4d9	1.3346206
19	0x3f5ff797	0.8748717
20	0x3f5bfc8b	0.85932225
21	0xc0305dbc	-2.755721
22	0x4014f5b7	2.3274972
23	0x3ed09b2c	0.40743387
24	0xbdc22dd4	-0.09481397
25	0xbf181036	-0.59399736
26	0xbf875c6a	-1.0575078
27	0xbeb2a3bc	-0.34890544
28	0x3f0bf14b	0.5466506
29	0xbefd97da	-0.49529916
30	0x3ddd91d6	0.108188316
31	0xbfc4f558	-1.5387373
32	0x3fbff45f	1.4996451
33	0x4013276e	2.2992816
34	0x3f9fdc8e	1.2489183
35	0xbfce7434	-1.6129212
36	0xc01e099f	-2.4693372
37	0x3fdc6ce5	1.7220732
38	0x3fa3d9cd	1.2800843
39	0xbfa0d0c2	-1.2563708
40	0x3fcceba0	1.6009407
41	0xbf849b20	-1.035984
42	0x3fd121e8	1.6338472
43	0x3fa1f5a4	1.2653089
44	0x3e1c1294	0.15241462
45	0xbfc065ff	-1.5031127
46	0xc03f1588	-2.9856892
47	0xbf7bfd6a	-0.98433554
48	0x3ed0264c	0.40654218
49	0xbfbe7f31	-1.4882566
50	0x3f7a02a1	0.9766026
51	0xbf408869	-0.75208145
52	0x3ef65fe4	0.48120034
53	0x3f938ccc	1.1527343
54	0xbf84f052	-1.038584
55	0xbf25957e	-0.6468123
56	0xbf48d502	-0.78450024
57	0x400ad83f	2.1694486
58	0xc001a267	-2.0255373
59	0xbf9f5c9a	-1.2450135
60	0xbfbfdb2b	-1.498876
61	0x3ebda2d7	0.370383
62	0x4016d11a	2.3565125
63	0x3ea17725	0.31536213
64	0xbe4dc83e	-0.20095918
65	0xbff6bb05	-1.9275824
66	0xbfa7d763	-1.3112606
67	0x3f0f7971	0.5604468
68	0x40058a26	2.086557
69	0xbfc44a87	-1.5335244
70	0x3fe63439	1.7984687
71	0x3ecd474f	0.40093467
72	0x40115219	2.2706358
73	0xbf9c713c	-1.2222056
74	0x400a3a3a	2.1598039
75	0x3f66b1d7	0.9011511
76	0xc0490fe5	-3.1415951
77	0x3f8fa703	1.1222843
78	0xbfc73f49	-1.5566188
79	0xbfafa152	-1.3721106
80	0x3c70e263	0.014702412
81	0xbca002e0	-0.01953262
82	0x3f4f6a37	0.81021446
83	0xbf8b3f90	-1.0878773
84	0xbff8f2f0	-1.9449139
85	0x401d076c	2.453578
86	0x3fcb3323	1.5874981
87	0xbfc05fd3	-1.5029243
88	0x3d05638f	0.03256565
89	0x3fd5089c	1.6643252
90	0xbe94b63e	-0.2904529
91	0xbcab168b	-0.020884773
92	0xbf05620e	-0.52102745
93	0xc02d197c	-2.7046804
94	0xbe90cbd3	-0.28280506
95	0x3f9b8032	1.2148497
96	0x3e6c6054	0.23083621
97	0xbca28dc9	-0.019842999
98	0xbf8a7cd9	-1.081935
99	0x3ffe9e89	1.9892131
100	0xbebe6961	-0.37189773
101	0x3f98723d	1.1909863
102	0xbfb1493f	-1.3850478
103	0xbe58429d	-0.21119161
104	0x3e13489c	0.14383167
105	0xbf5273ed	-0.8220814
106	0xbfa7b450	-1.3101902
107	0x3f0e6b9f	0.55632967
108	0xbfe25429	-1.7681934
109	0x3f14836d	0.5801304
110	0xbf65c136	-0.8974794
111	0xbf0c3858	-0.54773474
112	0xbffc13e0	-1.9693565
113	0xbee03f95	-0.4379851
114	0x3cfd3b9e	0.030912217
115	0xbe006afd	-0.12540813
116	0x3fa61ad5	1.2976938
117	0xbe58ffbe	-0.21191308
118	0x3ebc4837	0.36773846
119	0xbfc5614a	-1.5420315
120	0xbef20720	-0.4727106
121	0x3f026cc7	0.5094723
122	0x3ddfb985	0.10924057
123	0x4009bb66	2.152063
124	0x3fa3c5be	1.2794721
125	0x3f87dc9e	1.0614202
126	0x3f133975	0.5750955
127	0x3f201d79	0.6254497
128	0x3f832f9c	1.0248904
129	0x400951e1	2.1456225
130	0xbf9972c8	-1.1988153
131	0x3fbdf33b	1.4839853
132	0xbf8ba8a3	-1.0910839
133	0xbfb4d5da	-1.4127762
134	0x3ec5f73a	0.3866518
135	0xbf8778a2	-1.0583689
136	0xbf264797	-0.6495299
137	0xbea933e3	-0.330474
138	0xbf6db0b0	-0.9284773
139	0xbea5e8f8	-0.32404304
140	0x3fa8eec3	1.3197864
141	0xbf2a5394	-0.6653378
142	0x3ea378c4	0.31928074
143	0xbf806197	-1.0029782
144	0x3f0f300c	0.5593269
145	0x3ebd1297	0.36928245
146	0x3f43f726	0.76548994
147	0x3deaba1d	0.114612795
148	0xbe292c33	-0.16520767
149	0x400ff9ce	2.2496219
150	0xbfc937e6	-1.5720184
151	0x3f473fab	0.77831525
152	0x3eb74b5a	0.35799676
153	0x3ec55b4f	0.38546225
154	0xbef236dd	-0.47307482
155	0xbf4cbf22	-0.79979146
156	0x3f09d3a0	0.5383854
157	0x3e214b3a	0.15751353
158	0x3fbaa403	1.4581302
159	0xbcab987c	-0.020946734
160	0xbe57f6a8	-0.21090186
161	0x3e5b4258	0.21412027
162	0xbf1d3f23	-0.61424464
163	0xbf56384d	-0.8367966
164	0xbf412668	-0.7544923
165	0xbf3fbbd6	-0.7489599
166	0xbf8c34d9	-1.0953628
167	0xbe364bcf	-0.17802356
168	0xbfa89dc3	-1.3173145
169	0x403f2f60	2.9872665
170	0xbfc3ef1f	-1.5307349
171	0x3f34bb6a	0.7059847
172	0xbf490de1	-0.785368
173	0x3f91f104	1.1401677
174	0x3ebe5b21	0.371789
175	0xbf554887	-0.8331379
176	0xbeab5941	-0.33466533
177	0xbf5b28ef	-0.85609335
178	0x400a8b7e	2.164764
179	0xbfae073c	-1.3595958
180	0xbdc1abc3	-0.09456589
181	0x3e86c5f7	0.2632291
182	0xbfb99ba3	-1.4500622
183	0xbff1e89a	-1.8899109
184	0xbf5b8843	-0.85754794
185	0xbf00e9a0	-0.50356483
186	0x3f3c0fa8	0.7346139
187	0x3f576126	0.8413261
188	0x3f18f110	0.5974283
189	0x3f556dfa	0.83370936
190	0xbe4e2ed9	-0.20135058
191	0x3e9ca3b6	0.30593652
192	0x400b2788	2.1742878
193	0xbf19910e	-0.5998696
194	0xbec7e007	-0.39038107
195	0x3eec1d25	0.46115986
196	0x3f2bb92d	0.6707943
197	0xbe4973a5	-0.19673021
198	0x3ffb5844	1.9636312
199	0x3f1bb258	0.60819006
200	0xbf033b55	-0.5126241
201	0x3ce83fb9	0.028350698
202	0xbecdb174	-0.40174448
203	0xbec584a6	-0.38577765
204	0x40065e22	2.0994954
205	0x3e9e0524	0.30863297
206	0xbedf66de	-0.4363317
207	0x3fbe0ca5	1.4847609
208	0xbdd64ce9	-0.10463888
209	0xbf9b32fe	-1.2124937
210	0xbe8406e3	-0.25786504
211	0xbf06a4b2	-0.52595055
212	0xbef9f326	-0.4881832
213	0xbffde93e	-1.9836805
214	0xbf0e489a	-0.5557953
215	0x3fe3c33c	1.7793956
216	0x3f1d4555	0.6143392
217	0xbf012d84	-0.50460076
218	0xbf3dc11f	-0.74122804
219	0x3ea10888	0.3145182
220	0xbf24050f	-0.6407022
221	0x3ff2ba13	1.8963035
222	0x3f136026	0.57568586
223	0x3fa49e54	1.2860818
224	0xbe2c34b3	-0.16816978
225	0x3efde9b9	0.4959238
226	0x3e00b25d	0.1256804
227	0x3df89804	0.1213837
228	0xbff05e29	-1.8778735
229	0xbe91c9dd	-0.28474322
230	0xbefd3b52	-0.4945932
231	0x3f45c49d	0.77253133
232	0xbf4afaeb	-0.7928912
233	0xbfc9619a	-1.5732911
234	0x3f1f3c16	0.6220106
235	0x3f110c70	0.56659603
236	0x3e704e4c	0.23467368
237	0xbf316fee	-0.69311416
238	0x3ded7e91	0.11596406
239	0x3fb1617c	1.3857875
240	0x3e210d44	0.15727717
241	0x3ecef552	0.4042154
242	0x3e3b2b0d	0.18278141
243	0xbfa4becb	-1.2870725
244	0xbec62690	-0.38701296
245	0x3f4e2afd	0.80534345
246	0x400e7b93	2.2262924
247	0x3f7a762f	0.97836584
248	0xbe3215cf	-0.17391132
249	0xbf13c172	-0.5771705
250	0xbfd5a6e8	-1.6691561
251	0xbf444dc2	-0.7668115
252	0xbf9d51ac	-1.2290549
253	0x3f3868a0	0.72034645
254	0xbe347cbe	-0.1762571
255	0x3eb39806	0.35076922

layer.weight f4 [20, 20]
0	0xbd246add	-0.040140975
1	0x3deaed75	0.114710726
2	0xbf1a35c8	-0.60238314
3	0xbe285eb1	-0.16442372
4	0x3e85b41e	0.2611398
5	0x3ed2b9dc	0.41157424
6	0x3eaa2ddb	0.3323811
7	0x3eb651f3	0.35609397
8	0xbe9f8b64	-0.31161034
9	0x3ed48aa1	0.41512015
10	0xbf183e49	-0.5947004
11	0x3ef83b36	0.48482674
12	0xbf01719f	-0.50564
13	0xbf0c071c	-0.5469835
14	0xbeac6d12	-0.33676964
15	0x3d804315	0.06262795
16	0x3ed29123	0.41126356
17	0xbe73e955	-0.23819478
18	0x3e883b2a	0.2660764
19	0x3e2ebe71	0.17064835
20	0x3df797bb	0.12089487
21	0x3e1409a5	0.14456804
22	0xbef7c3fe	-0.48391718
23	0xbe30bb3a	-0.17258921
24	0x3e833f40	0.25634193
25	0x3e829630	0.2550521
26	0x3eb47c53	0.35251102
27	0x3e4778c4	0.19479662
28	0xbdeb0ff1	-0.1147765
29	0x3e8751fc	0.26429737
30	0xbee9af18	-0.45641398
31	0x3f0c278e	0.54747856
32	0xbefde183	-0.49586114
33	0xbef23db2	-0.47312695
34	0xbec60cac	-0.38681543
35	0x3e4ca4e8	0.19984782
36	0x3eb80b08	0.35945916
37	0xbefc5639	-0.49284533
38	0x3ef8a511	0.48563436
39	0x3eacdebe	0.3376369
40	0xbd91caca	-0.07118757
41	0x3d3fe489	0.046848807
42	0xbf1371e3	-0.5759565
43	0xbe9a9595	-0.30192247
44	0x3e85965e	0.26091284
45	0x3e9a3ea4	0.30125916
46	0x3eee4cd5	0.46542993
47	0x3e28a22c	0.16468114
48	0xbe985c32	-0.2975784
49	0x3db3a19f	0.08771061
50	0xbe88ce3a	-0.26719838
51	0x3edda759	0.4329174
52	0xbef87ec7	-0.48534223
53	0xbeebefec	-0.46081483
54	0xbeea3539	-0.4574373
55	0x3e962338	0.29323745
56	0x3e7edf2a	0.24889818
57	0xbe43a57c	-0.19106096
58	0x3efe7437	0.4969804
59	0x3e317875	0.17331107
60	0xbddc84ab	-0.10767492
61	0xbea5212c	-0.3225187
62	0x3f2ce060	0.6752987
63	0x3e067e18	0.13134038
64	0xbef2c623	-0.4741679
65	0xbef2ac97	-0.473973
66	0xbebd5643	-0.36979875
67	0xbea57181	-0.3231316
68	0x3e9ad3b1	0.30239633
69	0xbe40af78	-0.18816936
70	0x3f07a536	0.52986467
71	0xbed5d070	-0.41760588
72	0x3eddbe8f	0.43309447
73	0x3f10b4c8	0.5652585
74	0x3e706dd3	0.23479395
75	0xbda2767f	-0.079327576
76	0xbeaec43f	-0.341341
77	0x3eff990a	0.49921447
78	0xbeed586e	-0.4635653
79	0xbe9e0c47	-0.30868742
80	0x3ceca797	0.028888507
81	0xbe673e46	-0.22582349
82	0x3f027e4f	0.5097398
83	0x3d661ac0	0.056177855
84	0xbeb9377d	-0.36175147
85	0xbed6a0cb	-0.4191955
86	0xbeca2ff3	-0.39489707
87	0xbe815a28	-0.25264096
88	0x3eb5772d	0.35442486
89	0xbe79c1fb	-0.24390404
90	0x3e9eb0af	0.30994174
91	0xbecc33e1	-0.3988333
92	0x3f14428f	0.5791406
93	0x3ed860e7	0.4226143
94	0x3e86c856	0.2632472
95	0xbe86a4cf	-0.26297614
96	0xbef5126c	-0.47865617
97	0x3f0035e2	0.5008222
98	0xbf071074	-0.5275948
99	0xbebeb5d7	-0.37248108
100	0xbe870333	-0.26369628
101	0xbeee3b7a	-0.46529752
102	0x3f1fc3b8	0.6240802
103	0x3e46ff7f	0.19433402
104	0xbe8313ba	-0.25600988
105	0xbe9dfb5e	-0.3085584
106	0xbebbb4a9	-0.3666127
107	0xbe26d9cc	-0.1629402
108	0x3e895233	0.26820526
109	0xbec4dc60	-0.38449383
110	0x3edf8b77	0.4366109
111	0xbf208444	-0.6270182
112	0x3ec958ea	0.3932565
113	0x3eee45bf	0.46537587
114	0x3e89b97a	0.2689932
115	0xbde1bc4d	-0.11022244
116	0xbebe60c5	-0.37183204
117	0x3eeec575	0.46635023
118	0xbf04617c	-0.5171125
119	0xbea488c1	-0.32135585
120	0xbe4c4f24	-0.19952065
121	0xbeb0fb99	-0.34566954
122	0x3f3739c9	0.7157255
123	0x3e19257e	0.14955708
124	0xbec36341	-0.38161662
125	0xbe8dd2ff	-0.2770004
126	0xbeb5d276	-0.3551213
127	0xbedeacb2	-0.4349113
128	0x3e87df83	0.26537713
129	0xbed0037e	-0.40627664
130	0x3eafa020	0.34301853
131	0xbeb2ea7f	-0.3494453
132	0x3edf7c9f	0.43649766
133	0x3f063321	0.52421767
134	0x3eccb1d8	0.39979434
135	0xbdeb387e	-0.114853844
136	0xbef6f89e	-0.48236555
137	0x3ef2c4b1	0.4741569
138	0xbef63941	-0.48090556
139	0xbee64834	-0.44976962
140	0xbe2fef7f	-0.17181204
141	0x3dffe0da	0.12494059
142	0xbef024cd	-0.46903077
143	0xbe9acdb4	-0.30235064
144	0x3e5c9b01	0.21543504
145	0x3edde5bd	0.4333934
146	0x3e5bc12e	0.21460411
147	0x3e0592c8	0.13044274
148	0xbef38bf6	-0.4756772
149	0x3ecdf6eb	0.40227446
150	0xbee3e8a6	-0.44513434
151	0x3f102a66	0.56314695
152	0xbf04d72d	-0.5189083
153	0xbeab410f	-0.33448073
154	0xbefc0d3a	-0.4922884
155	0x3e9868ae	0.29767364
156	0x3e3fbce4	0.187244
157	0xbef1a6ac	-0.47197473
158	0x3e81f6eb	0.25383696
159	0x3ecf3d2b	0.40476355
160	0xbd92ed20	-0.07174134
161	0x3cfeb908	0.03109409
162	0xbea50b5b	-0.32235226
163	0xbb9c47be	-0.0047692945
164	0x3d3b4e6b	0.045729082
165	0x3e3a442a	0.18190065
166	0x3ee3d72c	0.445001
167	0x3e3ee779	0.18642987
168	0xbde0b50a	-0.109720305
169	0x3ec58adb	0.385825
170	0xbee96cd8	-0.45590854
171	0x3f00fbf9	0.5038448
172	0xbf01103c	-0.50415397
173	0xbef801fa	-0.48439008
174	0xbf054d77	-0.52071327
175	0x3d5ec2a4	0.054384843
176	0x3f0b3b94	0.54387784
177	0xbf0fb79c	-0.5613954
178	0x3eedd314	0.46450102
179	0x3eb6d696	0.3571059
180	0xbdd2bc21	-0.10289789
181	0xbeb739c7	-0.35786268
182	0x3f2456e3	0.6419508
183	0x3e00abcd	0.12565537
184	0xbe8a979b	-0.2706879
185	0xbe89b68c	-0.26897085
186	0xbf0f244e	-0.5591477
187	0xbecfb05d	-0.40564242
188	0x3ec970d9	0.39343908
189	0xbee3a2a6	-0.44460028
190	0x3ecf09a6	0.4043705
191	0xbf01b39f	-0.50664705
192	0x3ee30a39	0.44343737
193	0x3ef247e9	0.47320488
194	0x3ec9e6aa	0.39433795
195	0xbd334fa8	-0.043777138
196	0xbedce536	-0.43143624
197	0x3e9ba54d	0.30399552
198	0xbed64de8	-0.41856313
199	0xbe9495fb	-0.29020676
200	0xbbe7bcab	-0.0070720515
201	0xbe9ed76e	-0.31023735
202	0x3f3c0606	0.7344669
203	0x3e3cd37a	0.18440047
204	0xbe7c1732	-0.24618223
205	0xbed4f54f	-0.41593406
206	0xbee7dab8	-0.45284057
207	0xbee12bfc	-0.4397887
208	0x3ebb53e5	0.36587444
209	0xbe906e4a	-0.28209144
210	0x3ee3bf08	0.44481683
211	0xbf21bb5c	-0.6317651
212	0x3ed028fc	0.4065627
213	0x3f1ef5fc	0.6209409
214	0x3ed007a8	0.4063084
215	0xbd2efaa2	-0.04271949
216	0xbeebbaba	-0.460409
217	0x3ed5ca3e	0.4175586
218	0xbf097272	-0.53690255
219	0xbe8ca403	-0.2746888
220	0xbe26cfc3	-0.16290192
221	0xbeb005da	-0.34379464
222	0x3f322b07	0.69596905
223	0x3e29dcc9	0.16588129
224	0xbee857cf	-0.45379493
225	0xbee139b7	-0.43989345
226	0xbeae8189	-0.34083202
227	0xbea850df	-0.328742
228	0x3eea8372	0.4580341
229	0xbef5a42f	-0.47976825
230	0x3e994ad7	0.2993991
231	0xbecaf6ef	-0.3964152
232	0x3eecf39b	0.46279606
233	0x3ee3506e	0.443973
234	0x3e799104	0.24371725
235	0xbe8f480e	-0.2798466
236	0xbee9bb91	-0.45650914
237	0x3ee4b0a8	0.44666028
238	0xbf06f1f8	-0.52712965
239	0xbe9f8bcd	-0.31161347
240	0xbe6422ab	-0.2227885
241	0xbedbc796	-0.4292571
242	0x3f43fca9	0.76557404
243	0x3d7ad31f	0.061236497
244	0xbeaeadbc	-0.34116924
245	0xbecd4a9b	-0.40095982
246	0xbf0788eb	-0.52943295
247	0xbe8b73a3	-0.2723666
248	0x3e9c5da0	0.3054018
249	0xbe805b3f	-0.25069615
250	0x3ee58de3	0.44834813
251	0xbf2ee99f	-0.6832523
252	0x3ef6a146	0.48169917
253	0x3eef72e7	0.4676735
254	0x3e62a1ef	0.22132085
255	0xbb3e2efa	-0.00290197

layer.bias f4 [20]
0	0x3e0755a7	0.13216268
1	0x3ecf093c	0.40436733
2	0x3dd8a646	0.10578589
3	0xbef388bd	-0.4756526
4	0xbf0d8acf	-0.5528993
5	0xbe851fc5	-0.260008
6	0xbeba0c7e	-0.36337656
7	0x3eb0832f	0.34475085
8	0x3eb33255	0.34999338
9	0xbec16857	-0.37774917
10	0xbf0a3d1e	-0.5399951
11	0xbef964f3	-0.4870983
12	0xbead3256	-0.33827466
13	0x3e727258	0.23676431
14	0x3ed95b57	0.424525
15	0x3e87279c	0.26397407
16	0x3e918d45	0.28428093
17	0x3e69925b	0.22809736
18	0xbe675ffc	-0.22595209
19	0xbebc543c	-0.36783016

classify.weight f4 [1, 20]
0	0xbe837c1f	-0.25680634
1	0xbf04fdab	-0.51949567
2	0xbed50c29	-0.4161084
3	0x3fb879be	1.4412153
4	0x3fa92cf5	1.3216845
5	0x3f98c803	1.1936039
6	0x3f8f0ab5	1.1175143
7	0xbe93e9ee	-0.28889412
8	0xbe558c95	-0.20854409
9	0x3f91796f	1.1365184
10	0x3f962b58	1.1731977
11	0x3f8c4574	1.0958695
12	0x3f9214bd	1.1412579
13	0xbebaf336	-0.3651368
14	0xbeb78c4c	-0.35849226
15	0xbeb0127d	-0.34389105
16	0xbeaf6b9c	-0.34261787
17	0xbe794f83	-0.24346738
18	0x3faa5087	1.3305825
19	0x3fa02504	1.2511296
