54-HouXiaoshan-TJ/week1/model.pth (torch, 4955 bytes, 4 tensors)

embedding.weight f4 [17, 20]
000000 09 b7 58 3f 5c 73 64 bf b6 39 b7 be 0c c8 5c bf
       0.8465429 -0.89238524 -0.35786217 -0.8624275
000010 63 de ae bf 32 8a 12 be 31 41 4e bf 86 20 3b 3f
       -1.3661617 -0.1431053 -0.80568224 0.730965
000020 16 9c d1 3e 2d 04 42 bd e7 af 58 3f 1b fd 64 bf
       0.40939397 -0.047367264 0.84643406 -0.8944871
000030 9d e9 3c be 91 02 f8 be 58 07 8f 3f e8 e4 79 3f
       -0.18448491 -0.48439458 1.1174116 0.9761491
000040 e4 cd 81 3f dd a4 d0 3f f3 5f c9 bf 10 03 94 3f
       1.0140958 1.6300312 -1.5732406 1.1563435
000050 5e 3f 29 be 64 a0 bf 3e 9e 52 01 c0 6c ba fe 3e
       -0.16528079 0.37427056 -2.0206676 0.49751604
000060 13 91 8b 3f 33 dd bc 3d 40 f9 10 bd 2e ca 02 3f
       1.0903648 0.09221878 -0.035393953 0.5108975
000070 dd 03 69 3f 98 66 97 3e ba 35 17 bf 1b 27 21 be
       0.9102152 0.2957046 -0.59066355 -0.15737574
000080 d2 24 56 3e 02 2f a7 be 83 15 17 bd f6 85 ae be
       0.20912483 -0.32653052 -0.03688575 -0.3408658
000090 c8 dd 48 c0 bc 77 29 3f ea cd f2 bf 62 e1 ab bf
       -3.1385365 0.66198325 -1.896909 -1.3428156
0000a0 98 a0 2f bf f9 60 02 bf 68 fe b7 3e 73 47 58 3f
       -0.6860442 -0.5092922 0.35936284 0.8448402
0000b0 47 6e 25 3f 50 50 59 be 18 fe 33 3e 4d 01 ac bf
       0.64621395 -0.21222043 0.17577398 -1.3437897
0000c0 44 a6 bb 3e f2 de db 3e 3a cd 14 40 76 7e 29 c0
       0.36650288 0.4294353 2.325026 -2.6483436
0000d0 81 2b 11 40 b8 12 5d bf e2 07 38 be 47 cf 50 3f
       2.2682803 -0.8635669 -0.17971757 0.8156628
0000e0 dd c2 71 bf e1 5c 53 bf 33 ad 14 bf ea 69 77 be
       -0.9443796 -0.82563597 -0.5807678 -0.24161497
0000f0 ce 5f a6 bc 47 a5 70 3d e0 10 d2 be 72 07 0e bf
       -0.020309355 0.05875137 -0.410285 -0.5548011
000100 c8 d8 0e be 32 f3 32 3f 7a 46 8d 3e a3 01 d7 bf
       -0.13949883 0.69902337 0.27592832 -1.6797374
000110 c7 24 01 bf 1a cb 25 3e a8 31 1f be 34 aa 36 3e
       -0.5044674 0.16190758 -0.15546286 0.17838365
000120 75 75 50 3f 6b a6 1d c0 39 6a 75 3f 30 ea 6d 3d
       0.81429225 -2.4632823 0.9586521 0.058084667
000130 06 3a 0b bf fa 25 89 3e 84 f8 63 3e e7 d2 9f be
       -0.5438541 0.26786786 0.2226277 -0.31215593
000140 1b fd a8 3e 23 de 1f bf 5b 10 9d bc 03 ff 8c bf
       0.33005604 -0.6244833 -0.019172838 -1.1015323
000150 21 a7 e5 be 4a 0c 54 bf 7b 88 f9 3e 7d 11 55 be
       -0.44854072 -0.8283125 0.4873694 -0.20807452
000160 5b 8f 37 3e 2c 7f ae be db 24 27 bf 5f 20 c4 bf
       0.1792578 -0.340814 -0.6529061 -1.5322379
000170 cb 9d bd 3f 57 24 3a bf 3d 6d 82 3f 8a 5a 05 3f
       1.481378 -0.727117 1.0189587 0.52091277
000180 2a 51 c5 3e 1f 13 4a 3c a4 6a ac bd 33 b0 2f bf
       0.38538486 0.01233366 -0.084187776 -0.68628234
000190 2d a1 45 bf 53 22 41 bf 4b 18 ad bf 50 54 77 3e
       -0.7719906 -0.75443 -1.3523039 0.24153256
0001a0 9f 09 5c 3f 40 4e 60 3f 83 f7 31 be 1d ca a4 bf
       0.8595218 0.876194 -0.17379574 -1.287418
0001b0 9d 2e 16 3e ed 44 c1 3f 35 62 70 3d c2 1d 51 40
       0.14666219 1.509916 0.058687408 3.2674413
0001c0 74 e4 04 c0 3f c8 aa 3e 33 b4 58 3e a7 00 26 3f
       -2.0764437 0.333559 0.2116249 0.64844745
0001d0 d2 06 6f bf 1e 0e bc be 6c f0 07 c0 41 65 c7 be
       -0.9336978 -0.3672952 -2.1240492 -0.38944438
0001e0 2e d0 0a c0 d9 b3 ac 3f 89 c4 97 bf 02 97 af be
       -2.1689563 1.3492385 -1.1856853 -0.34294897
0001f0 d2 e7 ba 3c bb ea fc 3f e5 06 a7 3f 2e 24 bb be
       0.022815619 1.9759134 1.3048979 -0.3655104
000200 b4 b5 e2 bf 0d 3f 2f 3e d0 9d fb be 4e 19 6f bf
       -1.7711701 0.17113896 -0.4914384 -0.93397987
000210 5f 2a db bd b2 0c e6 bf f4 20 d5 3d 66 90 50 3d
       -0.10701441 -1.7972624 0.10406676 0.05091896
000220 42 39 6f be e6 fd a7 3e 76 bc 4d 3f fb 86 60 3f
       -0.23361686 0.32810897 0.80365694 0.87705964
000230 b7 01 38 bf ed 99 20 3c 0e 13 d6 be 53 b0 e3 be
       -0.71877617 0.009802324 -0.41811413 -0.44470462
000240 a8 f5 c5 be f6 56 88 bf c5 a3 ba be cf 10 0a bf
       -0.38663983 -1.0651538 -0.3645307 -0.539319
000250 2d 05 0c bf c2 63 d6 bd 3c 32 1c c0 cd 2b 5f bf
       -0.546954 -0.10468246 -2.440566 -0.8717621
000260 6d 54 8b bf c6 2e 6d 3f e9 6a 7c be 93 a1 36 bf
       -1.088514 0.92649496 -0.24650158 -0.7134029
000270 03 53 73 be d7 1a 85 3e 80 1a 96 bf d5 64 54 3f
       -0.23762135 0.2599704 -1.1726837 0.8296636
000280 2c d6 79 3e 7c 7f 14 3f b7 48 58 be 04 aa ce 3d
       0.24398106 0.58007026 -0.21121489 0.10091022
000290 67 90 07 bf 4f 84 58 3f ba 99 9c 3e 82 9c 61 3f
       -0.52954715 0.84576887 0.30586034 0.88129437
0002a0 2f 82 83 be bf 6c e8 bf 4d 75 61 bf 73 67 94 bf
       -0.2568526 -1.8158187 -0.8806961 -1.159407
0002b0 6c b0 96 3e d2 d4 8d be 12 2c 06 bf 04 1f fc 3d
       0.29431474 -0.27701432 -0.52410996 0.12310603
0002c0 69 e7 a6 bd f6 0b b3 bc da 08 14 3f e9 73 fa be
       -0.08149607 -0.02185629 0.57826006 -0.48916557
0002d0 4c 06 bb bf 23 b9 df 3e 40 d3 ff 3f ec 56 ae bf
       -1.4611297 0.43695936 1.9986343 -1.3620276
0002e0 b1 f2 48 bf b0 4b 65 bf 0c e4 1c c0 e0 e5 b7 3e
       -0.7849532 -0.89568615 -2.4514189 0.35917568
0002f0 f7 27 88 be 91 d9 82 3f 6b ee df 3e 4b 29 30 3d
       -0.2659299 1.0222646 0.43736586 0.04300813
000300 9b 60 65 3e 5b 1c a0 3f dc b3 1b 3f 89 a0 85 3f
       0.22400133 1.2508653 0.6082132 1.0439616
000310 40 de 1a 3e b7 83 a9 bf ea 7d 48 be b1 b1 a5 3f
       0.15123844 -1.3243321 -0.19579282 1.2944852
000320 0b 15 e9 3f 60 1c ff bf 7e 36 8a 3f e6 3c f0 be
       1.8209547 -1.9930534 1.079788 -0.46921462
000330 6d 07 45 3f bc 40 7f 3e eb 11 76 be af b7 51 3f
       0.76964456 0.24927038 -0.24030273 0.81920904
000340 5e bf a9 be 14 b0 4a bf ea 41 3c 3f 4e 6d b5 3e
       -0.33153814 -0.79174924 0.73538077 0.35434955
000350 12 73 84 bf 0f f0 d3 bd 73 57 30 3f 20 04 75 bf
       -1.0347617 -0.10348522 0.68883437 -0.9570942
000360 a7 f1 91 bf 94 fa fe be 1b 99 99 bd bd 6b f0 be
       -1.1401871 -0.4980055 -0.07499906 -0.46957198
000370 78 0c 3f bf fa 08 22 be 67 4c 06 c0 a2 ba b8 3e
       -0.746284 -0.15823737 -2.0984132 0.3607989
000380 18 1a 2d bf ae b8 38 3f 80 30 b3 be 6a a1 89 3f
       -0.6761794 0.721568 -0.3499794 1.0752385
000390 7c b0 8e bd da fe b3 3e 76 2c b4 be 70 e0 9c be
       -0.069672555 0.35155374 -0.3519017 -0.30639982
0003a0 ee 90 96 3d ae dc 94 3f 15 82 d4 3f ae 68 a7 3e
       0.07351862 1.1629846 1.6602198 0.32697052
0003b0 30 08 dc 3e 62 3c 7b 3e f1 c9 89 3c e1 23 2a be
       0.42974997 0.24534753 0.016819926 -0.16615249
0003c0 6a 7e 40 bf a0 51 6f 3f 6e d5 08 3e 40 8d 41 3f
       -0.7519289 0.93483925 0.13362667 0.75606155
0003d0 89 b7 b8 3f 79 48 0e bd d0 11 b9 bf 4b 61 21 3f
       1.443101 -0.034737084 -1.4458561 0.6303908
0003e0 5f e4 cc be ce 57 cd 3f e1 fc 29 3e 27 f1 3b bf
       -0.40017983 1.6042421 0.16600372 -0.73414844
0003f0 59 fc d8 bf d8 f4 49 3e e2 7d 06 bf dd 04 6b bf
       -1.695201 0.19722307 -0.5253583 -0.91804296

layer.weight f4 [20, 20]
000000 0c 67 5c 3e 0c 26 da 3d 00 3f d4 3c d0 83 5f be
       0.21523684 0.10651788 0.025908947 -0.21827626
000010 82 6c 1f be b0 95 0f be 18 6f 35 3d f0 64 49 bc
       -0.15568736 -0.14021945 0.0442954 -0.012292132
000020 c8 d1 c5 3d 68 67 52 3d ee 08 07 3e 80 a5 51 3e
       0.09659153 0.051368147 0.13187 0.2047329
000030 08 67 b4 3d 2d f6 05 be 86 a6 12 3e c2 da 89 bd
       0.08808714 -0.1308219 0.14321336 -0.06731178
000040 d0 32 ad bd 90 72 8b bd 06 73 2e 3e 6d 6d f4 bd
       -0.08456957 -0.068089604 0.17036065 -0.11934934
000050 00 49 f2 3a bf 1e 21 be 6c 98 18 be ea e1 60 3e
       0.001848489 -0.15734385 -0.14901894 0.2196118
000060 10 62 17 3e 40 e9 1c 3b 60 6b 13 bc a8 10 e5 3d
       0.14783502 0.0023942739 -0.008997768 0.111848176
000070 1c 5e 71 bd 06 6d 0a be 00 54 ee 3b 00 42 ba bd
       -0.05892764 -0.13518152 0.007273197 -0.0909462
000080 80 8e 54 3d 64 d0 1d be 64 bf 3e 3e ee e2 1b 3e
       0.05189371 -0.15411526 0.18627697 0.15223286
000090 d0 5a 84 3c 00 67 14 3d 4a 70 16 3e 58 66 66 3d
       0.016156584 0.03623104 0.14691272 0.056249946
0000a0 88 b5 59 3e 80 96 36 3d 9d 44 1d be 88 7b e6 3d
       0.21260655 0.04457712 -0.15358205 0.112540305
0000b0 48 b5 ba 3c 45 4a e0 bd 52 06 59 3e 22 d7 54 be
       0.02279152 -0.10951666 0.21193817 -0.20785192
0000c0 62 89 10 3e 00 1c 55 be c8 b0 ce 3d e8 c7 1c 3d
       0.14114907 -0.20811462 0.10092312 0.038276583
0000d0 c0 11 2c bb 56 05 2a 3e 50 11 18 3e 50 35 f1 3d
       -0.0026255697 0.16603598 0.14850354 0.11777747
0000e0 72 c4 b5 bd 40 d2 66 bc c2 e4 4a 3e c4 a9 23 be
       -0.088753596 -0.014088213 0.19813827 -0.15982729
0000f0 e8 03 ee bc 22 d6 4e be 18 a6 31 3d f0 41 22 be
       -0.029054597 -0.20198873 0.04337129 -0.15845466
000100 dc 8b ba bd 80 4f 3f bc 08 02 56 3d 00 45 2d 3e
       -0.09108707 -0.011676669 0.05224803 0.16920853
000110 74 c2 86 3d c2 9b 82 bd a4 4f 5d bd 3c 99 fb 3d
       0.06580058 -0.06377365 -0.05403103 0.122850865
000120 ce 37 4d 3e 76 a5 21 be 14 7b 5d bd 20 bb de 3d
       0.20040819 -0.15785775 -0.054072455 0.10875535
000130 20 e3 2a 3d 84 0c 1b 3e d4 c2 ef 3d c4 1f ef 3d
       0.04172051 0.15141493 0.117070824 0.11675981
000140 8c f8 2c bd 84 54 5d be 84 02 da 3d 48 52 b3 3d
       -0.04222922 -0.21614271 0.10645011 0.08755928
000150 25 6b 25 be 34 6e 53 be 50 96 d3 3d f9 af 3c be
       -0.16154154 -0.20647508 0.10331404 -0.18426503
000160 dc d0 f3 bd 46 0b 21 be 92 19 54 be 40 7c 00 3d
       -0.11905071 -0.15726957 -0.2071288 0.031368494
000170 f0 a6 b4 3d 5e 0a fb bd 3a 47 94 bd 31 23 61 be
       0.08820903 -0.12257837 -0.07240148 -0.2198608
000180 0a ed 41 be db a3 47 be 40 02 f3 bc ac 15 4a 3e
       -0.1893808 -0.194961 -0.029664159 0.1973483
000190 ac f0 12 be 7e 5f 35 3e 52 ca 3c 3e ec 16 23 3e
       -0.14349622 0.17712209 0.18436554 0.15926713
0001a0 34 30 98 3d d3 08 2f be 18 cd c3 bd 40 a5 55 3b
       0.07431069 -0.1709321 -0.09560603 0.0032599717
0001b0 84 05 38 3e 5c d2 e0 3d 00 5f a5 3b 40 a6 89 3d
       0.17970854 0.10977623 0.0050467253 0.06721163
0001c0 80 95 70 3c 64 fa 17 3e 84 8c 87 bd a0 4a 67 bd
       0.014684081 0.1484161 -0.06618598 -0.056467652
0001d0 32 43 2a be f0 26 25 3d d4 e2 6c bd 01 72 15 be
       -0.16627195 0.040320337 -0.057833508 -0.1459427
0001e0 58 01 83 bd 96 7c 80 bd 50 45 7c 3c 61 9a e9 bd
       -0.06396741 -0.06273763 0.015397385 -0.114063986
0001f0 b0 95 0d 3d 34 17 32 3e 08 17 cf 3d d0 12 47 bd
       0.03456658 0.17391664 0.10111815 -0.048601925
000200 2c 6a 20 be 30 95 bb 3d b4 ca bf 3d ce 0a 0b 3e
       -0.15665501 0.09159315 0.093648344 0.1357834
000210 10 d1 38 3d 2e fe ba bd 2c ad 45 3e b6 58 24 be
       0.045121253 -0.09130512 0.19304341 -0.16049466
000220 2d 0b 29 be a8 7b 18 3e 2c 2b dd 3d 9a 3c 82 bd
       -0.1650817 0.14890921 0.1079925 -0.06359215
000230 3e cf 5c 3e 40 c4 3d bc ab 92 44 be 3a 7c 08 3e
       0.21563432 -0.011582434 -0.19196574 0.13328639
000240 44 bb 9a 3d e0 1f 8c 3d 64 9a 8d bd c4 a1 5b 3e
       0.07555249 0.06842017 -0.06914213 0.21448427
000250 ee eb 0b 3e 6d e1 f5 bd e1 ac 03 be 74 35 90 bd
       0.13664219 -0.12005887 -0.12858917 -0.070414454
000260 fd bd 2f be 90 fd 21 3e bc a4 13 bd ec 00 a3 3d
       -0.17162319 0.15819383 -0.036045775 0.0795916
000270 e6 ef 02 3e 8a 5d c0 bd e6 c0 53 3e 58 cc 44 3e
       0.12786826 -0.09392841 0.20679054 0.19218576
000280 00 2e b9 bb a6 58 8b bd f0 6d fa 3c b0 f6 03 be
       -0.0056512356 -0.06804018 0.03057 -0.12887073
000290 10 00 1b be 39 89 2b be 18 71 be bc 00 f2 88 bb
       -0.15136743 -0.16751565 -0.023247287 -0.0041792393
0002a0 00 e2 dc 3d f8 65 16 3e f0 4d 25 3c a0 47 ee 3c
       0.107852936 0.14687335 0.0100893825 0.029086888
0002b0 a4 3f 89 bd d6 41 c7 bd 65 43 ca bd f8 02 83 3d
       -0.067015916 -0.09729354 -0.09876136 0.063970506
0002c0 10 40 dd bc 0c 9e e4 3d ef 03 4a be 08 df b6 3d
       -0.027008086 0.111629575 -0.19728063 0.089292586
0002d0 e4 b8 a0 3d 88 b1 8c bd 26 f3 2b be 5c 0a 3d be
       0.07847765 -0.06869799 -0.16791973 -0.18460983
0002e0 49 8a 1f be d6 8a 1f 3e 08 f9 41 3e a6 7c 2d 3e
       -0.15580095 0.15580305 0.18942654 0.16942081
0002f0 f8 e3 b0 bc 3c 0b 37 be b8 a5 d1 3d e6 62 a5 bd
       -0.021593079 -0.1787538 0.102366865 -0.08075504
000300 5c a9 83 3d 30 7b af 3d 80 ab 34 be d0 18 71 3d
       0.06428787 0.08568418 -0.17643547 0.058861554
000310 90 b5 af 3d e0 59 cb 3d f0 af 4f 3d 60 63 11 bc
       0.08579552 0.09929252 0.050704896 -0.0088737905
000320 82 07 0e 3e 00 f5 95 3a 52 81 53 3e 46 eb 46 be
       0.13870052 0.0011440814 0.206548 -0.19425687
000330 9c 77 4a 3e 60 d6 9f 3d e2 60 34 3e 9b 3e 5e be
       0.1977219 0.07804561 0.17615083 -0.2170357
000340 d0 92 70 bc 78 65 e5 bc 1c 94 5e 3e 5a 8e 10 3e
       -0.01468344 -0.028002486 0.21736187 0.14116803
000350 40 50 2d 3d 62 75 91 bd ba 0a 63 3e 80 ea 18 bc
       0.04231286 -0.07102467 0.2217206 -0.009333253
000360 72 0d 0f 3e a4 c9 23 3e 8c 73 b5 3d da 8c 0f be
       0.13969973 0.15994889 0.088599294 -0.14018574
000370 50 de f5 3c 0c 3c 0f 3e ae 07 2c be e2 5d 32 3e
       0.030013233 0.1398775 -0.16799805 0.17418626
000380 b1 da 45 be d0 ac 2c 3e 06 80 64 3e 50 5b f8 3d
       -0.19321705 0.16862798 0.22314462 0.121267915
000390 aa db 50 be f8 82 a9 3d e3 51 d9 bd 18 42 8f 3c
       -0.20396295 0.082769334 -0.10611322 0.01748757
0003a0 a0 83 9f 3d bc ed 9f 3d c4 83 2f bd 48 dd 3f 3e
       0.07788777 0.07809016 -0.04285027 0.18736756
0003b0 88 43 94 bc b4 0e f1 3d 64 bc 1e bd 12 3f 13 be
       -0.018098608 0.117703825 -0.038753882 -0.14379528
0003c0 78 e1 15 3e 86 b3 0a 3e 5c 52 a6 3d 34 37 b8 bd
       0.14636791 0.13545045 0.081211776 -0.08994904
0003d0 92 2a 4a be 1c d5 cd bd 80 87 11 3b 58 38 43 3e
       -0.19742802 -0.10050413 0.0022206008 0.19064462
0003e0 46 70 55 3e 7c 96 52 3e 9a eb 31 3e 30 0d 6d 3d
       0.2084361 0.20565218 0.17375031 0.057873905
0003f0 60 51 32 3d cd 0e 28 be 90 8e 1c 3d 2c ce 8b bd
       0.043534636 -0.16411896 0.038221896 -0.068264335

layer.bias f4 [20]
000000 c0 d1 52 be 08 75 ba bd 07 d8 e3 bd 46 80 3b 3e
       -0.20587826 -0.09104353 -0.11125188 0.18310651
000010 18 a0 bc 3d 46 32 0f be a0 f4 da bc 48 a1 a6 3d
       0.09210223 -0.13984022 -0.026727974 0.08136231
000020 4e 51 30 be 37 e3 4c be 9b c9 3c be 82 b3 9b bd
       -0.17218515 -0.2000855 -0.18436281 -0.07602598
000030 2a aa 2d 3e d0 8d b1 3d e9 e4 da bd dc a6 cb bd
       0.16959444 0.08669627 -0.106881924 -0.09943935
000040 5a 2f 26 3e 9a 37 8e bd e0 50 a4 3b ae ff 3c be
       0.16229 -0.06944199 0.005014524 -0.18456909

classify.weight f4 [1, 20]
000000 c4 29 5d bd 94 17 a0 bd 66 d2 0d be a9 da 53 be
       -0.05399491 -0.07816997 -0.13849792 -0.20688881
000010 62 e5 0d 3e 40 8d 5e 3d d8 1c 85 3d 2d 35 f4 bd
       0.13857034 0.054333925 0.06499642 -0.11924205
000020 20 62 f7 3b 3c de a7 3d 41 85 d4 bd cc e8 a7 bd
       0.007549539 0.08196685 -0.10376979 -0.08198699
000030 a5 34 ce bd 37 94 55 be 4a b6 29 be 25 c1 e7 bd
       -0.10068635 -0.2085732 -0.16573444 -0.11316136
000040 04 07 07 be 9e e9 24 be 0c 25 99 3d 46 1e 1e 3e
       -0.1318627 -0.16104743 0.07477769 0.15441236
