100-范万朋-广州/week2/Model_test.pth (torch, 7003 bytes, 5 tensors)

linear1.weight f4 [30, 20]
00000000: 40e3 ba3e ef9f 05be e250 e13d d945 133f
00000010: 5bc3 07bf a070 21bd a9e8 013b 712b 60bd
00000020: 7690 993e 18ac 8a3d 768f 193c 788b 8dbe
00000030: 4e5b 383e db75 313e 8829 ce3e 0415 8dbd
00000040: 61c3 873e 5f50 603e d1ed f8be 51c5 863e
00000050: 3b38 bc3e dde3 953e e2d9 2d3e 7978 1d3e
00000060: 266d b03e c998 53be d3c4 2fbf 1293 dbbe
00000070: 2c15 08bf c70b 3dbf edcb bb3e 7b30 053e
00000080: 2f68 b1be 0c76 6abf 6f1d 9fbe 62a7 c4be
00000090: 13d7 1ebe cda6 8f3e 7f78 c83e 80e1 9c3d
000000a0: 8dde 053f 2f1d 163e d39a 8a3e 0a40 533e
000000b0: 321b 4d3e e3a6 e83d 0bee 49bf 1a93 81be
000000c0: 8233 06bf 25d9 08bd 5349 973d d0c3 853e
000000d0: 7379 6ebe 88f2 f8be 032c 21bf c612 20be
000000e0: fba8 e9bd dcd3 f73c 4fc5 073e 51e2 fcbd
000000f0: e028 2a3e 12b9 a13e 64fa f9bd 7c24 c5bd
00000100: 7cf4 a33e d35a d93e 90bc df3e 63eb f0be
00000110: dcfd d43e a728 a23d d7eb f3be de51 f43e
00000120: 8775 cbbc c037 acbe be2e e63d 9a26 0a3f
00000130: fb91 acbd e865 20bf 01a6 193f 15d2 e83e
00000140: df8d 02be 4f2d 073e 4d1c 4f3d daef 023e
00000150: e64c 653e 9064 b7bb 1f2d 07be 6222 8bbd
00000160: 89c2 31be d3b2 7fbd 4c3f c83d dc6b 323b
00000170: f792 f7bc 8b2f 8abe bcfe a5bd 02c4 a2bd
00000180: f1b9 be3d 7507 f43d 5baf 963d 2863 2bbe
00000190: c484 303f 73b7 84be eef0 473c ca3d fd3e
000001a0: 6725 14bf acbb 2cbe 9569 82bd 9f8b 643c
000001b0: a1d5 e43e e2bf 9c3d fd84 fdbd 439c d6be
000001c0: 8bb5 0c3e ed45 d63d 1680 403e 1335 c5bd
000001d0: c0d7 e63e 99f4 1c3f a955 28be 8d8e 21bd
000001e0: c330 133f d467 97bd 7845 b2bd fa10 8f3e
000001f0: af6d 6dbe ed1c 90be 7fb2 8c3e 112b 1bbd
00000200: b770 2e3e f46b 2ebe c933 febd 6112 8fbd
00000210: dfe9 cebd 1687 153e 2529 a9bd 2fa5 81be
00000220: 245a b63e 64e6 113f 9537 83be 9ec4 5cbd
00000230: 4e1e 083f 2449 73be 2e49 05be 406e f63e
00000240: 6430 4fbe 7190 b5be a4d4 163e 97b2 4d3e
00000250: 6b50 a23e 8aec 783e ab70 28be f333 8cbe
00000260: ba33 e53d eb17 233d 56bd 8a3e 65da 26be
00000270: 4bcb ef3e f9b6 183f c475 92be 7e9c 123d
00000280: 43b1 b53e c9bb 48be 08e7 c13c 4bc8 bd3e
00000290: 4115 10bf 70af e33d 4647 9cbe 783f 09b8
000002a0: 17bb 2d3e 2c3e acbd 342b 87be 44ec e3be
000002b0: b485 a53e ee7b b63e bc05 903e bb5e c3bc
000002c0: c966 333e 53c7 003e 8f96 a4be 4e40 08be
000002d0: 201d 3c3f c6f6 06bf 1bcf 8d3d 755a 2b3f
000002e0: ed42 0fbf 6b4a d6bd fc16 d8bd ff32 5abe
000002f0: f172 413e b237 e03d c664 1fbe 1681 e4be
00000300: 315f c83e cfcb 313d f484 083f b36a 73be
00000310: f67e a63e a5d1 0d3f c083 15bf 5a35 683e
00000320: f8e9 5d3f 620b eb3e a467 a33e 7a1a b53e
00000330: ab1b ca3e c956 8d3e 5412 5abf 9f6a cdbe
00000340: b269 d1be 4d2b 0cbf c692 fc3e e244 7cbe
00000350: 390c f6be 014c 43bf 5939 5dbc 013c 5dbf
00000360: 3368 d4be 4908 d73d a525 c03e b172 d3be
00000370: 84c4 1a3c 78dc 58bd 73bf 8dbd 2242 c9bd
00000380: 61fb 8f3c fc88 dfbd 18c7 5c3e a83c 0d3e
00000390: 3c02 ca3d 13f2 413e 7f46 923e b144 1bbc
000003a0: e114 9cbe 156f 863d 416b 21be 9668 cf3e
000003b0: 20f4 183c 0f92 9b3e d326 1d3e e69d 183d
000003c0: d4d9 143e 6097 12be 52ff 22bd c1fe 023f
000003d0: a37f 0d3e fab1 8fbe 716c c83e bd6f 4e3e
000003e0: 8a92 9d3d ae7b 88bd 54c1 c3bd 1687 0dbe
000003f0: 6032 9cbe 7bb6 4b3e 6f8c 1b3e c43a f9be
0.36501503 -0.13049291 0.11001755 0.57528454 -0.53032464 -0.03941405 0.0019822514 -0.05472893
0.29993027 0.067711055 0.009372583 -0.2764547 0.1800358 0.17330115 0.4026606 -0.06888774
0.2651625 0.21905659 -0.4861894 0.26322415 0.3676165 0.29275408 0.16977647 0.15377988
0.34458274 -0.20663752 -0.68659705 -0.42885643 -0.53157306 -0.73846096 0.3667902 0.13006775
-0.34649798 -0.91586375 -0.31077144 -0.38408953 -0.15511732 0.28056946 0.3915443 0.07660198
0.5229271 0.1465957 0.27071247 0.20629898 0.20029905 0.11359956 -0.7887885 -0.25307542
-0.52422345 -0.03341021 0.07387032 0.26125956 -0.23288517 -0.48622537 -0.6295778 -0.15632161
-0.114091836 0.03025239 0.13258861 -0.12347854 0.16617155 0.3158651 -0.12205961 -0.096260995
0.32022464 0.42452106 0.4369855 -0.47054586 0.4159993 0.0791791 -0.4764087 0.4771871
-0.024836315 -0.33636284 0.11239384 0.5396515 -0.08426281 -0.62655497 0.60018927 0.4547278
-0.12749432 0.13200878 0.0505641 0.12786809 0.22392616 -0.005596705 -0.13200806 -0.067936674
-0.17359366 -0.0624264 0.09777698 0.0027224934 -0.030221445 -0.26989397 -0.08105227 -0.07947542
0.09312809 0.11915485 0.07357665 -0.16737044 0.68952584 -0.2592121 0.012203438 0.49461204
-0.5786957 -0.16868466 -0.063677944 0.013949304 0.44694236 0.07653786 -0.12378881 -0.41916093
0.13741128 0.10462556 0.18798861 -0.09629264 0.4508648 0.61310726 -0.16438927 -0.039442588
0.5749628 -0.073928505 -0.08704656 0.2794264 -0.23186372 -0.2814707 0.27479932 -0.03788287
0.17035185 -0.17033368 -0.12412221 -0.069859274 -0.10103201 0.14602312 -0.08259801 -0.25321338
0.35615647 0.56992173 -0.25628343 -0.053898446 0.5317124 -0.2375837 -0.13016197 0.4813099
-0.20233303 -0.35461763 0.14729553 0.20087658 0.3170198 0.24308982 -0.1644923 -0.27383384
0.11191507 0.03981773 0.27097577 -0.16294248 0.46834788 0.59654194 -0.28605473 0.035793774
0.35486802 -0.19602884 0.023669735 0.37066874 -0.5628243 0.111174464 -0.30523127 -3.2722455e-05
0.169659 -0.08410296 -0.2640015 -0.44516194 0.3232857 0.35641426 0.28129375 -0.023848882
0.17519678 0.12576036 -0.32146117 -0.1330578 0.7348194 -0.52720296 0.06924268 0.669349
-0.55961496 -0.10463413 -0.10551259 -0.21308516 0.18891503 0.10948123 -0.15565786 -0.44629735
0.39135125 0.043407258 0.5332787 -0.23771171 0.32518739 0.5539802 -0.5840416 0.22676602
0.86685133 0.45907122 0.3191501 0.35371763 0.39474234 0.27605274 -0.85184216 -0.40120408
-0.40900952 -0.5475357 0.4933073 -0.24635652 -0.480562 -0.7628785 -0.013502442 -0.86419684
-0.41485748 0.10499627 0.3752872 -0.4129844 0.009446267 -0.05294463 -0.06921282 -0.09827067
0.017575921 -0.109147996 0.21560323 0.1379267 0.098637074 0.1894 0.2856941 -0.0094768265
-0.3048468 0.06564156 -0.1576357 0.4050948 0.009335548 0.3038487 0.15346842 0.03725996
0.1453622 -0.14315557 -0.039794274 0.51169974 0.13818221 -0.28065473 0.39145234 0.20159812
0.07693966 -0.06664215 -0.09558359 -0.13821062 -0.30507183 0.1989383 0.1519029 -0.48677647

linear1.bias f4 [30]
00000000: 36f8 fbbd 2d87 173c e9e5 403e fc09 85be
00000010: 5fa4 83be c153 95be e7df 8b3d 6840 fd3d
00000020: 02dc 8dbc 234d 80be 33cd b23d 1a3a dcba
00000030: 7f48 9c3d 1edc 63be 1211 e8bd e21d c63c
00000040: f877 82bd a519 4fbd 1a6f 2f3b 3887 21be
00000050: 4065 30be d3bc b1bd aac1 653d 59ca 51bd
00000060: f058 51be f52e a43d 5f09 5b3c 7c98 ba3d
00000070: 36a3 f7be ea21 af3d
-0.12303202 0.009248537 0.18837704 -0.2598418 -0.25711343 -0.29165462 0.06829815 0.123658
-0.017316822 -0.2505885 0.08730545 -0.0016801984 0.07631015 -0.22251937 -0.11331381 0.024184171
-0.063705385 -0.050561566 0.0026769103 -0.15774238 -0.17226124 -0.086785935 0.056092896 -0.051218364
-0.20444083 0.08016769 0.013368933 0.09111115 -0.48366708 0.085513905

linear2.weight f4 [3, 30]
00000000: 07d2 a9be 08b4 b03e 58a7 853e 2f06 9a3d
00000010: 07da 643d 07d5 23bf d272 a1be d9ab e7be
00000020: c26d 8abe a056 d9be b5e5 503e 41d6 07be
00000030: 7034 33be c96c 013f 590f 29be b218 4bbe
00000040: 70b9 09bf 5476 c13e 6a92 dd3c 8fd9 08bf
00000050: faff 4f3d 8a6f ffbe 3e2b 8ebe ddc6 7c3d
00000060: 3988 7dbd 6a0b c53e f0bf 8d3e 6136 67be
00000070: 86b7 babe 0b73 023f 6839 903e a35a 77bf
00000080: 5535 debe 98ec 353f 710a 51be 7ea0 273e
00000090: 4bb6 223e 82d2 283e a0b8 373d 968d 003f
000000a0: ab5c 73bf cc0f b3bc 5e08 143d 624f 65bf
000000b0: c8d1 07be c179 d63e 5e7c 8e3e 1a18 58bf
000000c0: fa51 09be 9eec 823e 9143 0f3f c166 c23e
000000d0: a549 ff3d 6034 92be f11e 85be 6f8e 94bf
000000e0: 09c6 463f a57d db3d 4975 e4bd 90a8 67bf
000000f0: ead4 a63e 4e1a 0dbe 0afe 5f3e 57f6 b8be
00000100: 5040 92bd 976f 723e 51db 283e a8fd 383e
00000110: 7d44 9a3e fc99 fe3e 2273 b8bc d3f1 603e
00000120: 85af 5f3e 24aa eebc d88b e93d 865b c13e
00000130: fdc7 c43e 0c94 073d 63fa 773e d855 843e
00000140: 842d d7be 4cb8 c43e aa99 c63e c467 0b3e
00000150: d8a5 4d3e 800f 113e 2621 c9be be2f 573e
00000160: b641 533e 49fb b03e
-0.3316805 0.34512353 0.26104236 0.07520711 0.05587199 -0.6399693 -0.31532913 -0.45248297
-0.27036864 -0.42448902 0.20400126 -0.13265325 -0.17500472 0.5055662 -0.16509761 -0.1983364
-0.5379858 0.3778559 0.027047355 -0.5345697 0.050781228 -0.49889785 -0.27767366 0.06171309
-0.06189749 0.3848527 0.276855 -0.22579338 -0.36468142 0.5095679 0.28168797 -0.96622676
-0.43400064 0.7106414 -0.2041414 0.16369817 0.15889852 0.16486552 0.044853806 0.50216043
-0.95063275 -0.021858118 0.036140792 -0.89574254 -0.13263619 0.41889766 0.2782926 -0.84411776
-0.13410178 0.2557115 0.55962473 0.3796902 0.124652185 -0.28555584 -0.2600017 -1.1605967
0.7764593 0.10717324 -0.11155183 -0.9049158 0.32584316 -0.13779566 0.21874252 -0.36125442
-0.07141173 0.2367538 0.16489913 0.18065512 0.30130377 0.49726856 -0.022515837 0.21967249
0.21844299 -0.029133864 0.11403626 0.3776514 0.3843383 0.033100173 0.24216609 0.25846744
-0.42026913 0.38421857 0.3878911 0.13613802 0.20082796 0.14166069 -0.39283103 0.21014306
0.20630535 0.34566715

linear2.bias f4 [3]
00000000: ed23 06be 55cd 00bf 43ef e43e
-0.13099642 -0.5031331 0.44713792

embedding.weight f4 [29, 20]
00000000: 662a ca3f 30b1 083f 8355 f2be be64 c03e
00000010: e650 c7bf 6ec9 2d3f 5e70 e93e 7dab f9be
00000020: c461 3f3b f9bb 0ebf 5567 a33f 8dba f53f
00000030: f605 5cbf b945 75bd 7277 74bf c49d 7e3f
00000040: f21e fbbf 6ae3 d63f d174 05bf e7ef c2be
00000050: 1b81 773f fc3e 343e 3836 8b3d e557 433f
00000060: 13f2 423f a435 183e c107 a9bf 0892 07bd
00000070: 59fa debf 5edf 0ac0 ef15 563f b8bf 48bf
00000080: 267a babf 8ba9 26c0 55bd bbbf 52f1 53bf
00000090: dcf4 d2bf 227b 153f 389e 543f 6d1b 4a3f
000000a0: 5db6 0b3f aa10 b93f dcbe 0d3f dc8f 8c3f
000000b0: 2657 903f 1b2f 703f 91f5 2ebf 7ea0 0fc0
000000c0: 3bd9 f7bd f664 94bf 847d c93f 42f0 82bf
000000d0: 7f45 97bf 724d c8bf 822a 563f 0f45 dcbf
000000e0: 952d d0bf 5a68 a8bf 4072 fc3f ec01 a13d
000000f0: a91c 3a3f c809 6340 df91 ef3f 407b 923f
00000100: 8bce 8c3f 233a 8fbf 7ca2 ebbf e3a5 06bf
00000110: 5d62 5cbf 4640 86bf f352 643f 8484 a33f
00000120: 815a f73e 841a 0bc0 98fc a7bf 20ef 51bf
00000130: 6434 1a3f d20c 8f3e e45d 0b40 49e4 0cbe
00000140: 3880 4a3d 4156 4fbf c7c8 55bf e2cb 7abf
00000150: e027 5bbf 9bb7 803f efc6 bcbe ed16 c53f
00000160: 837c 89be 69c7 0e3f 523e 813f cb0a 8d3f
00000170: 7d96 ebbe 3475 8e3e ac80 88be 5989 7e3f
00000180: 75ae fb3e aae5 903f b03f a93f 62ac 133f
00000190: 905c 21c0 4ff2 0dbf c109 e5be e124 4cbd
000001a0: ac04 01bf 1078 ab3e 6783 463e c968 7fbf
000001b0: 76f6 3f3f f3eb 09c0 61b7 51be 38ac b7bf
000001c0: 2e7a a33f dcf8 1bbe 52a8 4d3f 11d7 033f
000001d0: 64e7 60bf b1ca a7be 9d00 2f3f 26cf e6bf
000001e0: 94ec a0bf c1e2 3dbf b5fd c43f 9831 dcbe
000001f0: b299 fc3f 6642 f6be ba77 d33f ba87 b43f
00000200: 8cbf 33bf 82ed abbf 7ffc 983e b0f2 5e3f
00000210: 0200 49bf 7e50 f63f ee8f 863f dd7a d0bf
00000220: aace b6be 6941 39bf d0d5 3abe e84f f2be
00000230: a696 d4bf 4c42 90bf 34c2 2abe edd7 91be
00000240: 36ed 81bf 0a89 4dbf 2a80 963d 92fd e63f
00000250: eed4 a83c bdd0 f0bd ded0 b63f 0c90 acbf
00000260: 3a74 513e 6a51 af3e a580 9e3e e737 0dbf
00000270: a79a a73d 9449 473e 1779 723f dce6 ad3e
00000280: 2364 6dbe 711f 4bbe 260f 0bbe b6e7 64bf
00000290: a7f5 b73e bc4b a5bf 6830 5e3d 39ee dd3f
000002a0: 10f3 c43f f54f 803f 6ec0 673e 2982 78bf
000002b0: 6bcb 00bf 3b77 38bf 9975 1dbf f253 f13e
000002c0: 2dae 493f 3968 0b3f 4487 e93f 463d 6e3e
000002d0: ac7f b8bf 8060 f0bc 8ec0 d7bf 32d7 1ebf
000002e0: 278b 663f 0940 2abe bce5 c5bf 2666 8fbe
000002f0: cb5a d03d a8a5 af3e 54f7 00bf cc4d 5bbe
00000300: 4a78 9c3e 19d7 0640 3c9a 473f d631 54bc
00000310: 48aa 5abe 4381 d23c 22b2 1abf 714e 8c3f
00000320: d64f d4bf 9c24 97bf d91e b73f 4f57 e83f
00000330: 8f0d 483f 985e e3be 6f69 a33f 7aec d33f
00000340: 2396 873f 5a5f 073f 61e1 9bbe d647 5dbf
00000350: a236 af3e 9f2f 6e3f 5764 82bf a713 a93e
00000360: 6830 6cbf 7b50 1c3f aac6 fb3f 675b 983f
00000370: 7cd6 2b3f 048b c83f 7ba6 cb3e 9703 953e
00000380: 3c7c 743f a350 843f 5839 ffbe afd1 0540
00000390: 9cf6 73be 988a a43d 17a9 babf 54ec a83f
000003a0: b109 aa3f 3506 553f fb67 603f f2d2 aebe
000003b0: eb06 1cc0 78f8 673f 4ded 8cbf 0fd6 91bf
000003c0: 51a9 bcbf 98cd e4be fe97 0ec0 e038 bfbf
000003d0: e984 eebe d564 45bf 8179 9cbf 183f cf3e
000003e0: 1035 713f 70c7 d6bf 9dce 81bc 99a3 763e
000003f0: e801 da3f 99e3 09be 3f00 ee3f a4a2 13bf
1.5794189 0.53395367 -0.47330865 0.3757686 -1.5571563 0.6788548 0.45593542 -0.48763648
0.002920256 -0.55755574 1.276591 1.9197556 -0.85946596 -0.059880946 -0.9549476 0.9945948
-1.9618819 1.6788151 -0.5213137 -0.38073656 0.96681374 0.17602152 0.06797451 0.7630599
0.76150626 0.14864212 -1.3205491 -0.03309825 -1.742015 -2.1698833 0.8362722 -0.7841754
-1.4568527 -2.604098 -1.4667155 -0.827901 -1.6480975 0.5839101 0.8305392 0.789481
0.5457514 1.445821 0.55369353 1.0981402 1.1276596 0.9382188 -0.68343455 -2.2441707
-0.1210198 -1.1593311 1.5741429 -1.0229571 -1.1818084 -1.5648634 0.8365861 -1.7208575
-1.626391 -1.3156846 1.9722366 0.07861695 0.7269998 3.547472 1.8716391 1.1443863
1.1000532 -1.1189617 -1.8408961 -0.52596873 -0.8608759 -1.0488365 0.8918907 1.2774816
0.48311237 -2.1734934 -1.312396 -0.820055 0.6023619 0.2793947 2.1776056 -0.13758959
0.049438685 -0.8099099 -0.83509487 -0.9796735 -0.8560772 1.0056032 -0.36870524 1.5397621
-0.26852807 0.55773026 1.0097144 1.1018919 -0.4601325 0.27823794 -0.2666067 0.99428326
0.49156538 1.1320088 1.3222561 0.5768491 -2.5212746 -0.5544786 -0.44734004 -0.049839858
-0.50397754 0.33490038 0.19386064 -0.99769264 0.74985445 -2.1550262 -0.2048011 -1.4349432
1.2771661 -0.15231651 0.8033496 0.5150004 -0.87853074 -0.3277183 0.6836031 -1.8031967
-1.2572198 -0.74174124 1.5389925 -0.43006587 1.9734404 -0.48097533 1.6520913 1.410392
-0.7021415 -1.3431857 0.2988014 0.8708906 -0.78515637 1.9243314 1.0512674 -1.6287495
-0.35704547 -0.7236543 -0.18245625 -0.4732659 -1.6608474 -1.1270232 -0.16675645 -0.2848505
-1.0150516 -0.8028723 0.07348664 1.8046134 0.020609345 -0.11758564 1.4282491 -1.348146
0.20454493 0.34241802 0.30957523 -0.55163425 0.081837945 0.19461662 0.9471602 0.33965194
-0.2318273 -0.19836213 -0.13579997 -0.8941606 0.35929605 -1.2913737 0.054245383 1.7338325
1.5386677 1.0024401 0.22632 -0.9707361 -0.5031039 -0.7205693 -0.61507565 0.47134358
0.78781396 0.54455906 1.8244405 0.23265561 -1.4413962 -0.02934289 -1.6855638 -0.6204711
0.9005608 -0.1662599 -1.5460734 -0.2800762 0.101735674 0.34306073 -0.5037739 -0.21416396
0.30560523 2.1068785 0.7796972 -0.012951335 -0.2135402 0.025696402 -0.6042806 1.0961438
-1.6586864 -1.1808047 1.4306289 1.8151644 0.7814569 -0.44408107 1.2766551 1.6556542
1.0592693 0.5287987 -0.30445388 -0.8643774 0.3422137 0.93041414 -1.0186871 0.33022806
-0.9226136 0.61060303 1.9670002 1.1902894 0.6712415 1.5667424 0.39775452 0.291043
0.95502067 1.0337108 -0.49848437 2.090923 -0.23824543 0.08034247 -1.4582852 1.3197122
1.3284208 0.83212596 0.8765866 -0.34145314 -2.4379222 0.9061351 -1.1009918 -1.139345
-1.4739171 -0.44688106 -2.2280269 -1.4939232 -0.46585777 -0.7710698 -1.222458 0.40477824
0.9422159 -1.6779613 -0.015845591 0.24085845 1.7031832 -0.13465728 1.8593825 -0.57670045
