125-吕军-北京/week01/model.pth (torch, 5787 bytes, 4 tensors)

embedding.weight f4 [28, 20]
000000 4f a2 ef 3e 7f 64 36 3e dd af 7f bf fc fc 6e 3f
       0.4680352 0.17811774 -0.9987772 0.93354774
000010 99 b4 3d bd 17 ba 2a 3e ab bd 03 40 69 06 13 c0
       -0.04631481 0.1667255 2.0584514 -2.2972662
000020 80 d6 56 3e 98 ff a2 bf 09 a6 77 bf e2 3d 50 3f
       0.20980263 -1.2734251 -0.96737725 0.81344426
000030 e4 f6 a5 be 6d a4 8d 3f 0a aa d4 bd 68 16 0e 40
       -0.32414925 1.1065804 -0.10383995 2.2201176
000040 e2 23 8a 3e 72 3e 3f 3f 79 97 cc 3e e7 ae 17 3f
       0.269805 0.7470466 0.39959314 0.59251255
000050 68 38 32 c0 ab b1 0b 3f ce e9 12 c0 75 5d 24 3f
       -2.7846928 0.54567975 -2.2955203 0.64205104
000060 d1 50 59 3f c4 49 06 40 96 9a db 3f bb a3 1b c0
       0.8488894 2.0982523 1.7156551 -2.4318683
000070 a4 2f a0 3f 36 15 b9 3f b5 64 12 3f ee 75 8d 3e
       1.2514539 1.4459598 0.57184917 0.27629036
000080 27 d8 70 be c9 f8 12 40 32 51 01 c0 14 c5 91 be
       -0.23519956 2.2964346 -2.0205808 -0.2847067
000090 6f 26 32 bf b9 d4 8b 3f e3 1c fe be 58 80 b5 bf
       -0.69589895 1.0924293 -0.49631414 -1.4179792
0000a0 e4 50 01 bf 19 10 ba bf 16 b3 b4 3e c4 a4 a5 bf
       -0.50514054 -1.4536163 0.35292882 -1.2940907
0000b0 68 20 24 c0 c1 a0 1c 3f ec 0c 25 3f 8f d9 d6 bf
       -2.564478 0.6118279 0.6447284 -1.6785144
0000c0 7e 47 26 40 cc fc 1c be d3 2d b7 3f ff df 88 3f
       2.5981135 -0.1533081 1.431086 1.0693358
0000d0 59 38 04 c0 48 a9 33 be f3 ce ff bf 83 33 e5 3f
       -2.0659392 -0.17545044 -1.9985031 1.7906345
0000e0 c5 29 8a bf 3e 9b 1d 3e f8 3c 06 c0 10 8d 96 bf
       -1.0793997 0.15391251 -2.0974712 -1.1761799
0000f0 f9 4a d2 3e f7 b9 11 bf 0c 35 0e c0 e5 9e 00 c0
       0.41072825 -0.56924385 -2.2219877 -2.0096982
000100 a6 2b 90 bf 9e 54 96 3f 7d 16 5e 3f 23 31 02 bf
       -1.126332 1.1744573 0.86753064 -0.50856227
000110 52 51 e6 be a4 54 5b 40 13 6e 6b 3e a4 56 d7 3e
       -0.44983917 3.427041 0.22991209 0.4205829
000120 94 a1 a6 bf 02 76 e3 3f 38 70 02 bf 79 d1 5e 3f
       -1.301806 1.7770388 -0.5095248 0.8703838
000130 6a c2 cf be 6c 08 f4 3f e3 a1 37 c0 a1 22 bb bf
       -0.40578014 1.906507 -2.8692558 -1.4619943
000140 67 84 8f 3e c9 f3 10 bf 38 df 4c 3f 4c 40 44 be
       0.28030702 -0.56621987 0.80028105 -0.19165152
000150 6a ce 5a 3f e1 8d 9c 3f e5 d2 2d bf 71 63 20 bf
       0.8547121 1.2230798 -0.67899925 -0.62651736
000160 84 1a 76 bf 73 b7 9c bf a8 8d 4f 3e 02 06 10 bf
       -0.9613421 -1.2243484 0.20268881 -0.5625917
000170 60 d9 8f 3f fe 21 38 3f 71 12 8b bd d9 7f bd bf
       1.1238213 0.7192687 -0.06790627 -1.4804641
000180 18 09 ac 3f 7c 07 07 3b 54 44 0c bf 5a 7a c5 b8
       1.3440275 0.0020603826 -0.5479176 -9.416482e-05
000190 76 47 f5 3e 44 5b 99 bf 17 63 e3 3f 34 0f f6 3e
       0.47906083 -1.1980977 1.7764615 0.48058474
0001a0 2e 44 83 bf a4 d2 81 bf 22 db 01 bf e0 eb 5a 3f
       -1.0255182 -1.0142407 -0.50724995 0.85516167
0001b0 2e 1a fd 3e 1b 9e f6 bf a6 a7 8a 3e 7c c5 c3 bf
       0.49434036 -1.9267 0.2708103 -1.5294642
0001c0 3e f3 72 3f 48 c2 fe 3e bf d1 64 be bc 19 bc bf
       0.9490241 0.497576 -0.22345637 -1.4695354
0001d0 8b 40 06 3f 6c a4 b1 3f 45 bf 30 3f 0c 0a a0 3e
       0.52442235 1.3878303 0.69041854 0.31257665
0001e0 6c 24 3e c0 b9 4c af be d1 27 70 3f 50 f2 f6 be
       -2.970973 -0.34238222 0.93810755 -0.48231745
0001f0 ac 9a c6 3f 10 c9 4a 3f 5e a6 8a be 46 84 bd 3f
       1.5515952 0.7921305 -0.27080053 1.4805992
000200 66 a8 17 bf e4 37 ad bd ba c5 68 bf 9a fa e8 3d
       -0.5924133 -0.08457926 -0.90926707 0.113759235
000210 a9 56 71 3f 54 90 a8 bf 7b 76 8f 3e 6e ac d8 bf
       0.9427286 -1.3169045 0.2802008 -1.6927621
000220 eb 24 e8 be f0 d4 20 bf e2 08 05 3f 34 47 d4 3f
       -0.45340666 -0.62824917 0.5196668 1.658423
000230 f9 13 f2 be be c5 40 3e d1 88 24 bf 7f 61 8b be
       -0.47280863 0.18825433 -0.64271265 -0.2722282
000240 6b 15 7b be 06 98 5e bf 21 15 b9 bf c7 87 85 bd
       -0.24519889 -0.8695072 -1.4459573 -0.06520038
000250 24 60 3e bf c5 3d 07 c0 15 8c 85 3f ec f0 79 3e
       -0.7436545 -2.113145 1.0433375 0.2440831
000260 ee 2e 12 bf e0 c5 68 bf bf 08 d7 be 41 23 be 3e
       -0.5710286 -0.90926933 -0.4199886 0.37136272
000270 03 60 89 3f 4c de 89 be 7a 93 3b bc ff 56 fb 3d
       1.0732425 -0.26927412 -0.011448735 0.122724526
000280 1f ed 08 40 3c 7f f0 3e 95 32 93 bf 02 45 6d 3f
       2.1394727 0.46972072 -1.1499811 0.9268342
000290 52 b3 cf 3f f6 9f 50 c0 c5 70 34 3e 4e d2 6d 3f
       1.6226599 -3.2597632 0.17621143 0.92899024
0002a0 5d e2 ba bf d8 17 2e bd ad fc 39 bf 81 e5 9b bf
       -1.460033 -0.042503208 -0.7265118 -1.2179414
0002b0 ad 5b b1 bd 30 6d c8 3f 79 81 0c 3e b5 e0 af 3f
       -0.08660064 1.5658321 0.13721265 1.374045
0002c0 c0 38 54 3f 8c 7e a3 3e 70 f0 ea bf f4 39 c4 3f
       0.82899094 0.31932485 -1.8354626 1.5330186
0002d0 81 76 51 3f e5 48 48 3f 96 a6 0e 3d 8b 3e 04 bf
       0.8182145 0.7823623 0.034826837 -0.51657933
0002e0 ca 20 08 bf 4b 0c 89 3f 00 3c 81 bf 0d d0 42 3f
       -0.5317503 1.0706877 -1.0096436 0.7609871
0002f0 f0 47 c4 3f b1 46 b3 be 36 a2 18 bd d6 07 bb 3f
       1.5334454 -0.3501487 -0.03726407 1.4611766
000300 dd bb a3 3f 9c b2 7c be f2 b7 cc 3f 15 2b 66 3d
       1.2791706 -0.24677509 1.5993636 0.05619343
000310 00 ac e7 3e 1e dc c7 bf ee 59 0a 3f 33 fa 1c 3f
       0.45248413 -1.561405 0.5404347 0.61319274
000320 4c eb 09 3f 47 39 d2 3e d5 84 9f bf 9a 8e 59 3f
       0.5387466 0.41059324 -1.2462412 0.8498322
000330 26 55 2f 3f 6e 42 09 c0 dc 5e 06 bf b8 a5 e8 bd
       0.684893 -2.1446795 -0.52488494 -0.11359733
000340 f1 a3 ae bf f4 19 45 bf df 04 2f 3d d7 18 57 3f
       -1.3643781 -0.76992726 0.042729255 0.8402228
000350 11 29 c3 bf 0f 5b c1 bf a1 aa 97 3e 6b 4a d7 be
       -1.5246907 -1.5105914 0.29622367 -0.42048964
000360 73 ec 6b 3c 89 b2 e6 bf 6d 0d a1 be 0e e8 48 bf
       0.014399636 -1.8023235 -0.31455556 -0.7847909
000370 16 3d 49 3e 16 0c 2f bf d1 88 e7 3e f1 e0 c6 3f
       0.19652209 -0.68377817 0.4522157 1.5537397
000380 4c 2c a8 bf 46 71 cb 3c 68 df 74 bf 72 0f 84 bc
       -1.3138518 0.024834286 -0.9565339 -0.016120646
000390 7b 4e 88 bd ab ce 95 bf b9 1d 79 be 7c 01 37 bf
       -0.06655594 -1.1703695 -0.24327745 -0.7148664
0003a0 dd 87 1f 3f 04 aa a2 be 82 c7 82 3e 86 54 25 3f
       0.62316686 -0.31770337 0.25542837 0.645821
0003b0 da 70 ab 3f 51 25 f1 3e 47 bb b7 3e 7a 4b 74 3f
       1.3393815 0.47098783 0.3588507 0.9542767
0003c0 b5 e0 47 3f 1f c6 88 be 04 4c 50 3f c0 95 8f 3f
       0.7807725 -0.26713654 0.8136599 1.1217575
0003d0 38 73 87 bf 45 17 67 be 82 53 08 3f 77 5b 25 bf
       -1.0582037 -0.2256747 0.5325242 -0.6459269
0003e0 8b 09 13 bf 6f f3 07 bf dc 66 63 bf 49 95 fd be
       -0.57436436 -0.53105825 -0.88828826 -0.49527958
0003f0 34 ba 36 bd 60 c3 c4 bf 3a 52 7f 3e a5 20 44 3e
       -0.04461117 -1.5372124 0.2493371 0.19153078

layer.weight f4 [20, 20]
000000 06 e5 be be 7e d4 da be dc 05 90 bd b8 2e 58 be
       -0.37284106 -0.42740244 -0.070323676 -0.21111572
000010 bd 20 28 be e8 03 5e 3e 82 69 4a 3f 19 47 a6 be
       -0.16418739 0.21681178 0.7906724 -0.32476118
000020 e6 83 ae 3e 7a f5 fa 3e 0f 00 53 3e ea 5a b7 3e
       0.34085006 0.4901541 0.20605491 0.3581155
000030 28 07 c8 be e9 cb 0d 3f 9d 94 27 be e7 90 7b 3e
       -0.3906796 0.5538927 -0.16365285 0.24566995
000040 6b 98 f1 be c5 35 44 3e b9 75 68 be db 3a df be
       -0.47186598 0.19161136 -0.22701158 -0.4359959
000050 cb 3c 9e 3e 98 6c 6c 3e 8b 0d bc 3e 55 a0 4a 3d
       0.30905756 0.230883 0.36729082 0.04946931
000060 1a a4 90 3e 5e e2 97 be fc 6a f4 be dc ba 9a 3e
       0.282502 -0.29664892 -0.47737873 0.30220687
000070 22 3f fa be e5 91 a3 be cc bb 4b be 71 96 a2 be
       -0.48876292 -0.31947246 -0.19895858 -0.31755403
000080 1b 10 71 3e 18 74 7f be d8 1b 9e 3d 47 cc d1 be
       0.235413 -0.2494663 0.077201545 -0.40976164
000090 97 c7 8b 3e 1e 68 04 bf 7c 1a 7d 3e 64 3a ca 3e
       0.27300712 -0.5172137 0.24717134 0.39497674
0000a0 c7 ce 14 bf f4 f4 cb bd 68 1e 18 be 57 45 e1 be
       -0.5812802 -0.099588305 -0.14855349 -0.43998215
0000b0 4e f6 ae bd d2 29 7e 3e 84 c5 0d 3f 65 26 99 be
       -0.08543073 0.2482064 0.5537951 -0.29912105
0000c0 6b 43 cb 3e d1 2d ec 3e c9 b1 a3 3e 69 2a 65 3e
       0.39699873 0.46128705 0.31971577 0.2237946
0000d0 b6 8d 89 be 9c 45 70 3e ca 6c ac be a0 de c2 3e
       -0.2686593 0.23464054 -0.3367675 0.38060474
0000e0 2d 70 ae be 34 a1 f4 3e bf ac 60 be d2 50 ed be
       -0.34069958 0.47779238 -0.21940897 -0.46350724
0000f0 7c 13 c4 be 58 b4 c9 be 2c 16 95 be c2 6c f5 be
       -0.38296115 -0.39395404 -0.29118478 -0.47934538
000100 50 d3 b4 bd 56 e8 ae 3d ee 85 3b 3f 65 8c a5 be
       -0.08829367 0.08540408 0.73251235 -0.32333675
000110 62 d7 b7 3e c9 fc ed 3e a8 5a dc 3e 2e ac 5c 3d
       0.35906512 0.46481922 0.43037915 0.05387514
000120 28 cd bc be 9d 02 9d 3e 37 1a 8e be c8 83 84 3e
       -0.36875272 0.30666056 -0.27754375 0.2588179
000130 3e 7b 9f be 76 41 c8 3e cc 56 25 be 52 ac 25 bf
       -0.31148714 0.39112443 -0.16146392 -0.64716065
000140 e1 2e 1f bf 3d 40 67 bd 8d 11 49 be 62 52 cf be
       -0.62180907 -0.056457747 -0.19635601 -0.4049254
000150 dd 01 47 be 1b bd ab 3e fc ca 55 3f 39 18 c6 be
       -0.19434305 0.33542714 0.83512855 -0.38690355
000160 69 2f e1 3e 24 a1 d9 3e 5a 3b 9f 3e a8 61 83 3d
       0.43981484 0.42505753 0.3109997 0.06415111
000170 e9 bc 02 bf 66 71 ae 3e ae 46 5d be b6 31 f3 3e
       -0.51069504 0.3407089 -0.21608993 0.47498864
000180 80 5e f3 be f6 7a 0c 3f f8 a9 93 be a8 b4 e1 be
       -0.47533035 0.54875124 -0.28840613 -0.44083142
000190 6b 5f 36 bf 73 71 a2 be a8 b6 d0 3b 01 6d c3 be
       -0.71239346 -0.3172718 0.0063694306 -0.381691
0001a0 bd 5d 09 be 2c cf 50 3e cd 5f d2 3e 0b f2 b6 be
       -0.13414665 0.2039153 0.41088715 -0.3573154
0001b0 45 e3 a4 3e 98 96 0e 3f d7 90 9b 3d cc 8a 35 3e
       0.32204643 0.5569854 0.075959854 0.17728728
0001c0 47 ba d3 be fc d4 dc 3e ad 06 6c be 29 24 a8 3e
       -0.41353056 0.43131244 -0.23049422 0.32840088
0001d0 30 4e fc be 93 1c 91 3e 94 ec 70 be 63 f2 ca be
       -0.49278402 0.28342113 -0.23527747 -0.3963805
0001e0 a2 c4 d2 3e 16 66 98 3e 91 99 33 3e cb 26 67 3e
       0.41165644 0.29765385 0.1753905 0.22573392
0001f0 93 e3 4e 3e 20 28 b7 be 63 a8 06 bf 4e f1 72 3e
       0.20204 -0.357728 -0.5260069 0.23724863
000200 4a ad c3 be f6 b5 17 bf c7 f5 e7 be 87 c9 af bd
       -0.38218147 -0.59262025 -0.453047 -0.0858336
000210 63 b2 8b 3e 16 dd a6 be 79 d3 75 3e 81 85 ed be
       0.27284536 -0.3259055 0.24006452 -0.46390918
000220 28 21 5e 3e f0 85 bb be 27 f7 13 3e 76 7b e5 3e
       0.21692336 -0.36625624 0.1444975 0.44820756
000230 74 7a 2a 3f 31 eb 9d 3e 97 16 47 3e 70 d3 06 3e
       0.665931 0.308435 0.19442211 0.13166595
000240 27 89 85 3e 17 4e 40 be 97 c4 0f bf 71 0c 68 3d
       0.260812 -0.18779789 -0.5615935 0.05665249
000250 41 fe 86 be e6 f2 f2 be fc b5 8d be 12 5b 2e 3d
       -0.26365855 -0.47450942 -0.27677906 0.04256732
000260 42 f3 a6 3e a8 8e a7 be 34 63 88 3d 9a 39 c9 be
       0.32607466 -0.32726026 0.066595465 -0.3930176
000270 de 4f d1 3e fb 01 d2 bd 81 10 a6 3e 0c b1 0b 3f
       0.40881246 -0.10254284 0.32434466 0.5456703
000280 31 90 35 bf 94 f5 89 be aa e9 40 be 1d 79 ef be
       -0.70923144 -0.26945174 -0.18839136 -0.4677209
000290 50 4c bb bd 06 42 93 3e ce 6f 4b 3f c3 e7 ae be
       -0.09145415 0.2876131 0.79467475 -0.34161195
0002a0 bb b4 b9 3e d2 30 e2 3e c7 35 d2 3e 12 25 0c 3e
       0.362707 0.44177872 0.41056654 0.13686016
0002b0 69 01 12 bf 4f 20 fe 3e 35 b8 2c be 8c ec fe 3e
       -0.570334 0.49634025 -0.16867144 0.49789846
0002c0 1c 19 d2 be fe 38 ec 3e f0 0d 91 be 3e 74 20 bf
       -0.41034782 0.46137232 -0.28330946 -0.6267737
0002d0 5c ca 62 3e 8b e7 92 bd 72 3f 0a 3e 99 1f 99 3e
       0.22147506 -0.071730696 0.13500765 0.2990692
0002e0 d2 77 99 3e 53 ed eb be 35 74 11 bf 44 f1 80 3e
       0.29974228 -0.46079502 -0.5681794 0.2518407
0002f0 9d c4 fb be 6c 03 df be 86 22 93 be dc 22 59 be
       -0.49173442 -0.43557298 -0.28737277 -0.21204704
000300 fc 75 34 3e 23 98 f5 be e2 db 3a 3d dc c3 dd be
       0.17623132 -0.47967634 0.045619853 -0.4331349
000310 f6 7f c6 3e be 3b 08 bd 42 2b 91 3e 7e 18 ec 3e
       0.387695 -0.0332601 0.28353316 0.46112436
000320 ef 02 0a 3f 22 bf b6 3e 32 66 37 3e 84 ab be 3e
       0.53910726 0.35692698 0.17910078 0.3724023
000330 40 17 93 3e 1a 0c 88 be fa b9 39 bf be 62 b5 3e
       0.28728676 -0.26571733 -0.725494 0.35426897
000340 a4 44 5d be 91 57 9b be 08 f9 28 be ed 1d 87 bd
       -0.21608216 -0.30340245 -0.16501248 -0.06597505
000350 c3 b1 bd 3e bb 21 06 bf 9f cf d6 3d e5 e4 76 be
       0.37049684 -0.5239522 0.10488819 -0.24110754
000360 63 ff ed 3e 64 9d 5c bd ae 0e 01 3e 51 1d 15 3f
       0.46483907 -0.053861037 0.12603256 0.5824786
000370 a4 c0 8f 3e 32 4c 05 3e 04 13 28 3c be 98 19 3e
       0.2807666 0.13017347 0.01025844 0.14999673
000380 bc 20 34 3e eb 8e 94 be f3 d7 e0 be c1 14 4c 3e
       0.17590612 -0.29015288 -0.43914756 0.19929792
000390 53 1c aa be 22 18 05 bf 06 f6 05 3d ea 37 ab be
       -0.33224735 -0.5198995 0.03270533 -0.33441097
0003a0 08 61 8e 3e e3 c5 8f be 8f 1f e1 3e b7 b8 b0 bd
       0.27808404 -0.28080663 0.4396939 -0.086289816
0003b0 eb 1e f9 3e ee cb ac be 10 d8 ae 3e 86 2e 02 3f
       0.486564 -0.33749336 0.34149218 0.5085224
0003c0 c2 97 f2 be ed 4c 0e be 74 c6 0e be a8 67 a6 be
       -0.47381407 -0.13896532 -0.13942891 -0.32500958
0003d0 69 cc 33 be 3b d6 89 3e 20 72 2e 3f d7 fb 84 be
       -0.17558445 0.26921257 0.6814289 -0.2597339
0003e0 e9 7a 89 3e 5f 05 ee 3e a2 2e d1 3e 69 db 4f bc
       0.26851586 0.46488473 0.4085589 -0.012686589
0003f0 5b 2e 7d be 42 f8 c1 3e db fa 2c be e6 ce b3 3e
       -0.24724714 0.37884718 -0.16892569 0.35118788

layer.bias f4 [20]
000000 a9 d3 d7 be bb 73 a9 3e 4e ba 3b be f1 15 e8 be
       -0.4215367 0.33096108 -0.18332788 -0.4532924
000010 e6 fb 10 bf 7b 59 57 be d3 8d 9f 3e 07 f9 06 3e
       -0.56634367 -0.21030228 0.3116289 0.13180934
000020 c5 e2 47 bf 2f 4b 61 3e b3 69 bd 3e f0 11 a6 3d
       -0.780804 0.22001337 0.36994705 0.0810889
000030 bd 77 10 be bb 00 be 3e 69 11 6c be 77 39 bd be
       -0.14108177 0.37109932 -0.23053516 -0.36957905
000040 f3 d5 ca 3e 71 4a e5 3e fb 3d 80 3d 42 d6 db be
       0.39616355 0.44783357 0.06261822 -0.42936903

classify.weight f4 [1, 20]
000000 cf 11 a7 3f fe 79 aa be 4b 4c a1 3f e4 0b 98 3f
       1.305231 -0.33296198 1.2601408 1.1878629
000010 f5 c4 8f 3f ea 07 a0 3f a4 8e 4c be 14 0e be be
       1.1231982 1.2502415 -0.19976288 -0.37120116
000020 b1 0b 9e 3f 7c b6 7a be eb bc 95 be 33 34 b4 be
       1.2347318 -0.24483675 -0.29245695 -0.35196075
000030 9e f8 96 3f 16 7f 78 be 9c 70 a3 3f 04 fe 8b 3f
       1.1794622 -0.2426723 1.2768741 1.0936894
000040 34 45 9d be 69 35 6a be f8 85 b6 be 8b d9 b7 3f
       -0.3071686 -0.22871937 -0.35649085 1.4363264
