17-赵圣博-秦皇岛/week1/model.pth (torch, 4507 bytes, 4 tensors)

embedding.weight f4 [12, 20]
000000 f0 5c 8e 3f 50 73 24 3f 14 42 a0 3e ea f7 85 be
       1.1122112 0.6423845 0.31300414 -0.26165706
000010 2f f3 84 bf 11 7a 88 3f d4 32 99 bf 0e fb 8c bf
       -1.0386714 1.0662252 -1.1968637 -1.1014116
000020 70 a0 c0 3d 21 b5 30 3e 9b 8d 3b 3f 2e b1 4d bf
       0.09405601 0.17256595 0.7326295 -0.8034848
000030 01 a6 d4 3e 5a 09 98 bf 56 6c 9a be 2f 8a 6c 3d
       0.415329 -1.1877854 -0.3016078 0.05774897
000040 e8 a5 b5 bf c6 0d ab 3e 40 29 81 be 39 fd a4 be
       -1.4191256 0.33408946 -0.25226784 -0.32224444
000050 bd 52 16 40 21 7e de be df 63 72 3f 3b 42 af 3f
       2.3488 -0.43455604 0.9468364 1.3692087
000060 31 d2 1c 3e 45 9d ba bf 3e 6d 7f 3f 8c f7 dc 3f
       0.15314557 -1.4579245 0.99776065 1.7263045
000070 0c 40 24 3f 03 33 f4 bf e5 90 15 bf 12 d0 6d bf
       0.6416023 -1.9078068 -0.58424217 -0.92895615
000080 2b 43 79 3b c9 05 9c bf 4c ae 5e bf c7 d3 a6 3f
       0.003803442 -1.2189265 -0.86984706 1.3033379
000090 37 d4 6e bf 39 3a f7 3f b7 2b c1 3d 23 9e 9a bf
       -0.93292564 1.9314643 0.09432166 -1.207951
0000a0 c2 29 81 3e e8 57 48 bf 09 07 d1 bf b9 bf 0e 3f
       0.2522717 -0.78259134 -1.6330272 0.55761296
0000b0 dd 39 ed bf 6b 11 bd 3f fb ba d9 bf 13 25 b3 be
       -1.8533283 1.477094 -1.7010187 -0.34989223
0000c0 f5 cf 93 3f 63 7b ca be ce 9f 12 3f 00 fb 4d 3f
       1.1547838 -0.39547262 0.5727509 0.8046112
0000d0 78 fc a2 3e 3a ac 06 40 d9 6f b4 3e 1f 5c c8 3e
       0.31833243 2.1042619 0.35241583 0.39132783
0000e0 7c 45 17 bf 06 47 a0 bf 7d 4c a0 bf bf 1f 93 3e
       -0.590904 -1.2521675 -1.2523342 0.28735158
0000f0 c3 d0 58 3f 45 1d 9b bf ae 08 23 40 40 98 c1 bf
       0.84693545 -1.2118307 2.5474048 -1.5124588
000100 94 26 da be 56 36 ba 3f c8 02 23 c0 5b 1b cf bf
       -0.42607558 1.4547832 -2.5470448 -1.6180223
000110 63 2f 8f 3f 81 54 c9 3f 9b 27 47 3f 98 fd 3a 3f
       1.1186336 1.5728914 0.7779481 0.73043203
000120 53 3c b5 3f 75 95 6a 3e 20 ea 27 3f 65 83 26 bf
       1.4159034 0.22908576 0.6559162 -0.6504424
000130 5a 80 89 be 2a 76 68 bf c0 06 10 40 8c fa 06 40
       -0.26855737 -0.90805304 2.250412 2.1090422
000140 19 d3 a3 bf 15 06 77 bf 6b 6a e6 bf 25 e5 78 bf
       -1.2798797 -0.96493655 -1.8001226 -0.97224647
000150 7c 00 e8 bf 7c 3d 8b 3f 1d e7 75 3e 5d 0a 3d 3f
       -1.8125148 1.0878139 0.24013944 0.7384394
000160 f6 1d 10 be 74 2f 4a bf 4c 51 8a bf 6a 3f b4 3e
       -0.14073929 -0.7897866 -1.080606 0.3520463
000170 2b c3 eb 3f da 17 2a bf ea f8 b0 3f 75 82 82 bf
       1.8418936 -0.66442645 1.3825963 -1.0196062
000180 5e 42 3a 3f df bb b2 bf c7 11 dc bf 72 52 20 40
       0.7275752 -1.3963584 -1.7192925 2.505032
000190 f9 a0 11 c0 22 3d 58 bf 30 86 82 bf 12 25 8e bf
       -2.27545 -0.8446828 -1.0197201 -1.1105063
0001a0 54 52 c3 be 33 b4 9f 3f f8 30 6f bf 0a 4e 0b 3f
       -0.3814875 1.2476867 -0.93434095 0.54415953
0001b0 b4 01 b4 be be 8f 56 3f 03 8c 1a c0 36 cc 9c be
       -0.3515755 0.83813083 -2.4147956 -0.3062455
0001c0 06 8e 95 be d2 6b a2 3e 85 dd a4 3f df 8e 8b 3e
       -0.29209918 0.31722885 1.2880102 0.2725744
0001d0 99 9e e3 bd 4c 57 1e bd 7f 49 ed 3e ca 20 f9 be
       -0.111142345 -0.03865747 0.46345136 -0.4865783
0001e0 d5 44 75 be 95 7f ff bf 14 0b 82 3f de 5a 8e bf
       -0.23952039 -1.996081 1.0159631 -1.112148
0001f0 e7 31 22 c0 c9 1c cd 3f dc ea 53 be 37 30 65 3f
       -2.5342958 1.602441 -0.2069506 0.89526695
000200 b8 99 55 c0 76 94 3e 3f 3b 6c c5 be 04 23 24 bf
       -3.3375072 0.74445283 -0.38559136 -0.6411593
000210 14 7c a2 3e b7 a1 04 40 3a 81 25 bf 88 36 53 3f
       0.3173529 2.0723703 -0.6465031 0.82505083
000220 69 9e 12 c0 22 22 97 bd 5e 76 2e 3f ec 4b d7 3f
       -2.2909186 -0.07379557 0.68149364 1.6820045
000230 69 a4 7b bf 0e c9 33 bf ed e7 39 c0 d5 9e eb bf
       -0.98297745 -0.7022866 -2.9047806 -1.8407847
000240 4f 51 96 bf 79 8f 3b 3f 37 70 d3 be 3b bb 77 bf
       -1.1743563 0.73265797 -0.4129655 -0.96770066
000250 27 b8 08 3f 92 01 84 3f c5 1c 07 c0 e6 41 8b be
       0.53405994 1.0312979 -2.111131 -0.27198714
000260 7a bf 29 3f 74 8f a0 be 60 bf 1c 3f d9 96 51 bc
       0.66307795 -0.31359446 0.61229515 -0.012792313
000270 2b 95 d8 be f3 6a 88 bc 28 02 26 3e ff 59 8a bf
       -0.42301306 -0.01665256 0.1621176 -1.0808715
000280 55 aa 5c bf b3 91 3e bf 95 30 e1 bf 9e c2 14 3f
       -0.86197406 -0.7444107 -1.7592951 0.5810946
000290 50 6d 83 be 8c 52 95 bf 7e e0 ba bd d3 38 e2 bf
       -0.25669336 -1.1665816 -0.0912485 -1.7673591
0002a0 87 2a 8b 3f 70 6e af 3f 40 e4 05 3f da ee fc 3f
       1.0872353 1.3705578 0.52301407 1.9760392
0002b0 f1 cb 8c be 96 5d b4 3f 39 0d 14 40 b6 de 19 3f
       -0.27499345 1.409106 2.313307 0.60105455
0002c0 10 19 cf be 6f 9e ae bd 11 79 ba 3e f4 ac 33 3e
       -0.4044881 -0.085263126 0.3642049 0.17546445
0002d0 9f b2 fd bc 21 f8 b2 3f e6 18 af 3f 88 70 ec 3e
       -0.030968962 1.3981973 1.3679473 0.46179605
0002e0 33 e1 79 3f 5d 3f f0 bf a8 44 ef 3e 67 3e 29 40
       0.9760925 -1.8769337 0.46732068 2.6444337
0002f0 fb 56 5e 3e 53 ea c2 bf ad bb 9f 3f a4 4c 1f bf
       0.21712868 -1.522776 1.2479149 -0.6222632
000300 f2 42 e0 be a0 99 d4 3e 0d 58 ad bf f4 e4 80 3f
       -0.43801075 0.41523457 -1.3542496 1.0069871
000310 56 a9 cd 3f d6 5f 76 3f 79 46 93 3f 8c 4a e6 bf
       1.6067302 0.96239984 1.1505882 -1.79915
000320 fb 58 5b bf 2d 8c f9 bf 27 37 9c be 38 5f a5 3f
       -0.8568265 -1.9495903 -0.30510828 1.2919683
000330 69 f6 f0 bf a3 81 83 be a4 a5 ff 3e 29 a4 bd bf
       -1.8825198 -0.25684842 0.4993106 -1.4815723
000340 89 a4 eb be bb 1b d8 3e d0 3c 9f bf 99 f8 ee 3f
       -0.46023968 0.42208657 -1.2440434 1.8669616
000350 71 79 68 bd 20 5e 90 3f 97 09 ce 3d 7d e3 ca bf
       -0.05675644 1.1278725 0.10060423 -1.5850674
000360 41 bc a1 3f 08 59 ad bf 83 32 36 3f 87 aa 90 bf
       1.2635576 -1.3542795 0.71170825 -1.1302041
000370 2d 6c 5f bf 30 ba ae bd e4 e5 52 bf 74 f6 ae be
       -0.8727444 -0.08531606 -0.82382035 -0.34172404
000380 95 ad 8c bf bb df 15 3f b7 51 08 bf 67 59 57 bf
       -1.0990473 0.5854451 -0.53249687 -0.8412079
000390 1a d6 d1 3d 48 69 c0 3f 6d b2 3d 3e 18 b1 98 bf
       0.10245915 1.5032129 0.18525095 -1.1929045
0003a0 dd cd 26 3f 9c 74 a9 3f eb 60 41 3f 8f b7 66 3f
       0.6515787 1.3238711 0.7553851 0.9012384
0003b0 00 27 18 3f 0f c0 9e bf 38 e6 35 bf 39 c9 05 3f
       0.5943451 -1.2402362 -0.7105441 0.52260166

layer.weight f4 [20, 20]
000000 55 5d 94 3d 03 4c d6 bd 6c ba 80 3e 00 c2 ea be
       0.07244364 -0.10463717 0.2514223 -0.45851135
000010 c2 fe 43 be 17 23 50 3e e2 fe a2 be 77 65 fa bd
       -0.19140151 0.20325886 -0.31835085 -0.12226384
000020 fe bf cd bd 99 96 a0 3e 7b c8 62 3e 5b 05 9f be
       -0.10046385 0.31364897 0.2214679 -0.31058773
000030 f7 74 c0 3e ba b7 02 3e 70 7b cd bd a1 93 83 3e
       0.37589237 0.12765399 -0.100333095 0.2569857
000040 0f 39 86 be 4b ff 6c be aa bd 35 3e 2d 96 25 3e
       -0.26215407 -0.23144262 0.17748132 0.16170569
000050 07 15 9b 3e ef e8 a5 3e 29 13 b7 3e 25 5e 81 3d
       0.3028948 0.32404277 0.35756806 0.06316785
000060 38 86 17 3f 11 77 66 be f8 f1 9c 3e c4 dc a1 3e
       0.59189177 -0.22506358 0.30653358 0.31613743
000070 d6 ae a3 bd 2b c2 3b bf 5b 71 e2 3e bd ce ce bd
       -0.07992332 -0.7334315 0.44227108 -0.10098026
000080 5f 33 c9 bd f5 b1 bf be 6a 96 ae be ac 70 e5 3d
       -0.098242514 -0.37440458 -0.34099132 0.11203131
000090 7b c0 62 3e 6e fd 07 3f 68 77 af bd 96 72 9f be
       0.22143738 0.5312108 -0.08567697 -0.3114211
0000a0 e4 39 a9 3e d6 94 81 3e 58 8d 91 3e 22 97 e8 3d
       0.3305198 0.25308865 0.2842815 0.11356951
0000b0 be 47 9e 3e 50 fb c6 be ae 62 b8 3e ab 3b 88 3e
       0.3091411 -0.3886361 0.36012787 0.26608023
0000c0 43 10 3c 3e 34 ed c0 be cb 78 4a 3e c9 b0 68 be
       0.18365578 -0.37680972 0.19772641 -0.22723688
0000d0 82 2d 58 be 5a dd d4 be 77 02 00 bf 11 b9 85 bc
       -0.2111111 -0.41575128 -0.5000376 -0.016323598
0000e0 0e cd 96 3d f3 4b 1a 3f f1 60 0a be 77 ce 97 bd
       0.0736333 0.6027214 -0.13513543 -0.07412427
0000f0 25 d7 3d 3e f1 2e 60 3e 8e 93 e1 3e 08 5e 92 3e
       0.18539102 0.21892907 0.44057888 0.28587365
000100 42 a3 8c 3e 8d 42 9c be 54 f6 a2 3e 4c c3 6b 3e
       0.27468306 -0.30519524 0.31828558 0.23023719
000110 f3 5d 67 3e d4 8f 2d bf bf b9 81 3e b3 0a 9f be
       0.22594433 -0.6779759 0.25337026 -0.3106285
000120 03 fb 3c be 34 81 f3 be 24 9c ab be 20 a3 1b 3e
       -0.18455128 -0.47559512 -0.33517563 0.15198946
000130 d3 e0 10 3d 6c f3 12 3f c2 74 74 bd 6c a8 14 be
       0.03537066 0.5740268 -0.05968166 -0.14517373
000140 b4 f8 17 3f 44 13 d1 3e 12 fc c3 3e 3f 73 a5 3e
       0.59363866 0.4083501 0.38278252 0.32314488
000150 b1 01 0c 3f fc 88 b7 be d7 46 0d 3f 23 11 13 3f
       0.5469008 -0.35846698 0.5518622 0.57448024
000160 41 68 98 3e af 93 06 bf c9 ec 90 3e 75 25 cb be
       0.2976704 -0.525691 0.28305653 -0.39677015
000170 20 a2 32 be 68 47 e1 be a0 f0 02 bf 4d 2f 99 bd
       -0.17444658 -0.4399979 -0.51148415 -0.07479725
000180 c8 31 81 bc 5b cd 3f 3f 38 c3 24 bd bc d5 b1 be
       -0.015770808 0.7492272 -0.040225238 -0.3473338
000190 db c1 c0 3e e8 3e 01 3f b8 fd c1 3e 39 f7 8d 3e
       0.376479 0.5048661 0.37888885 0.27727678
0001a0 1f f1 04 3f 82 09 1d be a3 c9 ed 3e 25 9f 1b 3f
       0.5193042 -0.15335658 0.464429 0.6078971
0001b0 e7 72 d4 3d 03 0c ce be cd 13 d3 3e a9 03 c4 bd
       0.103734784 -0.4024354 0.41226044 -0.095710106
0001c0 05 ba e2 ba 73 bb c9 be 17 31 c6 be d5 68 97 bd
       -0.001729787 -0.39400825 -0.38709328 -0.07393042
0001d0 57 eb b4 3d 0c eb 21 3f 64 35 74 bd 11 04 aa be
       0.0883395 0.6324928 -0.05962123 -0.33206227
0001e0 4e c7 d3 bd b7 df c6 be a5 51 2d 3e 69 c1 19 be
       -0.10340749 -0.38842556 0.16925676 -0.15015186
0001f0 cd 6b 4d be 6d 37 bb bd b1 6a 09 3e be 1b 13 be
       -0.20060654 -0.09141431 0.13419606 -0.14366052
000200 9f 2b d2 3e b0 50 07 3e 9c d4 3e 3c b3 67 d4 3e
       0.41048905 0.13214374 0.01164737 0.41485366
000210 17 00 c2 3e ae 55 ab 3d 3b f7 1f 3e f5 6b 15 bf
       0.37890694 0.083659515 0.15621655 -0.58367854
000220 1c e2 f5 3d a6 6f 1e bf 31 da 75 3e b2 d7 95 3e
       0.120060176 -0.6188911 0.24009015 0.29266125
000230 4b c0 44 be 9d 64 a6 be 20 77 8e be 35 f2 b4 3d
       -0.19213979 -0.32498637 -0.2782526 0.0883526
000240 b3 80 da be fa 43 54 be 4e 27 73 3d 44 92 b4 be
       -0.42676315 -0.20729056 0.059363656 -0.35267842
000250 45 43 11 3e f3 91 0b 3e 01 7e 39 be c5 f8 41 3e
       0.14185818 0.13629894 -0.18114473 0.18942554
000260 26 c5 9a be df 66 89 3e 02 40 8b 3e 7d 7a af be
       -0.30228537 0.26836297 0.27197272 -0.3427314
000270 55 78 5c bd 52 b3 9b be 32 94 f1 3d 35 08 9f be
       -0.053825695 -0.30410248 0.11795844 -0.3106095
000280 ef 45 fa 3e c6 20 87 3e a6 b5 6e 3e 53 0e 1d 3d
       0.4888148 0.26392192 0.23311481 0.03834374
000290 9e 10 d3 3e 20 b1 9d be 04 54 d2 3e 95 e0 19 3f
       0.41223615 -0.30799198 0.41079724 0.6010831
0002a0 e2 4c 57 3e 3f c0 c3 be 7e 73 bb 3e 2e b0 f5 bd
       0.21025422 -0.3823261 0.3661155 -0.11996494
0002b0 d1 d5 96 be d0 a4 e9 be d1 19 07 bf 45 58 12 3e
       -0.29460004 -0.45633554 -0.5277377 0.14291485
0002c0 5e 5b 2b 3e c4 f2 cf 3e cb f4 79 3d cf a5 92 be
       0.16734073 0.40614903 0.06102447 -0.28642127
0002d0 c4 d8 20 3d f8 ac 76 bd 81 27 60 be 52 9a f8 3b
       0.039269224 -0.06022355 -0.2189007 0.007586756
0002e0 e0 39 04 bf 39 41 92 3e 4a 70 96 bb e7 b4 96 bd
       -0.5165081 0.28565386 -0.0045910226 -0.07358723
0002f0 b8 59 02 3e a3 fc cc bc 31 4d 9d 3e e7 98 48 be
       0.12729537 -0.02502281 0.30722955 -0.19589578
000300 b7 9f 48 3d e5 07 d7 3e 90 f1 25 bc f5 58 d4 3e
       0.04898044 0.4199821 -0.010128394 0.4147412
000310 14 fb 80 bd 25 e9 cd be 63 16 70 be 82 ab ff 3d
       -0.06297889 -0.40216938 -0.2344604 0.124838844
000320 a0 6d 4d be 3e 64 65 be c0 e4 69 bd e3 9e 7c 3e
       -0.2006135 -0.2240152 -0.05710292 0.24669985
000330 79 20 e9 bd bb ff c3 3d cb 83 49 3d 83 06 c8 be
       -0.11383147 0.09570261 0.049197953 -0.39067468
000340 65 9b 9b 3d 7d 41 c7 bd 47 38 01 be 19 b4 75 3e
       0.075979985 -0.09729288 -0.12619124 0.23994483
000350 2e 8f a0 bd 48 79 f8 3d 8f 6e 69 3e 6b ee 82 3c
       -0.07839809 0.121325076 0.22796081 0.015982827
000360 42 76 6c 3e e7 2a 9a bd 13 f6 9e be a2 6c bd bc
       0.23091987 -0.07527714 -0.31047115 -0.02312309
000370 d7 6b 29 3d 3a b0 1c be 6a b3 3c bd 7b 8c 1c bf
       0.04136261 -0.153016 -0.04606954 -0.61151856
000380 66 44 b0 3d 80 9a fc 3e 65 40 bf be 4a 87 80 be
       0.08606796 0.49336624 -0.37353817 -0.25103217
000390 2e d7 d6 3e fe e0 9b 3e 8a f5 f7 be 34 f3 87 3d
       0.41961044 0.30445093 -0.4842952 0.06638184
0003a0 ac a5 b1 3d 83 c5 54 be 52 c5 2e 3e 4c 44 7c be
       0.086741775 -0.2077847 0.17067459 -0.24635428
0003b0 85 c8 8d be 68 e7 2b be c2 d3 21 3e d5 f9 82 bd
       -0.27692047 -0.16787493 0.15803435 -0.06395308
0003c0 05 fc 76 be 3a b0 32 bc 61 67 46 be dc e7 d8 3e
       -0.24119575 -0.0109062735 -0.19375373 0.42364395
0003d0 85 d3 52 be 62 66 99 be b3 85 5c bc 48 c2 07 bf
       -0.20588501 -0.29960924 -0.013459611 -0.53030825
0003e0 26 6d 87 3e 4f d5 f4 3e b4 ea a3 ba 18 4d 44 3e
       0.2645046 0.47818992 -0.001250586 0.19170034
0003f0 a5 31 26 be eb 17 9a 3e 12 6b e0 3e a2 27 bb 3d
       -0.16229875 0.30096373 0.43831688 0.09138419

layer.bias f4 [20]
000000 1d b3 4d 3d 51 82 e5 bd 7a 89 42 be 0e 53 a7 be
       0.050219644 -0.112064965 -0.18997756 -0.32680553
000010 5e b1 00 bf 97 bb 04 be a7 c2 3a 3d d8 30 69 3d
       -0.5027064 -0.12962185 0.04559579 0.056931347
000020 57 af dc be 07 d9 5f 3d e5 ac 3e 3e 4f 41 d0 3d
       -0.43102524 0.054650333 0.18620642 0.101687066
000030 9c 26 82 3e ad 87 fc 3d 2e 62 7f be 2a 5d 39 3e
       0.25420082 0.123305656 -0.24939796 0.18101946
000040 3f bb 4f be 99 54 99 be 99 ee 07 bf d9 43 6f 3e
       -0.20286272 -0.29947355 -0.53098446 0.23365726

classify.weight f4 [1, 20]
000000 aa bd da be e9 1f 42 3f 9a 28 d5 3e d7 57 37 3f
       -0.42722827 0.7582994 0.4163254 0.7161841
000010 24 be 2d 3f d1 eb 79 3f 3f cd c0 be c1 1b fb be
       0.67868257 0.9762545 -0.3765659 -0.49044612
000020 59 87 57 3f 57 fa 01 bf 99 02 58 be 78 51 cf be
       0.841909 -0.50772613 -0.21094741 -0.40491843
000030 90 5c d1 be 02 1d 08 bf e2 e0 69 3f b0 6b ed be
       -0.40890932 -0.5316926 0.9135877 -0.46371222
000040 6c 10 79 3f f0 8b 5c 3f fe 6c 43 3f 39 4b 0e bf
       0.9729068 0.8615103 0.76338184 -0.5558353
