17-赵圣博-秦皇岛/week1/model.pth (torch, 4507 bytes, 4 tensors)

embedding.weight f4 [12, 20]
00000000: 9e8d b43e 0894 97bf d907 0bbf 40b2 983f
00000010: 6251 843f 45ef 8ebf 08fa 80be 7817 86bf
00000020: b440 aabc 90bd 6fbe 7b14 d7bf 68b7 a4bf
00000030: 118b 39be bc91 87bf 5ba4 bc3c 85a2 8f3f
00000040: affc abbf f094 d4be 5ae0 21be 2b08 41be
00000050: bdcf ffbe 8781 253e a2a0 3040 41aa a53f
00000060: 9f3d 243f 553c 2bc0 f3df dabf 6719 edbd
00000070: 9641 cbbe b6de 713f 645c 82bf f721 ac3f
00000080: 9b66 7abf 88b0 95be 9268 573f 7fd7 a93f
00000090: d1dc 543f 98fd 893f db42 243e 06b6 0440
000000a0: a77a de3e 116f 463f 56c1 833e 1d40 8d3d
000000b0: 55ea 2d3f 464e 1dbe 61b9 203f 9f6d 483f
000000c0: b901 003f feca 11bf a142 09bf bafd 9bbf
000000d0: c1ea f43e bc79 313f b5aa f1be a894 a9bf
000000e0: 4125 723f ddd7 323d 08aa 26c0 2b04 10bf
000000f0: 837a 453e 9fc4 cb3f bd76 963f 5469 dabb
00000100: f048 3f3f 8c91 9b3d be39 a93f cb8c 1dc0
00000110: 78b1 a73f 2420 7bbf 75bc b33f 062a ccbe
00000120: bee9 c53e 3386 be3f f33c 943f b4fd dfbf
00000130: ca98 92be 5a1a 1cc0 72d2 a6bf 15ab f1bf
00000140: 69a6 f83f 1da7 39bf e90d 27bf e1ba e23f
00000150: 0910 0a3e f2d7 573f 5015 8d3f 1f01 af3f
00000160: da0c bf3f 033b 82bf 1716 f2bd 07cc 1f3f
00000170: a975 5bbe a311 e1bf bd2a be3e 7696 263f
00000180: 996f bb3e 08d7 733f 49b1 b2bf b0be c83e
00000190: cc74 23bf 8d00 1a3f a970 35bf 46a2 4f3e
000001a0: 4358 983f a28e 153d d880 8a3f 2265 ef3f
000001b0: 9e74 743f 95e5 1f3f 435d 3040 4b09 4bbf
000001c0: 3e66 07bf d5a0 7cbf 9f5a f2be d7ca 86bf
000001d0: 6c51 f03e 1a02 e7bf 0569 24bf 4a5a aebf
000001e0: fe1b 93bf 91ee b73f 4e8e 693f db42 c4be
000001f0: 8397 633e fe96 983d d2b4 b13f 2d72 743e
00000200: 1e3b 913f 60d4 17c0 d4e8 01bf 9a47 28c0
00000210: 02bc c23e 1a19 8ebe fd38 b4bf b506 4ebf
00000220: db0a 35bf af6f 82be 0954 973e 0432 a0be
00000230: c2c3 00c0 ece5 443f 0bfe 58bf 60c8 2e3f
00000240: 361f 8a3f 7227 7b3e 18f3 003e dc97 843f
00000250: 9720 81bf 71ac babf 0852 d3bd 7cd9 f8bf
00000260: c7a0 fb3f 8e9b b53e 4089 bc3f 90ec 0fc0
00000270: 1798 8cbf f84e 3c3f a39a 15bf 3091 02bf
00000280: aa42 cc3d 6b0e f83f 6681 f3bf eb62 b2bf
00000290: 42c9 2a3e d977 763d 080d 943f 293b 93bf
000002a0: bc68 4c3f 8338 ee3f 2763 a23f d97d b6be
000002b0: 0aa9 e4bd 1025 cb3f a14e b93e 0915 dbbf
000002c0: 9b74 41bf b57a 22be 1005 cebf 1b8e b63f
000002d0: a4af aabe 3011 d0be 9b4e b33f 181b 65be
000002e0: ac4a 06be 766f 67bf d1ac c7bf 8f65 41bf
000002f0: d9f6 af3d 4cf1 0640 13d3 e5bf 2ce1 9a3f
00000300: 115f 2c40 8a5c f23f b71d 023e 22ce f3bf
00000310: 0010 65bf 9682 60bf 60c3 503f c3c8 273f
00000320: e2b1 853f bbf5 c1bf 862a 913d 0c36 0040
00000330: e36e a93f e64d e33f 3151 263e 8774 efbe
00000340: f91e 1fbf 0ef0 10bf 7ec6 a5bd cb9f d8bf
00000350: 4ac4 5e3f b1ef 9c3e b5dd 0140 5204 aabf
00000360: 3ffd a53b 3b52 3ebe 299a 1fbf 36d5 2cbf
00000370: 2191 ce3f e3ad 203e 105f 413f 546b 533f
00000380: 0ec1 dcbd 5aa1 c93f 5e28 903d 8e45 81be
00000390: 0398 99be 4015 5f3e 8d8a 2dbf 1c37 d8bf
000003a0: 6ca5 fabe 769c 7ebf c241 49be 9e91 04c0
000003b0: 30a1 ccbf 25ad 983e 7b76 babf 9d79 8ebf
0.35264295 -1.184205 -0.5430885 1.1929398 1.0337336 -1.1166769 -0.2519076 -1.0475912
-0.020782806 -0.23412156 -1.6803125 -1.2868471 -0.18119456 -1.059135 0.02302759 1.1221472
-1.3436488 -0.4151988 -0.1580824 -0.18850772 -0.4996318 0.16162692 2.7598042 1.2942582
0.64156526 -2.6755574 -1.7099594 -0.11577111 -0.39698476 0.94480455 -1.0184445 1.3447865
-0.97812814 -0.29236245 0.84143937 1.3268889 0.8314944 1.0780516 0.16041128 2.0736098
0.4345295 0.77513224 0.2573344 0.06896994 0.6793569 -0.1536189 0.62782866 0.7829227
0.5000263 -0.56950366 -0.5361729 -1.2186806 0.47835353 0.69326377 -0.47200552 -1.3248491
0.94588095 0.043662895 -2.604128 -0.5625636 0.19285016 1.5919379 1.1754986 -0.006665388
0.7472067 0.0759612 1.3220747 -2.4617183 1.3101034 -0.9809592 1.4041888 -0.3987581
0.38654894 1.4884704 1.15811 -1.7499299 -0.28632194 -2.4391084 -1.3032973 -1.8880335
1.9425784 -0.7252062 -0.652556 1.7713281 0.1348268 0.8431388 1.1022129 1.3672217
1.4925797 -1.0174259 -0.118206196 0.62420696 -0.21431603 -1.7583507 0.37141982 0.65073335
0.3660858 0.95249987 -1.3960353 0.39207983 -0.6385009 0.6015709 -0.7087503 0.20276746
1.1901935 0.03651298 1.082057 1.8702738 0.95490444 0.6245969 2.7556922 -0.79311055
-0.52890384 -0.9868291 -0.47334763 -1.0530652 0.4693712 -1.8047516 -0.6422275 -1.3621304
-1.1492918 1.436968 0.91232765 -0.38332257 0.22225766 0.074506745 1.3883307 0.2387168
1.1346166 -2.3723373 -0.5074589 -2.6293702 0.38034064 -0.27753526 -1.4079891 -0.80478984
-0.7071969 -0.25475833 0.295563 -0.3128816 -2.011948 0.7691333 -0.8476264 0.682745
1.0790775 0.24526766 0.12592733 1.0358844 -1.0088071 -1.4583875 -0.103183806 -1.9441371
1.965844 0.3547024 1.4729385 -2.2488136 -1.0983914 0.73557997 -0.5843908 -0.5100279
0.09973653 1.93794 -1.9023864 -1.3936437 0.16678336 0.06017289 1.1566477 -1.1502429
0.7984731 1.8610996 1.2686509 -0.3564289 -0.11165054 1.5870686 0.36192802 -1.7115794
-0.7556855 -0.15867122 -1.6095295 1.4262117 -0.33337128 -0.40638113 1.4008363 -0.22373617
-0.13114423 -0.9040445 -1.5599614 -0.7554559 0.08592004 2.1084776 -1.795504 1.2099967
2.6933024 1.8934491 0.12706648 -1.9047282 -0.8947754 -0.8769926 0.8154812 0.65540713
1.044491 -1.5153116 0.07088189 2.0032988 1.3236965 1.7758148 0.1624191 -0.4676859
-0.62156636 -0.56616294 -0.080945 -1.6923765 0.87018263 0.3065162 2.029157 -1.3282568
0.0050655897 -0.18586056 -0.62344605 -0.67512834 1.613804 0.15691333 0.7553568 0.82585645
-0.1077901 1.5752366 0.070389494 -0.2524838 -0.29998788 0.2178545 -0.67789537 -1.6891818
-0.48954332 -0.9945749 -0.19653991 -2.0713878 -1.598669 0.298196 -1.4567407 -1.1130863

layer.weight f4 [20, 20]
00000000: 7ca0 29be 99b7 15be 1aa2 c83e 3c27 6dbc
00000010: 5c97 9d3d 930f a6be 6699 cbbe f592 2d3d
00000020: dfc7 f1bd b706 e93e f2d3 b4be 6e0a ba3e
00000030: 06a5 003e b119 dc3d be33 01be bc6e 9c3e
00000040: 5e8f bbbd 3c46 cfbc 1a85 aa3e abd9 023e
00000050: ca04 453e 900f ce3e 71e0 153e 3060 a4be
00000060: e2ad bd3c e8df e03d f2e0 3c3e c1d5 a2be
00000070: 524b 8f3e b9ff 4dbe 41d4 823e f8e8 56be
00000080: c8a6 06be 0fa6 843c fcfb 9dbe b51e 98be
00000090: 0e67 86bd a7d7 04be 8e4e 07be 59be 0c3d
000000a0: ab75 00bf 7e14 90be 7224 053f a2e0 4b3d
000000b0: a0f6 4abd 8072 8cbe 9d9c eebe 979b 4fbe
000000c0: c337 75be 12ff a53e ce1b cbbe 542a 063f
000000d0: 0488 02be 208f 493e 5d21 afbd a47f 903e
000000e0: dca4 28be 2c4d 0fbc 0d0b bd3c 65ed 343e
000000f0: f4a9 11bd 47af 3bbe c90c 9d3e 1cae 90bd
00000100: bec0 78bd 86dd e5be 08bb 02bf b6b4 a8bc
00000110: 0f86 f7bd 442f 413e 591c e9be ea82 013f
00000120: cb85 93bc 93bf da3d b487 84bd 044a 86bd
00000130: cec4 003d 37d1 c4bd 698b 033f 1585 743e
00000140: a1e9 0ebe 7cd6 6dbe 89ef d63e d1fa 833d
00000150: c062 3cbe 48fe 9bbe 3753 cfbe becb fdbd
00000160: 802b 25bd ea67 a83e 20bd 09be 1d13 d63e
00000170: 7841 293e 70ef 23bc 5b7b 3bbe e496 773c
00000180: 91e7 fb3c de75 a8bd 16b4 e63e 8932 7d3e
00000190: 3a2f 37be a624 0ebe 4642 033f 73ca ecbd
000001a0: 40a7 77be 3093 8ebe 2d0a 27bf 8390 be3c
000001b0: 1762 f5bd 559a af3e fab1 33be 4dee 943e
000001c0: 943c 193e 5fc9 1e3d f98e d239 ebd8 453e
000001d0: 7d0a 813e 69ff 92bd b1f7 dc3e 514c bd3e
000001e0: 0b59 1bbe 8803 b9bd f24c da3e 55e9 be3d
000001f0: daf6 dbbc e91c 27bf f4bb 35bf 5285 bbbd
00000200: e208 95bd a0e5 c53e e2d0 b6be 9e78 993e
00000210: 15fa 06be cdfb eb3d 8456 193d a4e2 6b3e
00000220: a164 0ebe d802 e0bd cf20 fa3e 80fe 393e
00000230: 8c39 cebe 5b52 b63d a76e f1bb aa56 4fbe
00000240: 45ce d93d bd60 9d3c 94f7 b93e b3f3 163e
00000250: ef41 793e 5f63 cabe 0d90 093e 9ccb c0bd
00000260: ac8e c9bc ddc5 fc3c 9d93 81bd c318 64be
00000270: 8b86 a7bc 4eb6 43be 4a01 9a3d 9730 c3be
00000280: d10f 5cbe 3501 b0be 6d4b e83e dafc 36be
00000290: 6681 c9bd 94d4 14bf a220 54bf 2e3a 1cbe
000002a0: 6522 11be ab01 9a3e 7507 abbe 62f0 bf3e
000002b0: 2d01 0fbe 8336 843d c28d 9bbd 2d69 363d
000002c0: 2412 0f3e 6649 763d 98c1 033f b906 8d3e
000002d0: 9b48 a9bd d75b 91be 8ab0 6f3e 39a3 58bd
000002e0: ef79 3ebe 12c8 03bf a24f 35bf 0643 10be
000002f0: 150b 15be b42c 363e 8e93 b5bd 6016 003f
00000300: 227b 023e a443 10bb 1000 c0bd 6562 bd3b
00000310: b368 e83c 5635 1ebc 36ba 333e f2fd 6c3d
00000320: 4672 183e 4f68 50bd 13c8 e73d b405 0d3f
00000330: 2743 493e d42c ca3e 2eba 553e f4ea a7bc
00000340: d994 de3d ad5e 80be 9040 d13d 0c88 3bbe
00000350: 79ee eebd c5ac 98be 825a 663e 334b 2ebe
00000360: 4eb9 543d de33 61be 94a0 c4bd 0318 05bf
00000370: 0800 dcbc 72a4 1fbe 6984 fa3e 1e14 853d
00000380: dd75 d9be e205 f5be ff49 51bf 3d76 48be
00000390: a323 68bd 1ce2 5b3e f31b dfbd 74bd 833e
000003a0: 21af c33d 50c9 673e 1572 fdbd fe65 4f3e
000003b0: 1c20 0d3e a898 283e 0269 d23e 5538 973e
000003c0: fc7c e3bd 7df5 f83c b5d2 983e d487 d1bd
000003d0: bb2d 76bd 7056 7ebe 0147 21bf f510 11be
000003e0: a556 36bd 181f 5c3e 26f8 d3be c625 e53e
000003f0: 71ed 103e 42c9 84bd 9f76 ba3c 9b10 023e
-0.16565126 -0.14620818 0.39186174 -0.014474686 0.07694885 -0.32433757 -0.3976547 0.042376477
-0.118057005 0.45512936 -0.3531795 0.36336082 0.12562951 0.10747088 -0.12617394 0.30553234
-0.091582045 -0.025302045 0.33304673 0.12778346 0.19240108 0.40246248 0.14636399 -0.32104635
0.023154203 0.10980207 0.18445185 -0.31803706 0.27987152 -0.20117082 0.25552562 -0.20987308
-0.1314956 0.016192464 -0.3085631 -0.29710928 -0.06562625 -0.1297289 -0.1321356 0.034361217
-0.5017955 -0.28140634 0.52008736 0.049774773 -0.049551606 -0.27431107 -0.4660386 -0.20274197
-0.23947053 0.32421166 -0.3966965 0.5240834 -0.12747198 0.19683504 -0.085512854 0.28222382
-0.16469139 -0.008746427 0.023076558 0.17668684 -0.03556247 -0.18328582 0.30673817 -0.07064459
-0.06073069 -0.4489557 -0.5106664 -0.020593982 -0.120861165 0.18865687 -0.4552944 0.50590384
-0.018008133 0.10681071 -0.06471196 -0.06557086 0.031437688 -0.09610217 0.513846 0.23878892
-0.1395631 -0.2322635 0.41979626 0.06444324 -0.18397045 -0.3046744 -0.40493175 -0.12392376
-0.040324688 0.3289178 -0.13451052 0.41811457 0.1652888 -0.010005817 -0.18308775 0.015111659
0.030750068 -0.082256064 0.4505927 0.24726309 -0.17889109 -0.13881168 0.51273 -0.115620516
-0.24184895 -0.2784667 -0.652499 0.023262268 -0.119816 0.34297433 -0.17548361 0.2908806
0.14964515 0.03876626 0.00040160844 0.19321029 0.25203314 -0.07177622 0.43157724 0.36972287
-0.15170686 -0.09033877 0.4263683 0.09321848 -0.026851106 -0.6527849 -0.7098992 -0.09156288
-0.07277085 0.38651752 -0.3570624 0.29974836 -0.13181336 0.115226366 0.037436023 0.23035675
-0.13905574 -0.109380424 0.48853156 0.1816349 -0.4027828 0.08902427 -0.007367927 -0.20247903
0.10635046 0.019211167 0.363217 0.14741401 0.24341558 -0.3952894 0.13433857 -0.094138354
-0.024604164 0.030856067 -0.06326983 -0.22275071 -0.020449897 -0.19112512 0.07519777 -0.3812301
-0.21490408 -0.3437592 0.45370045 -0.17869893 -0.09839134 -0.5813687 -0.82862294 -0.15256569
-0.14173277 0.30079398 -0.33404127 0.37488085 -0.13965292 0.0645571 -0.075953975 0.044533897
0.13971764 0.060128592 0.51467276 0.2754419 -0.082658015 -0.2839038 0.23407188 -0.052890036
-0.18601201 -0.5147716 -0.70824635 -0.14088067 -0.14555009 0.1779049 -0.088660344 0.5003414
0.12742284 -0.0022012973 -0.09375012 0.005779552 0.028370237 -0.009656271 0.17551503 0.05785937
0.14887342 -0.050880726 0.11317458 0.5508683 0.19654523 0.39487326 0.20871803 -0.020497777
0.10868234 -0.25072232 0.102173924 -0.18313617 -0.11666579 -0.29819313 0.22495463 -0.17020874
0.051934533 -0.21992442 -0.0960094 -0.51989764 -0.026855484 -0.15590075 0.48929146 0.06497978
-0.42472735 -0.4785605 -0.81753534 -0.19576354 -0.05667461 0.21472973 -0.10894003 0.2573048
0.095548876 0.22635388 -0.12375275 0.2025375 0.1378178 0.16464484 0.4109574 0.29535165
-0.11107823 0.030390495 0.29848257 -0.10230985 -0.060102206 -0.24837661 -0.6299897 -0.14166625
-0.044516224 0.21496236 -0.4140026 0.4475538 0.14153077 -0.064836994 0.022761641 0.12701647

layer.bias f4 [20]
00000000: 0acf ed3d bd4f 953e 97d7 d5bd 2af6 31be
00000010: 682f 57bd ac1f 743d c8cf 77be 763f 97bd
00000020: 2156 cdbc 44ec e8bc b922 d13e 4298 2d3c
00000030: a8a5 943d 4197 50be bbd5 743e 92e9 33bd
00000040: b32d 0b3f 0a62 283e 56f6 ec3e d78a 233e
0.11611755 0.29162398 -0.10441511 -0.1737906 -0.052535444 0.059600517 -0.24200356 -0.07385151
-0.025065484 -0.028432973 0.40846804 0.010595383 0.07258159 -0.20370199 0.23909657 -0.043923922
0.54366606 0.16443649 0.4628169 0.15970932

classify.weight f4 [1, 20]
00000000: 5d92 6b3f 5e97 4fbf 8c13 523f d23b 4c3f
00000010: 686d 353f b165 633f 10d1 333f d8c0 0ebf
00000020: 11e2 2c3f 9c0b 2f3f bf7a 1bbf 3a9a 323f
00000030: c506 663f 337f 3f3f cc62 40bf 11a9 2d3f
00000040: ee1a 37bf 4c89 34bf 5813 39bf 51e2 57bf
0.9202021 -0.81090343 0.82061076 0.7977878 0.70870066 0.88827044 0.7024088 -0.55763006
0.6753245 0.6837709 -0.6073417 0.6976658 0.8985408 0.74803466 -0.7515075 0.678361
-0.71525466 -0.70522 -0.7229514 -0.84329706
