17-赵圣博-秦皇岛/week1/model.pth (torch, 4507 bytes, 4 tensors)

embedding.weight f4 [12, 20]
0	0xbf803275	-1.0015398
1	0xbd23713a	-0.039902903
2	0x3f8d8716	1.105685
3	0x3d50bec0	0.050963163
4	0x3f079d4e	0.529744
5	0xbf9bb674	-1.2165055
6	0xbe003caa	-0.12523142
7	0x3efc4678	0.49272513
8	0x3f648844	0.89270425
9	0xbea124d6	-0.31473416
10	0x3dc03d52	0.09386696
11	0xbf0e2771	-0.5552893
12	0xbef0a185	-0.4699823
13	0x3fe1f46a	1.7652714
14	0xc00f084e	-2.2348819
15	0x3f883c16	1.0643337
16	0xbf2cdc7a	-0.6752392
17	0x3f248d5b	0.6427819
18	0xbfb2646f	-1.39369
19	0xbe27ff47	-0.16405974
20	0xbfa4fac5	-1.2889029
21	0x3fa94ebe	1.3227155
22	0x3f87e350	1.0616245
23	0x40075ac4	2.114915
24	0xbf1479be	-0.57998264
25	0xc00e1503	-2.2200325
26	0x3fc642d8	1.5489149
27	0xbf952f7b	-1.1655115
28	0x3f24b607	0.6434025
29	0xbfa62240	-1.2979202
30	0xbf2d86da	-0.6778389
31	0x3f4c685e	0.7984675
32	0x3fccfbe9	1.6014377
33	0xbe1fb9d6	-0.15598235
34	0x3f98cffb	1.1938471
35	0x3f291ce0	0.66059685
36	0xbf2e9983	-0.6820299
37	0xbd236462	-0.039890654
38	0xbf7bf6a0	-0.98423195
39	0x3f69db51	0.91350275
40	0x40383085	2.8779614
41	0xbd66c9fe	-0.05634498
42	0xbfb94844	-1.4475179
43	0x3f642ca0	0.8913059
44	0xbe4876c6	-0.19576558
45	0xbf7bbd27	-0.983355
46	0xbfcddf55	-1.608378
47	0x3dba56f6	0.09098618
48	0xbf11666d	-0.56796914
49	0xbfbba403	-1.4659427
50	0x3fec6015	1.8466822
51	0x3cad638a	0.021165628
52	0xbf6680b9	-0.90040165
53	0x3daf71da	0.08566637
54	0x3f9a6a04	1.2063603
55	0x3f4c23ba	0.79742014
56	0xbf5766e7	-0.8414139
57	0x3e9388fa	0.28815442
58	0x3f9632f4	1.17343
59	0x3c7c8185	0.015411739
60	0x3ea21015	0.31652895
61	0xbfd55329	-1.6666003
62	0xbb9cdb54	-0.004786888
63	0x3d0f24ca	0.034947194
64	0x3fa2ad7c	1.2709193
65	0xbefa909e	-0.4893846
66	0xbf9170f1	-1.1362592
67	0xbfe2be06	-1.771424
68	0x3fe758fb	1.807403
69	0xbf563021	-0.8366719
70	0x3f082f33	0.5319702
71	0x3dd39377	0.10330861
72	0x3d1bb92a	0.038018383
73	0x3f6741f6	0.90335023
74	0xbfaf6056	-1.3701274
75	0xbf7372a6	-0.95096815
76	0x3eaea416	0.34109563
77	0xbdd8403f	-0.10559129
78	0x40075a06	2.1148696
79	0x3d06483e	0.03278374
80	0x3ee15c1a	0.4401558
81	0x3f32183c	0.6956823
82	0x3ecf3e63	0.40477285
83	0x3edc4963	0.4302474
84	0x3f714241	0.9424172
85	0x401b1f31	2.4237788
86	0xbf065944	-0.5247996
87	0x3fc31e2d	1.5243584
88	0xbf7527db	-0.9576394
89	0x3c0e10ec	0.008671027
90	0x3f4a4a4c	0.7901962
91	0xbe9b8e13	-0.30381832
92	0x3f8e0d3d	1.109779
93	0xbf0232a7	-0.5085854
94	0x3fb37ecd	1.4023072
95	0x3d76b8c2	0.060234793
96	0xc03e393c	-2.9722433
97	0x3f6c8375	0.9238809
98	0x3fdd8719	1.7306854
99	0x3f2cb258	0.6745963
100	0xbfa505e2	-1.289242
101	0xbfd5b116	-1.6694667
102	0xbe9dbbe6	-0.30807418
103	0x3ee24c62	0.441989
104	0x3f5135f0	0.8172293
105	0xbd7e20e5	-0.06204309
106	0xbf607915	-0.87684757
107	0x3e2f71ab	0.17133205
108	0xbd46864b	-0.048467916
109	0xbf2e5423	-0.6809713
110	0xbfbedea6	-1.4911697
111	0x3fa1b838	1.2634344
112	0x3dc54d73	0.09633913
113	0x3d3e735b	0.04649673
114	0xbfc35c06	-1.5262458
115	0xbe3814ce	-0.17976686
116	0xbe476c4f	-0.1947491
117	0x3ffcdb67	1.9754456
118	0x3f8903cb	1.0704283
119	0x3e5b2d7a	0.21404067
120	0x3d8752bb	0.066075765
121	0xc006d8ec	-2.1069899
122	0xbea295d3	-0.31754932
123	0xbfb3ceca	-1.4047482
124	0x3edabb20	0.4272089
125	0x3c04f02a	0.0081139
126	0xbf3c645b	-0.7359063
127	0xbc8b9099	-0.017036723
128	0x3f91489e	1.1350286
129	0xbf982d90	-1.1888905
130	0xbeb0fef7	-0.34569523
131	0x3cff9adb	0.03120177
132	0xbf2c8fcf	-0.67406934
133	0xbf131ee6	-0.5746902
134	0xbf2763d0	-0.65386677
135	0x3f1c0ab3	0.60953826
136	0x3f40cbef	0.7531118
137	0xbe9e0736	-0.30864877
138	0x3f528a91	0.82242686
139	0xbf0473db	-0.5173928
140	0x3eb2a327	0.348901
141	0xbfde08ea	-1.734647
142	0xbe898382	-0.26858145
143	0xbfec9c6b	-1.8485235
144	0x3f4d62b9	0.80228764
145	0x3fbced18	1.4759855
146	0x3ec2624f	0.37965629
147	0xbf911ead	-1.1337487
148	0x3dcb2b89	0.09920413
149	0x3f1c660c	0.6109321
150	0xbe759e4b	-0.23986165
151	0xbf97fc0c	-1.1873794
152	0x3deee0c7	0.116639666
153	0xbd06e810	-0.032936156
154	0xbf5e9623	-0.8694784
155	0xbdd72569	-0.10505182
156	0xbf9b03d9	-1.2110549
157	0x3f56c6a8	0.83896875
158	0x3e83ef37	0.25768444
159	0x3f1b3fa6	0.60643995
160	0x3f05eaf7	0.5231165
161	0xbf82d0ad	-1.0219933
162	0xc00b63b1	-2.1779597
163	0xc049cd43	-3.1531532
164	0x3f8116f6	1.0085132
165	0xbea939d5	-0.33051935
166	0xbfdbfe67	-1.7187012
167	0x3e9b65b2	0.30351025
168	0xbf342713	-0.7037212
169	0x3d03fb5f	0.032222148
170	0x3f977e6f	1.183546
171	0xc009fd3d	-2.1560814
172	0xbec6c40d	-0.3882145
173	0x3fb612c6	1.4224479
174	0x3f8ed239	1.1157905
175	0xbf07d1aa	-0.53054297
176	0x3d654488	0.05597356
177	0xbe0843f1	-0.13307168
178	0x3da6a64c	0.08137187
179	0xbfa38cb1	-1.2777311
180	0xbf224808	-0.6339116
181	0x3fcde1d6	1.6084545
182	0x3f8194ea	1.012357
183	0x3e4c83f7	0.19972216
184	0xbf2ee0a3	-0.6831152
185	0xc00e5147	-2.2237108
186	0x3fcad560	1.5846367
187	0x3ea6591b	0.32489857
188	0x3e8d5375	0.27602735
189	0xbfe71c5a	-1.8055527
190	0x3f60e4ad	0.8784893
191	0xc00a18e7	-2.15777
192	0x3de61cbc	0.112359494
193	0xbe857bfb	-0.26071152
194	0x3fcd35e6	1.6032073
195	0xc0099ad3	-2.1500747
196	0x3f45b6f5	0.77232295
197	0xbfd0433f	-1.6270522
198	0x3f147fa1	0.58007246
199	0x3ff2ac26	1.8958786
200	0xbf88d9bf	-1.0691451
201	0xbf0151e6	-0.5051559
202	0xbfa263ab	-1.2686666
203	0xbe433897	-0.19064556
204	0x3e1607b0	0.1465137
205	0x3f3ce84c	0.73791957
206	0xbd206329	-0.039157066
207	0x3fbe719a	1.4878418
208	0xbe356ef7	-0.17718111
209	0x3ea9da59	0.331744
210	0xbe81e7ef	-0.25372264
211	0x3fb6cd11	1.4281331
212	0x3f441b37	0.76604027
213	0xc000211c	-2.0020208
214	0x3e9079a0	0.28217793
215	0xbf2e3e6d	-0.68064004
216	0xbfed489e	-1.8537786
217	0x400644c6	2.0979476
218	0x3f9b5977	1.2136678
219	0x3f4a7f9c	0.79100966
220	0xbecb8a1b	-0.39753804
221	0xbe2c9604	-0.16854101
222	0xbfde462f	-1.7365168
223	0xbffc9da5	-1.9735609
224	0xbcf88072	-0.030334685
225	0xbf797762	-0.9744779
226	0xbd9304e6	-0.07178669
227	0xbf32334b	-0.69609517
228	0x3fd8acf7	1.6927785
229	0x3f3cbd7c	0.7372663
230	0x3f8c5830	1.0964413
231	0x3f02f41e	0.51153743
232	0x40209ee1	2.5096972
233	0x3ef0d78e	0.47039455
234	0x3fef037c	1.8672938
235	0xc016d05d	-2.3564675
236	0xbde4fa9d	-0.11180613
237	0x402015e6	2.5013366
238	0x3fdfee6d	1.7494637
239	0xbf936eb2	-1.1518157

layer.weight f4 [20, 20]
0	0x3ccb5659	0.024821447
1	0xbee0cebf	-0.43907735
2	0x3d446f27	0.047957566
3	0xbce3ece5	-0.027822921
4	0x3e907566	0.28214568
5	0x3d680579	0.056645844
6	0xbd9fc78c	-0.078017324
7	0xbe20422b	-0.15650241
8	0x3ddba22a	0.1072429
9	0xbdc98aeb	-0.098409496
10	0xbe26c2ec	-0.16285294
11	0xbd65fd22	-0.05614961
12	0x3d541cea	0.051785387
13	0x3ebb1f31	0.36547235
14	0xbeed9d64	-0.46409142
15	0xbdfc278c	-0.123122305
16	0x3e8092d0	0.2511201
17	0x3dbc02d5	0.09180228
18	0x3e545970	0.20737243
19	0xbe2ed691	-0.17074038
20	0x3e8a1e25	0.26976123
21	0xbde4f21e	-0.11178993
22	0xbe994cfd	-0.2994155
23	0xbdb2912b	-0.08719095
24	0xbcc92f1e	-0.0245586
25	0x3dc46993	0.09590449
26	0xbe16cbaf	-0.14726137
27	0x3d88d819	0.06681842
28	0xbd8ebc6c	-0.06969532
29	0x3da05233	0.07828178
30	0x3e9260b3	0.285894
31	0xbe00d9ab	-0.12583034
32	0x3d1e40b3	0.03863592
33	0x3ca66ce7	0.0203156
34	0x3eca146d	0.3946871
35	0xbd2fb694	-0.04289873
36	0xbedcccfc	-0.4312514
37	0x3e5be771	0.21475007
38	0x3e306832	0.17227247
39	0xbd58d3df	-0.05293643
40	0xbe971dbc	-0.29514873
41	0x3e67b4d1	0.2262757
42	0x3eab4fd7	0.3345935
43	0x3ecfb99d	0.405713
44	0xbe952983	-0.29133233
45	0xbede90a8	-0.4346974
46	0x3f1c2dda	0.61007464
47	0xbe3a2afc	-0.1818046
48	0xbdbc30d5	-0.091890015
49	0xbd222ae2	-0.039591677
50	0xbea00f9f	-0.31261918
51	0xbe98cbc5	-0.29842964
52	0x3d888be0	0.06667304
53	0xbce01eed	-0.027358497
54	0x3eb02acc	0.3440765
55	0xbd8c5427	-0.06851988
56	0x3e2e6042	0.17028907
57	0xbebd3144	-0.3695165
58	0xbe60b70a	-0.21944824
59	0x3e54349f	0.20723198
60	0xbea964a6	-0.330846
61	0x3eff9116	0.4991538
62	0x3e275e44	0.16344553
63	0x3e70836c	0.23487633
64	0xbe43d7d8	-0.19125307
65	0xbec660be	-0.38745683
66	0x3f1b862f	0.6075162
67	0x3d94f820	0.072738886
68	0x3da228f6	0.07917969
69	0xbd54cf46	-0.051955484
70	0xbdb14a46	-0.08656745
71	0xbda48722	-0.08033587
72	0xbe0466c9	-0.12929834
73	0x3ddb10b4	0.10696545
74	0x3d4d5179	0.050126527
75	0xbd8e7019	-0.06954975
76	0x3d9e5ac6	0.077321574
77	0xbebbd684	-0.366871
78	0xbe2921e3	-0.16516833
79	0x3e44abc8	0.19206154
80	0x3dec5d51	0.11541236
81	0xbd1af12f	-0.037827667
82	0xbdea1b2a	-0.114309624
83	0xbe1e5ae9	-0.15464367
84	0x3e8d744e	0.27627796
85	0x3e75f4af	0.2401912
86	0xbec3dc6c	-0.38254106
87	0xbe578805	-0.21047981
88	0x3d660e2b	0.056165855
89	0xbde82afa	-0.11336322
90	0x3edbf3e5	0.42959514
91	0xbe842661	-0.2581053
92	0x3d3beba5	0.045879025
93	0x3e7ee887	0.2489339
94	0x3eb41440	0.351717
95	0x3d5e4df7	0.05427357
96	0xbc80bf29	-0.015716152
97	0x3e3e8ae4	0.1860767
98	0x3deaa821	0.11457849
99	0xbab14ea5	-0.0013527466
100	0xbec06428	-0.37576413
101	0x3f06bc47	0.5263104
102	0x3e5af2a5	0.21381624
103	0x3e958999	0.2920654
104	0xbe91a95f	-0.28449532
105	0xbebee4c8	-0.3728392
106	0x3f1b850d	0.60749894
107	0xbdefd290	-0.117100835
108	0xbd9135bb	-0.070903264
109	0xbcb89f5c	-0.022536926
110	0xbdb9d057	-0.09072941
111	0xbe17b0ea	-0.14813581
112	0xbd92a7d2	-0.071609154
113	0xbd88ca85	-0.066792525
114	0x3d384bee	0.044994287
115	0xbc4dc15e	-0.012558309
116	0x3e1ff24e	0.15619776
117	0xbeb402b7	-0.3515832
118	0xbda09968	-0.0784176
119	0x3da81f46	0.0820909
120	0xbe2901b7	-0.1650456
121	0xbef3049b	-0.4746445
122	0xbe716f0b	-0.23577516
123	0xbd284700	-0.041083336
124	0x3ed5d6a5	0.41765323
125	0xbe2f9c31	-0.17149426
126	0xbe67f68b	-0.22652642
127	0xbe985a6a	-0.2975648
128	0x3db2623e	0.087101445
129	0x3d018552	0.031621285
130	0xbdc154a1	-0.0943997
131	0xbd87e90d	-0.06636248
132	0x3b9c8868	0.004777003
133	0x3ea5ce86	0.32384127
134	0xbe334728	-0.17507613
135	0xbe674348	-0.2258426
136	0x3e6b94ae	0.23005936
137	0x3e4a1a48	0.19736588
138	0x3e30b004	0.17254645
139	0xbed09d6a	-0.40745097
140	0xbe9514e0	-0.2911749
141	0x3ede8f2e	0.43468612
142	0x3e28181a	0.16415444
143	0x3e9f0570	0.31058836
144	0xbe9a766d	-0.30168477
145	0xbe7a6f36	-0.24456486
146	0x3f0f8f43	0.56077975
147	0xbd2ceb1f	-0.042216416
148	0x3e08b86b	0.133516
149	0xbde60fa1	-0.1123345
150	0xbe9f5786	-0.31121463
151	0xbd240e2a	-0.04005257
152	0xbd686b20	-0.056742787
153	0x3e6374df	0.22212552
154	0x3e83fc9e	0.2577867
155	0xbb0d33a9	-0.0021545684
156	0x3dd1b79d	0.102400996
157	0xbecb1cc2	-0.39670378
158	0xbe407daf	-0.18797944
159	0x3e05dfff	0.13073729
160	0xbda8ba29	-0.08238632
161	0xbf00a9dd	-0.5025919
162	0x3db53d3a	0.08849569
163	0xbe6c0a87	-0.23050891
164	0x3e9b6d62	0.3035689
165	0x3d4af9a7	0.049554493
166	0x3d378940	0.044808626
167	0xbe85e84f	-0.261538
168	0x3ece501a	0.40295488
169	0xbd6e2963	-0.05814494
170	0xbd8dfff0	-0.06933582
171	0x3e8e8fd4	0.27844107
172	0x3e991415	0.29898134
173	0xbe4e695a	-0.20157376
174	0xbdf15039	-0.117828794
175	0xbdbad71f	-0.09123062
176	0x3dea34e1	0.11435867
177	0x3d92ca11	0.07167447
178	0x3ef9b688	0.48772073
179	0xbd16f80a	-0.036857642
180	0x3e521bce	0.20518419
181	0xbcf4195e	-0.029797252
182	0xbe3beb01	-0.18351366
183	0x3da0b8aa	0.07847722
184	0x3ded9a37	0.1160168
185	0xbd6bd394	-0.057574823
186	0xbe1ab799	-0.151091
187	0x3eb2b196	0.34901112
188	0xbecc1ed4	-0.3986727
189	0xbce90b99	-0.028447913
190	0x3eaee0c9	0.34155872
191	0xbd67b7a2	-0.05657161
192	0xbd7402e7	-0.05957308
193	0x3e9704f2	0.2949596
194	0x3ece27f5	0.4026486
195	0x3dc3ff1d	0.09570143
196	0xbd9bc8a3	-0.07606628
197	0x3efbd324	0.49184525
198	0x3eaf58fc	0.34247577
199	0xbe8e0f85	-0.27746215
200	0xbd570d9b	-0.05250321
201	0xbdb29359	-0.087195106
202	0xbeecf645	-0.4628164
203	0xbd83acbb	-0.0642943
204	0x3e3071e6	0.17230949
205	0xbe602006	-0.21887216
206	0xbeed8a7c	-0.46394718
207	0xbda37816	-0.07981889
208	0xb94d91be	-0.00019604617
209	0x3e154389	0.14576544
210	0x3eca1a40	0.39473152
211	0x3e545ba9	0.2073809
212	0xbdd8dce5	-0.10589007
213	0xbd6c7757	-0.057731
214	0x3e04ee49	0.12981524
215	0xbddde605	-0.10834888
216	0xbdf30ff4	-0.11868277
217	0x3eac4dd4	0.33653128
218	0x3e5419c5	0.20712955
219	0xbd6c7745	-0.05773093
220	0xbe96032c	-0.29299295
221	0x3efebbc0	0.49752617
222	0x3e43b666	0.19112548
223	0x3e04e5f5	0.12978347
224	0xbe60f2c0	-0.21967602
225	0xbeb329c2	-0.34992796
226	0x3f089325	0.53349525
227	0xbe25de08	-0.1619798
228	0xbdaa591c	-0.083177775
229	0xbe96ed67	-0.29478
230	0xbe818b39	-0.2530153
231	0xbe97359c	-0.29533088
232	0x3e08018e	0.13281843
233	0xbd7e9ab4	-0.062159255
234	0x3e46c139	0.19409646
235	0x3e77b9fd	0.24192043
236	0x3e262499	0.16224898
237	0xbd82cf3e	-0.063871846
238	0xbe96b83c	-0.29437435
239	0x3e0fcf96	0.14044032
240	0xbe0068c0	-0.12539959
241	0x3f0d4629	0.5518518
242	0x3ee72ebd	0.45152846
243	0x3e8fbe9e	0.28075117
244	0xbf02025c	-0.5078485
245	0xbecf3db1	-0.40476754
246	0x3f3277ae	0.69713867
247	0xbda47287	-0.08029657
248	0xbd523c8d	-0.051327277
249	0xbde5ee32	-0.11227073
250	0xbd9630e2	-0.073335424
251	0xbe6f88ba	-0.23392001
252	0x3e7b5b0e	0.24546453
253	0xbe322e18	-0.17400396
254	0xbe20ce47	-0.15703689
255	0x3d378ce2	0.04481209

layer.bias f4 [20]
0	0x3e68966c	0.22713631
1	0x3d94f551	0.07273353
2	0xbe9e768c	-0.3094982
3	0xbcc43b05	-0.023953924
4	0x3e7f2f0e	0.24920294
5	0xbcd7851e	-0.026308592
6	0x3dace532	0.08442153
7	0xbb9213be	-0.00445792
8	0x3b668359	0.0035173504
9	0x3ce36018	0.027755782
10	0x3e9d296c	0.30695665
11	0xbe4f35a6	-0.20235309
12	0xbd91777e	-0.071028695
13	0xbdd8d809	-0.105880804
14	0xbd8cf6b0	-0.068829894
15	0x3e6968d7	0.227939
16	0x3d6732e2	0.05644501
17	0x3d851cb8	0.06499618
18	0xbd330f3c	-0.0437157
19	0x3da4300c	0.08016977

classify.weight f4 [1, 20]
0	0xbf0032ec	-0.500777
1	0xbf018e73	-0.50607985
2	0x3f536a57	0.82584137
3	0x3f7b171f	0.98082155
4	0xbf1a12ec	-0.6018512
5	0x3f72a804	0.9478762
6	0xbf136d6a	-0.5758883
7	0x3f46e713	0.7769634
8	0xbf116db6	-0.5680803
9	0xbf0250f7	-0.5090479
10	0xbf022e58	-0.50851965
11	0x3f6936fe	0.91099536
12	0x3f6ae016	0.9174818
13	0x3f4c0e1f	0.7970905
14	0x3f596c14	0.8493054
15	0xbf16cb3d	-0.58903867
16	0xbf16bb24	-0.58879304
17	0xbf0c83c7	-0.54888576
18	0x3f567f32	0.83787835
19	0x3f81e646	1.0148399
